dl/poal_dl/modelpara/20230827_044658__epochsbackbone200_epochsmqnet100_lrbackbone0.1_lrmqnet0.001_mqnet.params (torch, 3489 bytes, 3 tensors)

W1 f4 [2, 64]
0.15095814 0.14672405 0.19541629 0.77728736 0.899493 -0.00012414916 0.7051871 0.81308484
0.9526842 0.017246814 0.86343694 0.20775522 0.06685633 0.24810418 0.52794564 0.57835174
0.7619055 0.0980881 0.057782922 0.9706217 0.68451804 0.7975804 0.4520513 0.4188409
0.5286258 0.58436334 0.58220893 -1.5601931e-06 0.5380721 0.61901593 0.56652695 0.24357381
0.5555575 0.2799142 0.932885 0.025475355 0.048852857 0.27464992 0.7600906 0.82243645
0.9856614 0.5702319 0.19436502 0.50767267 0.69588196 0.5793545 0.22418329 0.5930337
0.91331595 0.11709184 0.43006694 0.81493455 0.19514394 0.98269856 0.2665708 0.45432243
0.46436 0.95316523 0.9652669 0.37105343 0.8108413 0.24968249 0.25312316 0.30644256
0.9686693 0.38738376 0.2745238 0.15882577 0.11893746 0.08842897 0.4229403 0.7678705
0.77426994 0.48611367 0.64835936 0.08759604 0.7899137 0.006094208 0.48704106 0.08606332
0.82039195 0.59185636 0.22077577 0.38335937 0.36965194 0.2732865 0.089483425 0.8467839
0.92688394 0.826645 0.67751104 0.5666649 0.61829686 0.004079874 0.46313155 0.36245748
0.37171093 0.017155394 0.9114583 0.7465755 0.6516904 0.9121119 0.08119252 0.1479729
0.45229277 0.36956075 0.47698012 0.49187952 0.42345056 0.292036 0.63586056 0.6205805
0.62991196 0.6151757 0.9822127 0.6763047 0.61252856 0.61085176 0.96807444 0.85173464
0.69744706 0.39470917 0.14928508 0.38370037 0.008122689 0.6088444 0.6745927 0.14841782
00000000: c594 1a3e d43e 163e 351b 483e 4efc 463f
00000010: 2c45 663f 092e 02b9 2487 343f 5426 503f
00000020: 1de3 733f 3149 8d3c 340a 5d3f c9bd 543e
00000030: f9eb 883d 060f 7e3e 7227 073f dc0e 143f
00000040: 3d0c 433f 6ae2 c83d c9ad 6c3d aa7a 783f
00000050: 933c 2f3f 3b2e 4c3f 4573 e73e 5072 d63e
00000060: 0554 073f d698 153f a50b 153f d467 d1b5
00000070: 18bf 093f d477 1e3f e907 113f 6a6b 793e
00000080: 0439 0e3f ea50 8f3e 8dd1 6e3f b1b1 d03c
00000090: ef19 483d ea9e 8c3e 4c95 423f 328b 523f
000000a0: 4e54 7c3f b8fa 113f a007 473e d6f6 013f
000000b0: 5225 323f 9450 143f 4e90 653e 0ed1 173f
000000c0: 13cf 693f d9cd ef3d bc31 dc3e 8d9f 503f
000000d0: d0d3 473e 2292 7b3f f87b 883e f39c e83e
000000e0: 98c0 ed3e a302 743f bb1b 773f b7fa bd3e
000000f0: 4c93 4f3f c4ac 7f3e 5c99 813e 0ae6 9c3e
00000100: b6fa 773f 2a57 c63e 628e 8c3e 39a3 223e
00000110: 7c95 f33d 3f1a b53d a28b d83e 2993 443f
00000120: 8e36 463f e4e3 f83e e1fa 253f 8d65 b33d
00000130: c937 4a3f ecb1 c73b 725d f93e f741 b03d
00000140: 3505 523f e683 173f 0b13 623e ae47 c43e
00000150: 0543 bd3e 35ec 8b3e 1643 b73d d4c6 583f
00000160: 4448 6d3f 029f 533f 5d71 2d3f f310 113f
00000170: b448 1e3f 77b0 853b 941f ed3e 0794 b93e
00000180: e550 be3e 7889 8c3c 5555 693f 921f 3f3f
00000190: 2fd5 263f 2a80 693f 4448 a63d 3586 173e
000001a0: eb92 e73e 1137 bd3e bd36 f43e a2d7 fb3e
000001b0: 83ce d83e be85 953e c2c7 223f 5dde 1e3f
000001c0: e941 213f 287c 1d3f 4b72 7b3f 4e22 2d3f
000001d0: acce 1c3f c860 1c3f bad3 773f 480b 5a3f
000001e0: e48b 323f 5217 ca3e 30de 183e 6074 c43e
000001f0: 0715 053c 3add 1b3f 1bb2 2c3f d7fa 173e

W2 f4 [64, 1]
0.07726108 -4.590282e-06 0.74781173 0.31069872 0.76548684 0.4816912 0.20451629 0.93504465
0.756712 0.1703212 0.8012741 0.6141309 0.8638841 0.30805644 0.15810372 0.32242292
0.5627257 0.16839087 0.5920583 0.20702337 0.82325304 0.46243823 0.7838781 0.90071625
0.8755778 0.93916535 0.35458258 0.45364368 0.591913 0.71153647 0.8455379 0.0913743
0.26526964 0.80273443 0.8985376 0.10539994 0.12573126 0.047562674 0.74211836 0.5968635
0.30685318 0.4492845 -2.4207075e-05 -1.06375666e-07 0.21010226 0.30034402 0.00960028 0.61753124
0.31372195 0.19320035 0.23041403 0.4555731 0.10204824 0.3096574 0.10394572 0.63659555
0.07809386 0.88350666 0.3723328 0.596319 0.8645445 0.22065768 0.92528266 0.5850301
00000000: 0f3b 9e3d 3906 9ab6 9770 3f3f e713 9f3e
00000010: f2f6 433f 3ba0 f63e b86c 513e 165f 6f3f
00000020: e1b7 413f ae68 2e3e 4d20 4d3f af37 1d3f
00000030: 8227 5d3f 93b9 9d3e f1e5 213e 9e14 a53e
00000040: cb0e 103f a86e 2c3e 2291 173f effd 533e
00000050: b6c0 523f b4c4 ec3e 3cac 483f 5795 663f
00000060: de25 603f 246d 703f d98b b53e fc43 e83e
00000070: 9c87 173f 4127 363f 2c75 583f 7322 bb3d
00000080: 6cd1 873e 0180 4d3f 8f06 663f ecdb d73d
00000090: b2bf 003e 14d1 423d 78fb 3d3f 0ccc 183f
000000a0: dc1b 9d3e 9e08 e63e 4c10 cbb7 a470 e4b3
000000b0: 0c25 573e b1c6 993e 7e4a 1d3c 8716 1e3f
000000c0: 2aa0 a03e 50d6 453e a8f1 6b3e e140 e93e
000000d0: abfe d03d 6a8b 9e3e 7ee1 d43d edf7 223f
000000e0: acef 9f3d 7e2d 623f 68a2 be3e 5da8 183f
000000f0: ca52 5d3f 16f4 613e 53df 6c3f 88c4 153f

b1 f4 [64]
0.07952429 0.912363 0.45296514 0.22126691 0.099906 0.6207534 0.91252464 0.43349242
0.18985075 0.29435107 0.1599733 0.718791 0.7016224 0.19516881 0.64784795 0.520757
0.7457046 0.48543102 0.22289611 0.7124014 0.5721523 0.57134634 0.12773137 0.46019405
0.36278182 0.14436159 0.8609208 0.06828649 0.7794069 0.17435703 0.16480286 0.21988373
0.48468643 0.6292537 0.38394994 0.505411 0.9834486 0.15472181 0.43842816 0.41765544
0.80957407 0.7591 0.14643756 0.4345305 0.9313523 0.94483095 0.5522192 0.6217457
0.1408036 0.25623056 0.106827356 0.73646516 0.07003516 0.4839429 0.60373986 0.79895896
0.6935756 0.55413455 0.5558149 0.6941602 0.418996 0.768169 0.6889235 0.5288396
00000000: a2dd a23d 9f90 693f 0ceb e73e cb93 623e
00000010: 849b cc3d b2e9 1e3f 379b 693f b8f2 dd3e
00000020: 3c68 423e 2fb5 963e 0ad0 233e b002 383f
00000030: 879d 333f 55da 473e 5dd9 253f 5550 053f
00000040: 7fe6 3e3f 6a8a f83e e13e 643e f05f 363f
00000050: 9378 123f c143 123f 03cc 023e 8e9e eb3e
00000060: 8abe b93e 86d3 133e 4e65 5c3f cad9 8b3d
00000070: 3687 473f a68a 323e 15c2 283e 3329 613e
00000080: d228 f83e c516 213f 1695 c43e 9e62 013f
00000090: 4ac3 7b3f 656f 1e3e a879 e03e efd6 d53e
000000a0: 3f40 4f3f 6154 423f baf3 153e c87a de3e
000000b0: 1b6d 6e3f 71e0 713f 3d5e 0d3f ba2a 1f3f
000000c0: d22e 103e a730 833e 4dc8 da3d fb88 3c3f
000000d0: 986e 8f3d 5dc7 f73e b28e 1a3f 9388 4c3f
000000e0: 2c8e 313f c3db 0d3f e349 0e3f 7cb4 313f
000000f0: a586 d63e b9a6 443f 4a5d 303f 0862 073f
