dl/poal_dl/modelpara/20230827_163446__epochsbackbone200_epochsmqnet100_lrbackbone0.1_lrmqnet0.001_mqnet.params (torch, 3489 bytes, 3 tensors)

W1 f4 [2, 64]
000000 d0 4c 21 3f 8b 15 f6 3c 04 6b 66 3f cf e5 b9 3e
       0.6300783 0.03003957 0.9000704 0.36308143
000010 82 6f 43 3f 06 e0 66 3f c9 d8 67 3e 85 62 17 3f
       0.7634202 0.9018558 0.2264129 0.59134704
000020 e1 69 48 3e 81 74 bc 3e 77 82 56 3f d4 7f 01 3f
       0.1957164 0.36807635 0.83792824 0.50585675
000030 54 b8 87 3e 97 4f 6f 3f ab ab 5d 3f 2b 26 27 3f
       0.2650782 0.9348082 0.8659007 0.65292615
000040 b1 45 7f 3f 50 4f 39 3f 4a a7 82 3e 57 09 67 3f
       0.99715716 0.72386646 0.25518256 0.90248626
000050 7b c4 2f 3f 4c eb bc 3e 71 95 3d 3f 95 33 73 3f
       0.6865918 0.36898267 0.74056154 0.9500058
000060 2d ac c0 3e 3d 98 5b 3f c1 a0 e7 3d ad a6 5c 3e
       0.3763136 0.8577917 0.11309958 0.21547957
000070 f1 79 a0 3e 61 0a 17 3f 00 0d 9b 3e 46 79 0d 3f
       0.31343034 0.5900021 0.30283356 0.55263174
000080 8b 0d 6d 3f 12 3f cb 3e 0e b9 5b 3e ce 34 53 3f
       0.9259879 0.39696556 0.21457312 0.8250245
000090 d5 9a ed b8 5e 13 c8 3e 8b d5 6a 3f 9b 46 26 3f
       -0.0001132988 0.39077276 0.9173209 0.64951485
0000a0 67 08 3f 3f 6d 96 27 3f 4f fb 4e 3f cf c4 18 3e
       0.74622196 0.65463907 0.80852216 0.14918827
0000b0 fa 5b 61 b9 ec f1 51 3f d4 21 54 3f 8e 43 46 3f
       -0.00021491936 0.8200977 0.8286412 0.7744683
0000c0 c2 03 22 3f 72 df dd 3e 18 31 9c 3e 05 ad 05 b9
       0.63286984 0.43334538 0.30506206 -0.00012748323
0000d0 a0 cc 5c 3d 19 84 36 3f 89 54 b1 3e 77 0a e1 3e
       0.053906083 0.71295315 0.34634808 0.43953297
0000e0 35 90 72 3f 09 16 ec 3e e3 6b 76 3e 19 c8 5e 3f
       0.9475129 0.4611056 0.24064593 0.87024075
0000f0 44 bf 12 3e d8 2f 87 3e 70 0f de 3e 58 cb 3c 3f
       0.14330775 0.2640369 0.43371153 0.7374778
000100 6c 3b 4f 3d 00 21 29 3f e1 a0 88 3e 97 3a 45 3e
       0.05059378 0.6606598 0.2668524 0.19260632
000110 bf c7 bd 3e bb 48 62 3f 76 3f 2e 3f e4 a8 17 3f
       0.37066457 0.8839223 0.68065584 0.5924208
000120 50 05 75 3c db 75 67 3e e4 33 05 3f db db 8c 3e
       0.01495488 0.22603552 0.52032304 0.27511486
000130 db 08 70 3f 97 ee 96 3e 1e 8f de 3e f1 ec 83 3e
       0.9376351 0.29478905 0.43468565 0.2576671
000140 d0 77 13 3f db 2f ef 3e 7a ea ea 3e e7 cb 0d 3f
       0.57604694 0.46716198 0.45882016 0.55389255
000150 7b ed 3e 3e d8 b1 1e 3b 4f 92 15 3f d3 0e 6e 3f
       0.18645279 0.002421489 0.58426374 0.9299137
000160 34 33 76 3f ed 05 47 3f f5 f2 d8 3d 5a 5f 13 3f
       0.9617188 0.7774342 0.105932154 0.5756737
000170 4c 5b 52 3f 30 52 c1 3e f3 c1 29 3e 85 eb 29 3f
       0.8217056 0.37758017 0.16577892 0.66375
000180 48 63 5b 3e 1f 3c 98 3e 6b e4 39 3f 92 e1 65 3f
       0.21424592 0.2973337 0.72614163 0.8979732
000190 09 72 87 3c 0e aa 09 3f 7a 07 fd 3d 4a 95 f2 3e
       0.016533868 0.5377511 0.12354942 0.47379524
0001a0 5a f8 64 3f 03 91 9f 3e 07 2e 2a 3f d3 d8 43 3f
       0.89441454 0.31165323 0.6647648 0.7650272
0001b0 82 e0 2d 3f 81 97 5e 3f 8d 6c 2c 3f 98 a9 fc 3e
       0.67920697 0.86949927 0.67353135 0.4934814
0001c0 29 cd 13 3f d2 f0 0e 3f 1b 87 6e 3f dd 87 e8 b7
       0.57734925 0.5583621 0.93174905 -2.7719821e-05
0001d0 87 28 0b 3e e0 7c f7 3d 52 a7 e4 3e 1b ee f1 3e
       0.13589679 0.12084365 0.44658905 0.47251973
0001e0 27 fc 34 3f 92 26 75 3f 6a be 72 3f 91 85 60 3e
       0.70697254 0.9576198 0.948218 0.21925952
0001f0 c4 72 40 3f 51 ec 11 3f 15 82 2f 3e 3f 36 49 3f
       0.7517512 0.57001215 0.17139466 0.785984

W2 f4 [64, 1]
000000 9c 89 72 3f 2f 65 6a 3f a3 db 54 3e af 4b 7d 3e
       0.94741225 0.91560644 0.2078691 0.24735902
000010 06 56 2e 3f b4 67 23 3f 06 4f 9a 3e c8 9c 19 3f
       0.6810001 0.63830113 0.30138415 0.60004854
000020 bf 6e f9 3d c2 51 46 3f 48 fc eb 3c 66 02 a1 3d
       0.12179326 0.774685 0.02880682 0.078617856
000030 6e 10 69 3f 0f 9f da 3e 49 2a 11 3c ef a2 b7 3e
       0.91040695 0.42699477 0.008860179 0.35866496
000040 f6 ce 63 3f 31 f7 61 3f 85 70 f4 3e c4 d4 09 3f
       0.8898767 0.8826781 0.47742096 0.5384028
000050 3b 68 8e 3d 6b b6 c0 b7 5e bd bb 3e 9e 0a 70 3d
       0.06953474 -2.2973129e-05 0.36667913 0.058603875
000060 cd 49 49 3e 8a aa 0d 3f 23 96 01 3e 39 30 d2 3e
       0.19657059 0.55338347 0.12654929 0.41052416
000070 57 e4 d5 3e e7 c7 28 3e 84 3c 49 3d 67 38 44 3d
       0.41775772 0.16482507 0.049129978 0.047905352
000080 d6 54 b9 3e c0 a8 3b 3f 3d 8f 05 3d 71 06 45 3e
       0.36197537 0.7330437 0.032607306 0.19240738
000090 6d 4f c8 3e 1e 97 fd 3d 68 0f 13 3f fb 44 73 3f
       0.39123097 0.12382339 0.57445383 0.9502713
0000a0 4c aa 14 b8 6c 72 61 3f 34 77 c2 3d 23 75 38 3f
       -3.544455e-05 0.8806522 0.094953924 0.72053736
0000b0 5c 99 2b 3f a5 87 c3 3e 30 f6 58 3f 74 03 36 3f
       0.6703088 0.38189426 0.8475065 0.7109902
0000c0 86 91 e6 3e f9 ed 05 3e 6d 3e e2 b7 75 62 68 3f
       0.450329 0.1307906 -2.6970369e-05 0.90775234
0000d0 8c 45 7c 3d c5 dc ac 3e b3 b8 20 3f 85 48 66 3f
       0.061589763 0.33762184 0.6278183 0.89954406
0000e0 4b 15 e6 3c c5 4e 31 3f 99 e5 0c 3e eb da bd 3e
       0.028086325 0.6926082 0.1375946 0.37081084
0000f0 57 04 19 3f 7c 32 a9 3d 70 a8 9a 3e 0b 6d 16 b8
       0.5977225 0.08261582 0.30206633 -3.586434e-05

b1 f4 [64]
000000 cc f0 65 3f 0a eb 0c 3f 63 cb 07 3f b0 64 4d 3f
       0.8982055 0.5504614 0.5304472 0.8023176
000010 d7 0b 5c 3f f6 9a 5e 3f a0 2e 56 3f 35 49 47 3f
       0.85955566 0.869552 0.83664894 0.7784608
000020 3f fb 1c 3f 1b 18 4b 3f 82 e0 73 3f bf b0 12 3f
       0.6132087 0.7933366 0.95264447 0.57300943
000030 34 99 49 3f 7b e0 81 3e ce 18 93 3e cb 85 42 3e
       0.78749394 0.25366578 0.28729862 0.1899635
000040 ba a9 0f 3e e7 32 85 3e f9 f0 07 3e 90 a6 cd 3e
       0.1402959 0.26015398 0.13275518 0.4016614
000050 bf 8b 4c 3e 75 fa ab 3c e2 ba e1 3d 94 e2 60 3f
       0.19975184 0.02099345 0.11021973 0.8784573
000060 98 8e 39 3f a1 28 22 3f 76 ee 5f 3f 34 01 43 3f
       0.72483206 0.63343245 0.8747324 0.7617371
000070 65 ec 26 3f ab 41 18 3f f9 88 79 3e fd 73 61 3f
       0.6520446 0.594752 0.24368657 0.8806761
000080 a0 c5 6f 3f 08 f0 6b 3f 1f 41 53 3f 5d a5 8a 3e
       0.93660927 0.92163134 0.8252124 0.27079287
000090 35 77 73 3e 68 b8 f7 3e 70 31 0d 3f 2b 08 49 3f
       0.23775943 0.48382878 0.5515356 0.7852809
0000a0 f8 41 e0 3e 3e fb 37 3f 4d ce fa 3e b1 de d4 3e
       0.4380033 0.7186774 0.4898552 0.4157615
0000b0 dd d3 14 3e d0 10 3b 3f 1b 39 72 3f c1 94 dd 3e
       0.14533944 0.7307253 0.94618386 0.43277553
0000c0 97 b3 80 3f 7f 3a 7b 3e 5e 4d e5 3d ed 73 6d 3f
       1.0054806 0.24534033 0.11196397 0.92755014
0000d0 61 2d 45 3f ef 97 03 3f a5 a0 3c 3f 1f 17 bf 3e
       0.7702237 0.5140371 0.73682624 0.37322327
0000e0 6e 1f 30 3e eb c7 4b 3f c0 dc e8 3e 79 04 7f 3f
       0.1719949 0.79601926 0.4548092 0.996162
0000f0 48 38 aa 3e ea 9a 44 3f 65 e1 35 3f 89 b9 a8 3e
       0.33246064 0.7679888 0.7104705 0.32954052
