dl/poal_dl/modelpara/20230826_024836__epochsbackbone200_epochsmqnet100_lrbackbone0.1_lrmqnet0.001_mqnet.params (torch, 3489 bytes, 3 tensors)

W1 f4 [2, 64]
00000000: 0707 743f f98e 293d 3c2f 203f 2a97 00b8
00000010: 54a7 7a3f b683 1d3f 14ae 553f 3e39 813f
00000020: e842 74b8 1c5d 683f 9b39 753f 0857 1f3f
00000030: 0090 6d3f edf8 1f3f 4889 1e3f 0f6f 613f
00000040: 1ffa 213f b925 263f 595c a93e 22e7 953e
00000050: d4f6 433f 611d d73e 1adc 203e 4b84 7d3f
00000060: b73e e73e 5de0 e93e 1782 54b7 3e20 533e
00000070: adf2 843f caca 413f 61b6 cb3c 581a a93e
00000080: aa5e ff3e 36a4 813e cd8b bd3e ae82 783f
00000090: 36d2 8cb6 6109 643f a83c 863f 7467 443f
000000a0: 0eab 723f 087c b8b6 ab1d c93e 0719 003f
000000b0: 856f 523f a93d 023f 2d7f 6c3f 6d8f 523f
000000c0: 5cfe 563f e104 5e3f 7a0c 573e 3243 c53e
000000d0: 35c2 07b8 012e 853f 7c2c 1d3f 897b 8bb8
000000e0: 6fb2 763f 098b 363f 792e c93e 070b dc3d
000000f0: bb6c 703f 36f5 ec3e 5b14 393f 1f94 b83e
00000100: 28ac a03d 7bcf 303f a00c b53e af24 6a3f
00000110: 4826 633e fa8f 663f 9c0a 353f e155 503f
00000120: 6508 333f 2b53 1a3f 268f 793f 1f9e 253f
00000130: 3353 663d 1b1d 9a3e b842 153f c16f f03d
00000140: 280e 6f3f 9d48 9f3e bf3f 4e3f f68f 793f
00000150: e476 093f eadb 9e3e 01d6 e23e efc9 6c3f
00000160: 9785 2c3f e573 313f 7cbd 233f 1c17 1f3f
00000170: 8146 673f 05ca 8f3e 1f19 133f ca1b 703f
00000180: a954 223f 1905 5f3f 116f 473f 15c1 103f
00000190: 39d1 18b8 7942 633f 1195 6a3f 7005 783f
000001a0: 5d28 333f 96d1 ca3e 141b 0b3d 5a72 803d
000001b0: 4ad2 743e 87f4 37b8 6add a33e 2774 693f
000001c0: 3d30 523f 93fd 533f fa67 973e baf6 7d3f
000001d0: 91c6 e9b6 76fc 613f 92a0 053e e85b 653f
000001e0: d54e 083f 7c61 2a3e a6dc 5c3f 2442 a93d
000001f0: a3ac 4a3f ba08 563e 9906 ed3d a9e1 f13d
0.9532322 0.041396115 0.62572074 -3.065836e-05 0.9791157 0.615291 0.8346875 1.0095594
-5.8236445e-05 0.90767074 0.95791024 0.62242174 0.9279785 0.62489206 0.61928225 0.88060087
0.6327228 0.6490131 0.33078268 0.29277903 0.76548505 0.42014602 0.15708962 0.9902999
0.45165035 0.45678988 -1.2666474e-05 0.20617768 1.0386559 0.75700057 0.024867238 0.3302791
0.4987691 0.25320596 0.37020722 0.970744 -4.196797e-06 0.8907681 1.0487261 0.76720357
0.9479226 -5.4980665e-06 0.39280447 0.5003819 0.82201415 0.50875336 0.92381555 0.822501
0.8398187 0.86726195 0.21000853 0.38527828 -3.2367378e-05 1.0404664 0.61396 -6.651047e-05
0.9636602 0.713059 0.39293268 0.10744291 0.9391591 0.4628083 0.72296685 0.36050507
0.07845336 0.6906659 0.35361195 0.91462225 0.22182572 0.9006344 0.70719314 0.8138104
0.69934684 0.60283154 0.9748405 0.646944 0.05623169 0.3010033 0.5830493 0.11740065
0.93380976 0.31110087 0.8056602 0.9748529 0.5369704 0.31027156 0.44303897 0.92495626
0.6739134 0.69317466 0.63961005 0.6214464 0.90341955 0.28083816 0.57460207 0.937924
0.6341043 0.87117153 0.7790385 0.5654462 -3.6434478e-05 0.88773304 0.9163371 0.96883297
0.69983464 0.39613026 0.03396137 0.06271811 0.23908344 -4.3858334e-05 0.32004863 0.9119286
0.82104856 0.828088 0.29571515 0.992046 -6.9670573e-06 0.8827585 0.13049534 0.8959336
0.5324529 0.1663875 0.8627418 0.082645684 0.7916967 0.20901766 0.11573524 0.118106194

W2 f4 [64, 1]
00000000: 0b47 123e 7af7 1c3e 5fc7 633e eb3e 0c3f
00000010: 0e2f e03e 431b 143f ac0a 153d 4a1b 8c3e
00000020: 42d1 f43e f9a4 1c3f 704d 253d 9230 06b6
00000030: abe5 aab4 a5fa 70b8 901d 69b8 7dd3 8b3c
00000040: d304 173f 84cd 553e 0bcd 87b8 8ab4 a63e
00000050: 3f5c 223f d91b ab3e b252 633e 52e5 2e3f
00000060: ba0c a7b7 9076 f33d fd6d 673e 0f73 4bb8
00000070: b291 3b3e 3b9b ee3d 1944 693d ebeb 09b8
00000080: b35e 96b8 b737 163d c7c0 c33d 1925 6c3e
00000090: 005c 6f3f bfb2 6fb7 3976 293f 06af 0bb7
000000a0: a0bd fa3e 4442 9e3e 1673 55b7 8891 b43e
000000b0: e034 323f 562e 3f3f 33d9 fc3e 1489 d73e
000000c0: 66d7 783d 71af 83b6 c8db 6bb7 162b bcb6
000000d0: 8137 2d3f 4941 463f 299b 073e a400 f43e
000000e0: 43a2 bc3d 3fbe 173f b4cb 29b8 1a45 5e3e
000000f0: b7a3 4f3e 5d91 083f c6a5 753e dd68 fb3c
0.14284913 0.1532878 0.22244023 0.54783505 0.437859 0.578541 0.03638713 0.2736457
0.478159 0.6118923 0.040357053 -1.9995828e-06 -3.1832073e-07 -5.745389e-05 -5.557906e-05 0.017068619
0.58991736 0.20879179 -6.475494e-05 0.32559615 0.63422006 0.33419684 0.22199515 0.68318665
-1.9913878e-05 0.118878484 0.22600551 -4.850613e-05 0.18317297 0.116507016 0.05694971 -3.288306e-05
-7.1701965e-05 0.036674228 0.09558254 0.23061027 0.93499756 -1.4287128e-05 0.6619602 -8.325796e-06
0.48972797 0.30909932 -1.2722585e-05 0.35267282 0.6961193 0.7468008 0.4938446 0.4209677
0.060752295 -3.9245283e-06 -1.4058263e-05 -5.6078525e-06 0.6766282 0.7744337 0.13242783 0.4765674
0.092106365 0.5927467 -4.0482453e-05 0.21706048 0.20277296 0.53346807 0.23989019 0.030689651

b1 f4 [64]
00000000: 68fa 433e e271 0f3e 7137 543f 099f 683f
00000010: 75c3 903e 9fd6 173f 8685 183f f89e 743f
00000020: 5b31 e13d 733f 333f a857 7e3e 7d0b 363f
00000030: 3944 0b3f 6e6e 363f 4130 2e3f 9bd5 163f
00000040: f2df 043f 0332 163f 2672 bd3e e773 6c3e
00000050: 8ae4 cb3e a87c 353e 54c4 053f 4247 163f
00000060: 85de 263f 71aa 763e 8073 5c3f bede 323f
00000070: c18c f43d c35b d23e 4a79 573f ce38 6c3f
00000080: defd 253f 1030 093f 524e 7b3f 5e32 823f
00000090: 098f a03e 98b8 943e c933 013f 6be6 bd3e
000000a0: 1e0a 3e3f 65d6 073e 287e 413f aebc 243e
000000b0: 145e 8d3f 25e5 823f c9af 633f 6269 c33e
000000c0: 89b4 a03d 1dbe 603d 2183 593f 58c6 773f
000000d0: 1afd 3f3f 7048 513f b748 f03e 14d0 803f
000000e0: 4d20 f53e beb1 bd3e 774b fb3e 3150 833f
000000f0: a6dd 883e 3c57 7c3f 19f2 5b3e 1ee7 163f
0.19138491 0.14008287 0.82897097 0.9086767 0.28274122 0.5931186 0.5957874 0.9555507
0.10995742 0.7001869 0.24838126 0.7111128 0.54400975 0.7126225 0.6804238 0.58919686
0.51904213 0.5867006 0.3700115 0.23091088 0.398228 0.17723334 0.522527 0.5870248
0.6518329 0.24088456 0.8611374 0.6987113 0.11940909 0.41085634 0.8416945 0.9227418
0.64840496 0.5358896 0.9816638 1.0171621 0.31359127 0.29047084 0.5046964 0.37089857
0.7423419 0.13265379 0.75583124 0.160876 1.1044335 1.0226179 0.889401 0.38166338
0.07846934 0.054868806 0.8496571 0.96787024 0.7499558 0.81751156 0.46930477 1.00635
0.47876206 0.3704967 0.49081013 1.0258847 0.26731604 0.9857061 0.21479072 0.58946407
