dl/poal_dl/modelpara/20230826_175929__epochsbackbone200_epochsmqnet100_lrbackbone0.001_lrmqnet0.001_mqnet.params (torch, 3501 bytes, 3 tensors)

W1 f4 [2, 64]
00000000: 1a96 1f3f 834d 643d b63a 663f 0486 b93e
00000010: e12d 433f 8834 673f 0068 6b3e a6a2 173f
00000020: 0ab5 483e 0066 bb3e 8381 563f 6c6a 013f
00000030: 7c74 8d3e 19e8 6e3f 0ea8 5d3f 4a94 263f
00000040: 9b59 7f3f 150b 393f 2094 843e 4413 673f
00000050: bf97 2f3f 61d9 bc3e 50a7 3d3f 173c 733f
00000060: c599 c13e 85e5 5b3f a90e ea3d 2b2b 613e
00000070: eeaa a23e b3f6 163f 2502 9b3e 9083 0d3f
00000080: 90c8 6c3f b1c1 ca3e 2260 5c3e 6367 533f
00000090: dc41 e2b5 3a5b c83e 8602 6a3f 6d3c 263f
000000a0: 670a 3f3f bef3 263f 7806 4f3f fd59 283e
000000b0: 1f06 32b9 d733 523f 9164 543f d830 463f
000000c0: f624 223f 6722 de3e bf3c 9c3e 2018 09b9
000000d0: 8567 613d b4e1 353f 2a31 b23e 486e e13e
000000e0: ca94 723f 6e5b ee3e 8a16 793e cf82 5e3f
000000f0: be6a 203e be9b 873e f349 dd3e 58cb 3c3f
00000100: 99d7 363d 9a8b 263f bb35 883e b400 423e
00000110: 709e bc3e 6478 623f 3dc2 2d3f 1121 173f
00000120: d629 523c ecd1 5d3e ec2f 053f 3354 8c3e
00000130: 7791 6f3f a1d6 953e c778 de3e 54b2 813e
00000140: 9dfa 123f 5918 ec3e c84f e63e 5d81 0d3f
00000150: ffdf 3d3e 40af 0c3b 1c03 153f 8914 6e3f
00000160: 2e21 763f 1a0d 473f cfbe d43d f469 123f
00000170: 0bef 513f 27a0 c03e 6463 283e 81e0 293f
00000180: 53ce 5a3e d8a6 943e 4bd3 393f 8ee3 653f
00000190: cc8f 1d3c 6952 093f 2d18 f93d 4c8c f03e
000001a0: 1df7 643f 64b3 9c3e 6721 2a3f 0344 423f
000001b0: 2dd1 2a3f 4ea9 5e3f 6061 2c3f 9c19 fb3e
000001c0: 7e8a 133f 4c87 0e3f d784 6e3f 2446 50b8
000001d0: 2b03 0a3e 3d11 f23d 3884 e13e c7c2 ec3e
000001e0: 4cf6 343f d50e 753f c097 723f 5cbe 5f3e
000001f0: 1fed 3e3f b6b7 113f 31bd 2b3e 4036 493f
0.6233841 0.055737983 0.89933336 0.36235058 0.7624188 0.9031453 0.22988892 0.59232557
0.19600311 0.36601257 0.8379137 0.5055301 0.27627933 0.933229 0.86584556 0.6507002
0.997461 0.72282535 0.2589426 0.9026377 0.6859092 0.36884597 0.74083424 0.95013565
0.3781263 0.85897094 0.114285775 0.21989124 0.31771034 0.58970183 0.30275074 0.55278873
0.92493534 0.396009 0.21521047 0.8257963 -1.685748e-06 0.391321 0.914101 0.6493595
0.7462525 0.6521567 0.80869246 0.16440578 -0.00016977683 0.8211035 0.8296595 0.7741828
0.6333765 0.43385622 0.30515096 -0.00013074325 0.055030365 0.7104752 0.34803134 0.4402945
0.94758284 0.4655413 0.24325004 0.8691835 0.15665719 0.2648601 0.4322048 0.7374778
0.044639204 0.65056765 0.26603493 0.1894558 0.36839628 0.8846495 0.6787451 0.5903483
0.012827357 0.2166211 0.5202625 0.2740799 0.93581337 0.2926531 0.4345152 0.25331366
0.57413656 0.46112326 0.44982743 0.5527552 0.18542479 0.0021466762 0.5820787 0.93000084
0.9614438 0.77754366 0.10387956 0.5719292 0.82005376 0.37622187 0.16444165 0.6635819
0.21367769 0.29033542 0.7258803 0.89800346 0.009616803 0.5364137 0.12162814 0.46982038
0.89439565 0.30605614 0.6645722 0.7588503 0.66725427 0.8697709 0.6733608 0.49042976
0.576332 0.55675197 0.9317145 -4.9656388e-05 0.13477771 0.11819694 0.44046187 0.46242353
0.7068832 0.95725757 0.947628 0.2184996 0.7458057 0.56920946 0.1677139 0.78598404

W2 f4 [64, 1]
00000000: fe53 723f 13b6 673f c241 513e bf9a 7c3e
00000010: e597 2d3f 389b 223f 3c57 973e b9a1 183f
00000020: 34da fd3d a00d 463f c22a d33c 9eae 9c3d
00000030: ad62 673f d16e d83e 3d98 893b a633 b63e
00000040: 8e5f 623f 65c1 603f efb2 f13e f8a2 083f
00000050: d6c3 893d f6df 15b8 01b7 b83e 7406 643d
00000060: 4745 433e bda0 0c3f ae9b 013e 0669 cf3e
00000070: c593 d23e e182 253e 2564 4a3d 9da6 343d
00000080: 2aef b73e 5b34 3b3f 30b9 d73c 1645 3f3e
00000090: 0c32 c83e dc95 f33d 8645 123f 3d6a 723f
000000a0: 6eaf 26b8 73c3 603f 30fd b83d 67f7 353f
000000b0: 7dea 273f a19b c13e 9c28 583f 11e3 343f
000000c0: 74fa e43e 201b 003e 8262 c0b6 ba62 683f
000000d0: 7352 773d 2fea ab3e 2dd4 1f3f b429 653f
000000e0: 1453 b73c ab0c 303f 4c9e 033e 1a95 bc3e
000000f0: bb62 163f 9e0f 9f3d 5352 9a3e a51a 2cb8
0.9465941 0.905122 0.20435241 0.24668406 0.678099 0.63518095 0.29558742 0.5962177
0.123951346 0.7736454 0.025777224 0.07650493 0.9038494 0.42272046 0.0041990564 0.3558628
0.88427055 0.87795097 0.47206828 0.5337367 0.06726806 -3.5732948e-05 0.3607712 0.055670217
0.19069396 0.5493277 0.12657043 0.40509814 0.41128364 0.16163208 0.04941191 0.044104207
0.35924655 0.73126763 0.026333421 0.18678698 0.39100683 0.11893818 0.57137334 0.94693357
-3.9740866e-05 0.8779823 0.09032667 0.7108063 0.65592176 0.37814048 0.84436965 0.70658976
0.4472233 0.12510347 -5.7335137e-06 0.90775645 0.060381364 0.33577105 0.6243313 0.8951676
0.022378482 0.6876933 0.12853354 0.36832505 0.587444 0.077666506 0.30140933 -4.103281e-05

b1 f4 [64]
00000000: 62e0 653f dc64 0e3f c9e3 073f f260 4d3f
00000010: 5865 5c3f ff15 5f3f 1a84 563f 3ebf 473f
00000020: 0bed 1c3f ff19 4b3f e5e4 733f 8eb3 123f
00000030: b5e1 4a3f 954a 823e 001a 933e dca1 423e
00000040: df14 133e 0168 863e 80cc 083e ae92 ce3e
00000050: 9d7f 4c3e 5ec6 ab3c 447f e43d a1ed 603f
00000060: d0cf 393f 65a9 223f 11ec 5f3f 4765 433f
00000070: 1d78 273f 6d54 183f b96e 793e ad7d 613f
00000080: dbed 6f3f 2c19 6c3f 674a 533f 1a20 8b3e
00000090: a277 733e d6e7 f73e 1b59 0d3f b39e 493f
000000a0: d242 e03e 9d4f 383f c3fb fa3e d03a d73e
000000b0: 739c 183e 7d67 3b3f 09d1 723f 9ba4 de3e
000000c0: 2bd9 803f 97a2 7b3e f34e e53d 9b73 6d3f
000000d0: 652f 453f 2a98 033f 5ff8 3c3f e51d c03e
000000e0: 443e 303e ef8f 4c3f 1a57 e93e 6b2a 7f3f
000000f0: cc2b ac3e f7ac 443f 32d9 353f 88b9 a83e
0.89795506 0.5562265 0.5308195 0.8022605 0.8609214 0.8714294 0.8379532 0.7802619
0.612992 0.7933654 0.9527114 0.5730523 0.7925065 0.25447527 0.28730774 0.19007057
0.1436343 0.26251224 0.1335926 0.40346283 0.19970556 0.020968612 0.111570865 0.8786259
0.7258272 0.63539726 0.87469584 0.7632641 0.65417653 0.59503824 0.24358644 0.8808239
0.93722314 0.9222591 0.82535404 0.2717293 0.23776105 0.48419064 0.5521409 0.7875778
0.4380098 0.7199648 0.49020204 0.42037058 0.1490343 0.73204786 0.9485021 0.4348496
1.0066274 0.24573742 0.11196699 0.92754525 0.77025443 0.5140406 0.73816484 0.37522808
0.17211252 0.79907125 0.45574266 0.996741 0.33627164 0.76826423 0.7103454 0.3295405
