dl/poal_dl/modelpara/20230826_102153__epochsbackbone100_epochsmqnet100_lrbackbone0.1_lrmqnet0.001_module.params (torch, 500695 bytes, 9 tensors)

FC1.weight f4 [128, 64]
000000 38 67 54 3d 24 98 14 bd b8 cc 64 3d f0 3e 2d 3d
       0.05185625 -0.036277905 0.055859298 0.04229635
000010 a4 35 c2 3d 52 9e c2 bd 8c 52 8d 3d 38 63 da 3c
       0.094828874 -0.095028535 0.0690051 0.02665864
000020 40 6a fc bb 50 91 ee 3c 78 18 52 3d 70 f7 48 3d
       -0.0077030957 0.029122025 0.051292866 0.0490641
000030 64 e1 26 3d cc 5f ed 3d 82 6a cf 3d e0 c6 6d bd
       0.040742293 0.115905374 0.10127737 -0.05805099
000040 00 90 8a b9 70 0a 48 bc de 9d c7 bd 68 6a 3b 3d
       -0.000264287 -0.01220952 -0.09746908 0.045755774
000050 c6 bc 9d bd b8 52 b4 3c fc 9c e6 3d e0 d1 8e bb
       -0.07702021 0.0220121 0.11260411 -0.004358515
000060 68 30 59 3d 80 54 26 bc 62 a2 91 bd e4 29 12 3d
       0.05302468 -0.010151982 -0.0711105 0.03568448
000070 28 4c 42 bd 04 2e 20 bd 04 c1 aa 3d fc e3 14 bd
       -0.04743591 -0.039106384 0.08337596 -0.036350235
000080 34 bf 96 3d 74 d9 a4 bd 78 c3 30 bd 54 69 4d 3d
       0.07360688 -0.080492884 -0.043155164 0.050149277
000090 b0 b8 ca bd d8 c9 2b 3d c0 d1 ce 3b 28 e6 c3 3d
       -0.098985076 0.04194054 0.0063116252 0.09565383
0000a0 40 11 0d 3b 9e cf c1 bd 00 e4 4f b9 72 3e c5 3d
       0.0021525174 -0.09463428 -0.00019825995 0.09631051
0000b0 c0 e2 90 3d f8 8b ce bc 3c 3a 02 bd 6a 96 b1 3d
       0.07074499 -0.025213227 -0.031793818 0.08671267
0000c0 14 f6 72 bd 84 a6 fe 3d 00 67 25 bd 80 19 ac 3a
       -0.05931671 0.12434104 -0.04038143 0.0013130158
0000d0 40 bf 8f 3b b2 61 a0 bd bc df 4b bd ca 71 ef bd
       0.0043868124 -0.07831134 -0.049773917 -0.116916254
0000e0 3c 4c 81 3d 56 c1 d0 3d 5e 8b f2 bd 8a 98 f7 3d
       0.06313369 0.10193126 -0.118429884 0.120896414
0000f0 90 f3 92 3c 08 c7 47 3d ca 3f df 3d a6 53 b8 bd
       0.017938405 0.048773795 0.10900839 -0.0900033
000100 90 ac 6b 3c 3c 10 dd bd 74 a1 da bd 24 2e d3 bd
       0.014384404 -0.10794112 -0.10675326 -0.10311535
000110 16 8a d1 bd 52 93 b8 3d 70 d6 a1 3d 92 d3 fb 3d
       -0.10231416 0.09012474 0.07902229 0.12296213
000120 9c cc 78 bd 88 e3 be bd 88 82 f7 3c 16 ad 82 bd
       -0.060742006 -0.09320742 0.03021361 -0.0638067
000130 28 87 e6 bc 1c 29 11 bd 60 ff ed 3b 56 2f f3 bd
       -0.02814062 -0.035439596 0.007263109 -0.11874263
000140 9a 2a f7 3d 7c 43 5c 3d 10 a8 c0 3c 00 2d 63 bd
       0.120686725 0.053775296 0.023517638 -0.055462837
000150 f0 d3 1a bd 02 08 e7 3d 04 ba 40 bd f0 ea 0c 3c
       -0.037799776 0.11280824 -0.0470524 0.008600935
000160 70 01 82 3c 10 18 ec 3c 5c b2 7f bd fc be 98 bd
       0.015869826 0.028820068 -0.062425956 -0.074583024
000170 98 31 ca 3d dc d5 1a 3d da 2c dc 3d c8 a6 32 bd
       0.098727405 0.03780161 0.10750742 -0.043616086
000180 40 f8 9a 3d 0c f5 73 3d 6c 1d 9b bd 08 b0 8a 3c
       0.07566881 0.059559867 -0.07573971 0.016929641
000190 08 5a 00 bd e8 12 1f bd c0 84 2f 3b c4 3f d6 bd
       -0.03133586 -0.03883639 0.0026782006 -0.10461381
0001a0 3a a9 a8 bd c8 60 40 bd 60 05 1e 3d 30 63 06 3d
       -0.082354024 -0.046967298 0.038579345 0.032809436
0001b0 2c 9b b4 bd e8 67 8b bd 78 66 a8 bd 84 e2 2c 3d
       -0.08818659 -0.06806928 -0.08222669 0.04220821
0001c0 50 12 8a bc 50 eb 40 3c d4 2f ab 3d d8 6d e4 3d
       -0.016854435 0.011774853 0.08358732 0.111537635
0001d0 b4 14 6b bd d0 e8 55 bd a4 4d b4 bd 84 0c 95 3d
       -0.05739279 -0.05222398 -0.08803871 0.07277778
0001e0 24 ff d2 3d 40 be ff 3c de 9f 9d bd 2a 68 91 bd
       0.103025705 0.031218648 -0.07696508 -0.07099946
0001f0 80 30 c9 bc 48 74 de bc 26 6a d1 3d 4e 56 ff 3d
       -0.02455926 -0.027155057 0.10225324 0.12467633
000200 f0 cf dc 3c cc 5c e4 bd 10 9c 70 3d 38 c9 fe 3c
       0.026954621 -0.11150512 0.058742583 0.031101808
000210 70 b0 9f 3c 10 9f 80 bd 46 1d da bd 3a 13 a1 3d
       0.019493312 -0.06280339 -0.10650115 0.07864995
000220 54 c8 ba 3d 50 d3 f4 bd d0 d3 f2 bd 88 5d d2 3c
       0.09120241 -0.11954367 -0.11856806 0.025679365
000230 c8 fe 92 bc 94 a3 3d bd 12 d1 ab 3d 14 b8 f2 3d
       -0.017943755 -0.04629858 0.08389486 0.11851516
000240 34 c9 52 bd f0 1a 73 bc 70 37 f3 bc e2 c1 ba 3d
       -0.051461414 -0.014837965 -0.02968952 0.091190115
000250 78 48 5f bd b8 c1 00 bd b8 fc cf 3c 8a b0 af 3d
       -0.05451247 -0.031434745 0.02538906 0.08578594
000260 10 0a 16 bc e2 c1 d5 3d c0 95 d2 bb 20 9c ed 3d
       -0.0091576725 0.10437371 -0.006426543 0.11602044
000270 70 6f e6 3d 34 34 8c bd b4 72 5d 3d a0 46 d8 bb
       0.11251724 -0.068458945 0.054064468 -0.006600216
000280 74 0d 0f 3d 08 93 48 3d b8 3e 34 3d 16 a0 e0 bd
       0.03492494 0.048968345 0.044005126 -0.10968034
000290 40 e7 1d 3c f0 78 09 bc b2 2c 84 3d f8 18 35 bd
       0.009637654 -0.00839065 0.064538375 -0.044213265
0002a0 52 8a fa 3d 46 84 d2 3d 98 cd e5 3c 9e 29 95 bd
       0.12233414 0.102791354 0.028052136 -0.072833285
0002b0 6c d8 5a 3d b4 4c 83 3d 92 ea d4 bd 60 c0 cb bc
       0.053429052 0.06411114 -0.10396303 -0.024872005
0002c0 2c e1 05 3d 42 89 bd bd 58 35 ee 3d 76 b6 ae 3d
       0.032685444 -0.092546955 0.11631268 0.085308954
0002d0 4c a9 c1 bd b0 f5 50 bc a8 51 81 bc 00 21 5c 3a
       -0.09456119 -0.012753889 -0.015786007 0.00083972514
0002e0 d8 c3 dc bc 52 83 ba 3d 30 33 34 bd 18 c0 d3 bd
       -0.026948854 0.091070786 -0.04399413 -0.10339373
0002f0 72 6b 90 bd b0 e8 c3 bc 64 11 d2 bd 5c 9b 42 bd
       -0.070517436 -0.023914665 -0.10257223 -0.047511443
000300 00 3c 35 3c 7a 9b c0 bd 02 cf ab 3d 70 08 da 3c
       0.011061668 -0.09404655 0.08389093 0.026615351
000310 68 f0 1b 3d 30 e9 71 3d 16 b1 ee 3d c0 9d da 3d
       0.038071066 0.059060276 0.1165487 0.1067462
000320 78 96 03 bd 44 74 2b 3d a0 88 bc bb 82 b2 91 3d
       -0.03212592 0.041858926 -0.0057535917 0.07114126
000330 c0 0e 07 3c 38 e6 27 3d b8 c2 6c 3d 40 f0 06 3c
       0.008243263 0.040991038 0.057802886 0.008235991
000340 90 a9 ff 3d 0c 88 fc bd d0 52 28 bc 8a c9 8d bd
       0.12483513 -0.123306364 -0.01027365 -0.06923206
000350 cc 6c e3 bd 6c 8e 98 3d 3c a2 7b 3d f8 65 f5 bc
       -0.11104736 0.0744904 0.061434016 -0.029955849
000360 14 25 cc 3d 18 19 a7 bc c0 8e 95 3b 60 de df 3c
       0.099680096 -0.020397708 0.0045641363 0.027327716
000370 00 95 14 bc 40 28 3e 3d 78 d8 bd 3c 74 d2 35 bd
       -0.0090687275 0.046425104 0.02317451 -0.044390157
000380 44 33 a0 bd 10 bf 8d 3c 40 ce 93 3b dc 0f a5 bd
       -0.07822278 0.01730302 0.004510671 -0.080596656
000390 fe 36 cc 3d 70 cf bc 3c a0 fb 4a bc 06 29 b7 3d
       0.099714264 0.023048133 -0.012389094 0.089433715
0003a0 d0 c4 70 bc 88 0b ba 3d fc 3e 2f bd 1c 2e 39 3d
       -0.014695361 0.09084231 -0.042784676 0.04520999
0003b0 b2 a0 cd 3d ca fc d5 3d 80 f5 29 3d 50 eb 4f bc
       0.10040416 0.10448606 0.041493893 -0.01269038
0003c0 a2 87 9e 3d 54 73 22 3d 0c 52 8d 3d 48 dd e4 3c
       0.07740714 0.039660767 0.06900415 0.027937546
0003d0 a6 58 d3 bd e6 a3 ec 3d 30 01 2d 3c 0c a4 7e bd
       -0.10319643 0.11554699 0.010559365 -0.062168166
0003e0 08 53 f3 3d 38 99 f8 3d dc a6 b7 3d 9a 1e 9e 3d
       0.11881071 0.12138599 0.08967373 0.077206805
0003f0 dc 3d 61 3d f0 45 bb 3c d6 32 f6 bd b8 c6 0e bd
       0.054990634 0.022860497 -0.12021415 -0.03485748

FC1.bias f4 [128]
000000 0a 3c c5 bd 9a 48 ec bd d4 ea a3 bd 72 df 9b bd
       -0.09630592 -0.11537285 -0.08003774 -0.07610978
000010 78 4a af bc 30 12 f9 3c 7c ec 7b bd c8 b6 15 3d
       -0.021397814 0.03040418 -0.061504826 0.036551267
000020 9c 65 5b bd 50 45 d8 3d 30 6b 32 3d f0 7e c1 3c
       -0.0535637 0.10560095 0.043559253 0.023620099
000030 40 15 f2 3c 0a cb e9 bd 20 ae b2 3c b0 e9 c0 3d
       0.029551148 -0.1141568 0.021811545 0.09419572
000040 04 68 89 bd ce 4d f7 3d 10 c7 cc bd 50 99 1f bd
       -0.067092925 0.12075387 -0.09998906 -0.03896457
000050 b4 ff 19 bd 56 c9 e5 3d a0 60 bb bd c0 0f 60 3d
       -0.037597373 0.112200424 -0.09149289 0.05470252
000060 40 7a 2f 3b 76 dc ba bd 62 c0 dd bd e8 95 8c bd
       0.0026775748 -0.09124081 -0.1082771 -0.0686453
000070 42 d4 a6 3d ca 94 ed bd a2 0b 85 3d 40 d4 6b 3b
       0.08145954 -0.11600645 0.064963594 0.0035984665
000080 70 6e 7b 3d 20 25 5f bc 68 ef a5 3c 66 4b aa bd
       0.06138462 -0.013619691 0.02025576 -0.08315162
000090 72 d4 aa 3d 5e f4 a0 bd 58 8b 80 bd a0 93 f4 bd
       0.08341302 -0.07859109 -0.06276578 -0.1194222
0000a0 ec 51 c4 3d c0 02 af bd 30 b0 0e 3c 80 29 bc 3a
       0.09585938 -0.085454464 0.008708999 0.001435563
0000b0 54 a6 6d bd 94 9f 0f bd c4 43 3a bd 2c 3a c7 3d
       -0.05801995 -0.035064295 -0.045474783 0.09727892
0000c0 a6 c3 99 3d c8 76 e3 3d 86 6a c2 bd e0 ea 5c 3c
       0.0750802 0.1110664 -0.09492974 0.013483733
0000d0 3c e4 aa 3d 8e 74 9a 3d 4e 63 8d bd d4 aa b9 3d
       0.083443135 0.07541762 -0.069037065 0.09065786
0000e0 58 7a 7a bd 78 ca e4 3c b8 82 f7 3c 6c bf 9a 3d
       -0.061151832 0.027928576 0.030213699 0.07556042
0000f0 ca 3b fe bd 60 a9 0d bc 50 89 01 3c 30 93 03 3d
       -0.124137476 -0.008646339 0.007906273 0.03212279
000100 10 2e 36 3c 3c bb 0d 3d 9a 78 91 bd d8 4e c1 bc
       0.011119381 0.03460239 -0.07103081 -0.023597166
000110 84 8c ac bd 84 bb b4 bd f4 d5 b5 3d 02 c3 c0 bd
       -0.08425239 -0.08824828 0.08878699 -0.09412195
000120 e0 ca 91 3d b0 c6 7f 3d e2 4a b4 bd 6c bc 88 3d
       0.071187735 0.062445343 -0.08803345 0.066765636
000130 fa ee bf bd 04 52 63 3d ec b4 3e bd 9c df 24 bd
       -0.09371753 0.055498138 -0.04655926 -0.040252313
000140 58 ba 75 bd f0 a4 ed 3d c2 b1 f5 3d 68 30 22 bd
       -0.059992164 0.11603725 0.11996795 -0.039596945
000150 32 31 e0 3d 90 a9 78 bd 08 bf ea bc d8 ca fe bd
       0.10946883 -0.060708582 -0.028655544 -0.12441033
000160 90 ef 91 bd 1a 5a fd bd c0 81 c9 bd bc 6c 4d 3d
       -0.07125771 -0.12370701 -0.09839201 0.050152525
000170 14 85 1f 3d ac b6 0f bd d4 ea 46 bd 98 a3 89 3c
       0.038945273 -0.03508632 -0.048563793 0.01680164
000180 00 84 fe ba 4a 23 e7 bd 78 6e 86 bc cc 21 18 3d
       -0.0019418001 -0.11286028 -0.016410097 0.037141606
000190 e0 49 c9 3d d0 79 2b bc 3c 17 ea 3d 30 a6 9e 3c
       0.09828544 -0.010466054 0.11430213 0.019366354
0001a0 3c fb 82 3d cc b8 43 3d 18 09 e0 bc 7c b2 2f bd
       0.063955754 0.047783658 -0.027348086 -0.042894825
0001b0 c0 13 0a 3c 74 8b 4f bd 80 20 fd 3d d0 ac 9d 3d
       0.00842756 -0.050670102 0.123597145 0.07698977
0001c0 3e 5e d8 3d b8 93 94 bd 64 ba 3c bd 10 79 29 3c
       0.1056485 -0.072547376 -0.046076193 0.010343805
0001d0 24 9f 18 bd 9a 9b b6 bd 6a e1 ba 3d 90 1e b6 bc
       -0.037261143 -0.089163974 0.091250256 -0.02223137
0001e0 ba 33 e7 bd 60 75 8c 3c 92 b9 90 bd 80 70 16 3c
       -0.11289163 0.017145813 -0.07066645 0.0091820955
0001f0 80 5e f2 3b 58 55 b1 bd d0 d1 0b 3d 98 09 fe bc
       0.007396519 -0.08658856 0.03413564 -0.031010434

FC2.weight f4 [128, 128]
000000 d4 72 b3 3d 18 13 1b bd 5b 81 20 3c b6 bd 85 3c
       0.08762136 -0.037860006 0.009796466 0.016325813
000010 ad f9 a0 3c b3 15 3d bd fa fc dd 3c 33 a2 cd 3c
       0.019650305 -0.046163272 0.027098168 0.025101757
000020 d0 75 ed bc 38 dd 12 bb 5d 7e 8d bd af ff 5d bd
       -0.028986841 -0.0022409689 -0.069088675 -0.054198917
000030 e5 29 ec 3c 19 49 09 3d cc 38 a3 3b 4b 56 69 bd
       0.02882857 0.033516977 0.004981136 -0.05696706
000040 83 52 84 bd e7 18 ae 3d 1a 20 91 bd 56 5c ab bd
       -0.0646105 0.085008435 -0.07086201 -0.08367221
000050 3e c3 83 3d 1a cf e2 3c 94 32 9c 3d b8 66 cc bc
       0.06433724 0.027686644 0.076268345 -0.024951324
000060 46 7c 72 bd be b9 4f 3d e8 c3 cb 3c 42 b7 7b 3d
       -0.059200548 0.050714247 0.024873689 0.061454065
000070 44 e9 a9 bd eb 90 f7 bb a3 1e a4 3d cc 4f 47 3d
       -0.08296445 -0.0075551174 0.08013656 0.048660085
000080 9c be 1e 3d 35 74 a0 bd f3 34 45 bc 57 18 c4 3b
       0.038755998 -0.07834665 -0.01203655 0.005984347
000090 c0 eb 83 bd 8f d3 4a 3a 47 69 8c bd d3 be 4b 3d
       -0.0644145 0.0007737213 -0.068560176 0.04974253
0000a0 02 17 49 3d 7c 00 9e bd 03 b8 a3 bd fe 1d 62 3d
       0.049094208 -0.07714936 -0.07994082 0.055204384
0000b0 5b d7 ad 3b db e0 f1 3c 6d ac 65 bd 29 33 0e bd
       0.0053052134 0.029526165 -0.05607264 -0.03471676
0000c0 45 1d 13 3d e0 4c 78 3d b7 c2 ab 3d 25 32 0a bc
       0.035916585 0.06062019 0.08386748 -0.008434807
0000d0 9b ff 92 3b 0b b7 bb 3c 1b 89 06 3d b6 c3 87 36
       0.004486037 0.02291443 0.032845598 4.0460973e-06
0000e0 76 80 f2 3c 36 55 98 3d 9c 76 87 bd f8 b2 8e bc
       0.02960227 0.07438128 -0.0661442 -0.017419323
0000f0 96 47 56 bd cd 05 3b bc 93 32 8b bd c8 9d 96 bd
       -0.052314363 -0.011414957 -0.06796756 -0.07354313
000100 21 81 9a 3d 8e 7a 58 3d e1 5c 85 3d ab 67 76 bc
       0.07544161 0.052851252 0.06511856 -0.015039365
000110 8a 57 04 3d 5d 74 a3 3d 5c 96 48 bd b5 e7 59 3d
       0.032310046 0.07981179 -0.04897152 0.05319949
000120 4f 78 24 3d c0 b2 a7 bc 47 7b 09 bd 1a ce 63 bc
       0.040153798 -0.020470977 -0.033564832 -0.013904119
000130 ea 33 7b bd 6a 7d f6 3c 46 bd 41 bd 23 69 9c 3c
       -0.061328806 0.030089099 -0.047299646 0.019093102
000140 0d 8d 6d 3d b5 6a 09 bd 29 1a 46 3d f4 bc a2 3d
       0.057995845 -0.03354903 0.048364792 0.07946196
000150 4c 5c e8 3b dd d3 25 bb 8d 3a 23 3d d3 45 99 bd
       0.007091081 -0.0025303282 0.03985076 -0.07484021
000160 94 8a 3e bd 2e 7d 9c 3c 84 3b 1c bd 07 40 8d bc
       -0.046518877 0.01910266 -0.038142696 -0.017242445
000170 98 64 77 3c ff 09 05 3d 86 a7 3c 3d 54 d1 1b 3d
       0.015099667 0.032480236 0.0460582 0.038041428
000180 94 b3 5c bd 86 ae a3 3d 05 46 9b 3d d1 a9 3d bd
       -0.053882197 0.07992272 0.075817145 -0.046304528
000190 d6 39 1a bb 41 fb 7f bd 78 17 28 3d 2b 76 8f bd
       -0.0023533008 -0.062495474 0.041038007 -0.070049606
0001a0 83 cd 85 3d 54 1c f0 3c 69 bd 43 bd 57 a2 95 3c
       0.06533339 0.029310383 -0.047788057 0.018265886
0001b0 47 f3 90 3d d0 87 d6 3c 13 fd e0 3c dc b6 9f bd
       0.070776515 0.026187807 0.027464425 -0.077985495
0001c0 b2 4d 98 3d 1a ed ca bc 0c 11 a4 3d 4a 0b 33 3d
       0.07436694 -0.024771262 0.08011064 0.043711938
0001d0 e4 6e 8f 3d 4f 9c 91 3d 50 29 a6 bc 0e 06 8c 3d
       0.070035726 0.071098916 -0.020283371 0.06837092
0001e0 34 00 8b 3d c7 7c f9 3c 48 13 54 bd 35 bc a0 bd
       0.06787148 0.030455006 -0.0517762 -0.07848398
0001f0 b3 6c 34 bc 21 0d 67 bb 6c 5c 94 bd e2 6a 1c 3c
       -0.011012244 -0.0035255628 -0.072441906 0.009546967
000200 e9 60 3f bc d3 7c 46 bc 83 75 2f 3d 7b fa b3 bc
       -0.01168082 -0.012114721 0.042836677 -0.021970024
000210 29 45 82 bd d9 d1 1b bd e5 4e 6c bd e8 93 86 bd
       -0.063608475 -0.038041923 -0.057692427 -0.0657118
000220 3d ee a4 3d 70 5c 10 3d 22 7a 90 bd b2 83 90 3d
       0.08053253 0.035244405 -0.07054545 0.07056369
000230 55 3f 93 bd 71 8f 0d 3c 16 fb 27 3d 96 db b8 3c
       -0.07189814 0.008640156 0.04101094 0.022565644
000240 e8 c6 8d 3d 4a 52 0b bb 41 35 db 3c 77 9e 42 3d
       0.06922704 -0.0021258765 0.026758792 0.047514405
000250 cc e7 b0 3d f0 4c 10 3d b9 f1 02 3c 93 39 fa 3c
       0.08637962 0.035229623 0.0079922015 0.030545032
000260 5f 51 9e 3d f2 2b 58 3b c4 7a 08 bd 42 5d d5 bc
       0.07730364 0.0032985178 -0.033320203 -0.026045445
000270 99 5c f6 3c 43 cf 83 3d 31 9f a1 bd c8 64 85 3d
       0.03007345 0.064360164 -0.078916915 0.06513363
000280 58 57 4d 3d a8 44 5f bd 9b a8 77 3a fb 75 6b bc
       0.050132126 -0.054508835 0.00094474264 -0.01437139
000290 21 46 c7 3b 29 4a 52 bd f6 25 20 bd ae 9f 23 bd
       0.006081358 -0.051340256 -0.039098702 -0.039947204
0002a0 8c 99 3a bd 62 41 1c bc 44 be 97 3d a6 b6 ba 3c
       -0.04555659 -0.009537073 0.07409337 0.022792172
0002b0 52 d8 7e 3d 66 70 a5 bd 42 34 87 bb 89 79 4c 3d
       0.062218018 -0.08078079 -0.0041261027 0.049920592
0002c0 7a e3 b2 bd 0c a1 89 bd de f6 18 ba d3 4c 43 bc
       -0.08734794 -0.067201704 -0.0005835126 -0.011920172
0002d0 b8 c8 b1 3d 5b 9a 12 bc cf 43 86 3d 60 6e 1c bd
       0.08680862 -0.008947934 0.06555902 -0.0381912
0002e0 b7 2b 96 3d a7 af 97 3b 79 82 3d 3d 48 0f 17 3d
       0.07332557 0.0046290937 0.046267007 0.036879808
0002f0 c5 7d 04 3d eb 04 26 bc 5c 6f 22 bc 6e 2a b4 bc
       0.032346506 -0.0101330085 -0.009914245 -0.021992888
000300 7b ed b4 3c 85 ad 11 bc b4 dc ad 3c 45 a9 5c bd
       0.022085896 -0.008891468 0.021223404 -0.053872366
000310 77 19 a2 bd 6b 37 4a bc f9 a1 35 3d e3 bf 4d 3d
       -0.07915013 -0.012342314 0.044343922 0.050231826
000320 5f b3 e6 3c ce 63 a1 bc ab 21 71 bc 31 1e 23 bb
       0.028161703 -0.01970091 -0.0147175 -0.0024889822
000330 cd d1 e5 3c 31 68 04 bd 45 92 33 3d ff af 2e bc
       0.028054142 -0.032325927 0.043840665 -0.010662078
000340 0f 5b 99 3d c9 c2 b0 3d 60 39 1e 3b 13 f4 c8 3c
       0.07488071 0.08630902 0.0024143085 0.024530446
000350 b0 2e 9c bc c8 96 54 3d 29 d2 32 bd eb e2 67 3d
       -0.019065231 0.05190161 -0.043657456 0.05661289
000360 24 3d 96 bd 42 c0 91 3a 5e c5 a6 bd f6 a6 94 3d
       -0.073358804 0.0011119919 -0.081431136 0.07258408
000370 d2 69 46 bd c7 63 46 3d d1 eb 4f bd 7c 33 ca bb
       -0.048440762 0.048435 -0.050762 -0.006170688
000380 f8 87 1f 3d 4e 78 80 3d b3 3c 8c 3d 4b e8 1e bd
       0.03894803 0.06272946 0.06847515 -0.03879575
000390 47 99 3b 3b 99 3f 7a bd 5a d7 1d 3d 27 2b 07 3c
       0.0028625296 -0.061095808 0.038535453 0.008250034
0003a0 fb 62 9d 3d 29 5f 1a 3d 3c c6 61 3d 53 61 af bc
       0.07684895 0.037688408 0.05512069 -0.021408712
0003b0 aa 49 d8 bc 5f b7 55 bc 4a 57 1d bd 0e 50 d7 3c
       -0.026402313 -0.013044207 -0.038413323 0.02628329
0003c0 8c df 7a bd 21 71 78 3d 1d 35 fe bc dd a1 c1 bc
       -0.061248347 0.060654763 -0.031031186 -0.023636753
0003d0 d5 c2 a4 3d 38 8e a7 bd 9e c9 ab bd 1b 35 14 bd
       0.08044974 -0.08181423 -0.08388065 -0.036183458
0003e0 00 71 f1 bb a7 2e b2 3d 3b 74 8b 3b 1a 61 77 3c
       -0.007368207 0.087003045 0.004255799 0.015098834
0003f0 b1 d1 92 bd 46 a8 8a bd 21 84 b1 bd f2 65 7a 3d
       -0.07168902 -0.06770377 -0.0866778 0.06113238

FC2.bias f4 [128]
000000 66 4a d3 bc 47 71 75 bd 51 79 c9 bc 42 96 5b 3d
       -0.025792312 -0.059922483 -0.024593981 0.053610094
000010 bc f5 8a 3d 5b 04 63 bd 36 01 92 3d 5e 4a 5d bd
       0.06785151 -0.055424076 0.07129137 -0.054026
000020 4f 48 0e 3c ff fe 99 bd bb c0 f0 3c f2 c3 b3 3c
       0.008684232 -0.0751934 0.029388776 0.02194402
000030 b7 b7 93 bb 6b 80 69 bc a1 5e 55 bd 7f a9 37 bd
       -0.0045079845 -0.014251809 -0.0520922 -0.04483938
000040 72 97 9b bd 5d 99 05 3d c4 77 59 3d 64 c5 93 3d
       -0.07597245 0.03261696 0.053092733 0.07215384
000050 d7 9f 5d 3d 39 7a 19 3d 49 44 71 3d 06 84 58 3c
       0.054107513 0.037470076 0.058903012 0.013215071
000060 bc 14 27 3d 80 1d 8b bd 74 14 ae bd 6a 48 97 bd
       0.04079126 -0.06792736 -0.08499995 -0.07386859
000070 a7 a2 a6 3d c2 1f 1b bd 8e 13 6c 3d a3 44 97 3c
       0.08136492 -0.037872083 0.057635836 0.018465346
000080 ed 0c 86 bd 55 e1 9b 3d af 08 44 bd 07 be 7a bd
       -0.06545434 0.07611338 -0.047859844 -0.06121638
000090 37 70 1f 3d 0e 3b 3b 3c 84 4c 90 3c af 0b b2 bd
       0.038925376 0.011427654 0.01761461 -0.08693635
0000a0 b2 58 96 bd af 1c ad bd 7f f8 84 bd bf ca 8f bd
       -0.07341136 -0.084527366 -0.06492709 -0.070210926
0000b0 9b 64 2f bd a7 f1 44 bd a8 28 94 bd fc ec a3 3d
       -0.042820554 -0.04808202 -0.07234317 0.080041856
0000c0 e5 cb 9b 3d c1 04 99 3d ca 8a 09 3d 55 12 39 bd
       0.07607249 0.0747161 0.033579625 -0.0451835
0000d0 ac 91 ab 3b 97 5f 20 bc 2c 59 85 3c ce 74 11 bd
       0.0052358713 -0.009788415 0.016277872 -0.035511784
0000e0 41 d0 46 bd 00 db fd bb d8 aa 37 3d ac ff 2d 3d
       -0.04853845 -0.007747054 0.044840664 0.042480156
0000f0 8e ee 0e 3d 9c 98 ad 3d 1f c0 d1 3c 32 e1 a0 bd
       0.034895472 0.084763736 0.025604306 -0.078554526
000100 de 45 be bc 58 c1 87 3d a1 30 d8 bb 8b 42 3c 3d
       -0.023226675 0.06628674 -0.006597594 0.045961898
000110 e3 33 52 bd 74 1e a0 3d ff 2a 79 3c 2f a5 e2 bc
       -0.051319014 0.078183085 0.015208005 -0.027666656
000120 e8 45 08 3c c4 00 5e bd 3e 2f ac 3d 82 e2 17 3d
       0.008317448 -0.05419995 0.08407448 0.03708125
000130 d1 7a 92 bd 91 86 e0 3c 37 87 3d 3d 40 58 73 3d
       -0.071523316 0.027407916 0.04627153 0.059410334
000140 33 ac 99 3d d3 44 87 bd 55 f0 b2 bd 4b 80 a7 bd
       0.075035475 -0.06604924 -0.08737246 -0.08178767
000150 3c 08 9d 3c 1a 40 20 3d 0b a9 b4 bd b2 14 84 3b
       0.019168966 0.039123632 -0.08821305 0.0040307874
000160 cf d4 b2 bd e5 10 02 3d 78 61 1a 3d 33 a2 16 bc
       -0.08731996 0.031754393 0.03769061 -0.009193945
000170 03 21 05 bd a8 9d a6 3d 99 78 89 bd 25 35 97 3b
       -0.032502186 0.08135539 -0.06712455 0.0046144896
000180 e9 60 6d 3d 20 d1 1a 3d fa 00 4b 3d 22 27 31 bd
       0.05795375 0.037797093 0.04956148 -0.04325021
000190 ea d8 82 bd db 67 9b 3d 71 7f a3 3c c4 8a 3e 3d
       -0.06389029 0.07588168 0.01995823 0.046519056
0001a0 69 2a a9 bd 1f 13 a7 3d 0f 0e 34 3d 9f 9c 03 3c
       -0.08260042 0.08157944 0.04395872 0.008032947
0001b0 90 ef c0 bc d0 4d 2f 3d c0 12 22 bd 2a 63 85 bd
       -0.023551732 0.042798817 -0.039568663 -0.06513055
0001c0 34 52 39 bd 08 43 c4 bb 85 a6 ad bd b5 f5 b0 3d
       -0.04524441 -0.005989436 -0.08479027 0.08640615
0001d0 be 88 b2 bd b6 d4 34 3d 5e 5a 0d bd 58 f6 80 bd
       -0.08717488 0.04414817 -0.03451001 -0.06296986
0001e0 d6 a3 bc 3c dc 2b 46 bd 0c 10 8e 3d 2a 79 5a 3d
       0.023027342 -0.04838167 0.069366544 0.053338207
0001f0 cc da 30 3d ef 4a c1 3c 4e 13 9f 3d 1f d7 8b 3d
       0.04317741 0.023595301 0.07767354 0.068281405

FC3.weight f4 [128, 256]
000000 be b7 2a bd e4 85 3a bd e6 a7 36 3d b8 84 d6 3c
       -0.041679136 -0.045537844 0.044593714 0.026186332
000010 06 e1 26 3d d0 1c ea bb a2 17 29 bd 3c d0 c0 bc
       0.040741943 -0.007144548 -0.041282304 -0.023536794
000020 42 1b 14 bd de 5a 04 3d e0 0c 38 3d 96 5c 2f bd
       -0.036158808 0.03231322 0.044934154 -0.042812906
000030 c0 d5 1e 3c 38 c2 49 bd 90 3a cb bc 24 a3 5f 3d
       0.009694517 -0.049257487 -0.024808198 0.054598942
000040 08 db 32 bc 08 3f 54 3c 58 c3 eb 3c 22 b2 39 bd
       -0.010916479 0.012954481 0.02877967 -0.045335896
000050 98 bc 43 3c d8 ae bb 3c 6c 27 e4 3c 50 37 ea bc
       0.01194682 0.02291052 0.027850829 -0.028590828
000060 fc d9 57 bd c0 43 b4 bc 54 0a bf 3c 44 8f 84 bc
       -0.05269812 -0.022004962 0.023320355 -0.016181596
000070 60 3b 13 3d c0 73 2b bc 78 8c 31 3d c4 60 11 3d
       0.035945296 -0.010464609 0.043346852 0.035492674
000080 e2 48 40 3d a4 66 ed bc e4 85 21 bd 08 65 48 3c
       0.046944506 -0.028979607 -0.03943433 0.012231119
000090 b8 a7 33 bc 98 29 fa 3c 46 66 32 bd fe aa 37 bd
       -0.01096528 0.030537412 -0.043554567 -0.044840805
0000a0 40 a6 fe 3a c8 2d 4d bd 0c ce 43 3d 22 9b 3f bd
       0.0019428208 -0.05009249 0.047803923 -0.046778806
0000b0 5e b1 57 3d a0 4a 4e 3d ba c5 19 bd 18 aa 6b bc
       0.052659385 0.050364137 -0.037542082 -0.014383815
0000c0 80 39 4a 3c 3c 4a 53 3d 18 0b 0e 3c ee 0c 0b 3d
       0.012342811 0.051584467 0.008669637 0.033947878
0000d0 40 52 29 bc c4 4d f1 3c f4 f3 94 bc bc 13 a5 bc
       -0.010334551 0.029456027 -0.018182732 -0.020151012
0000e0 f8 19 a8 bc b8 48 cb bc 78 ef 22 3d bc 29 7f bd
       -0.020520195 -0.024814948 0.039779156 -0.06229566
0000f0 e2 12 22 3d ac 18 dc bc a0 aa 95 bc 18 e4 e0 3c
       0.03956879 -0.026867233 -0.018269837 0.027452514
000100 90 5c b4 bc 80 cd 2e 3b 36 87 18 bd 60 0e 42 bc
       -0.022016793 0.002667278 -0.037238322 -0.011844248
000110 a8 1a 0a 3c 78 5d d7 bc ee e7 2c 3d e0 2a 66 bc
       0.008429207 -0.026289687 0.042213373 -0.014048308
000120 c0 6d 82 bc 38 ca 10 bd 00 fd ec 3c 00 42 80 3b
       -0.015921474 -0.0353491 0.028929234 0.003914118
000130 40 73 53 bd 20 0f 98 3b 34 69 ec 3c 68 1b 4e 3d
       -0.051623583 0.004640475 0.028858759 0.050319105
000140 ac 9c 3d bd a8 78 ac 3c c4 31 e9 bc d0 cb 05 bd
       -0.046291992 0.021053627 -0.028466113 -0.032665074
000150 70 6c 00 bd 2e 26 58 3d 0e d5 3d 3d 8e 0a 59 3d
       -0.031353414 0.052770786 0.046345763 0.05298858
000160 60 fe 42 3d a6 c3 54 bd 9a 21 1e 3d f0 2b a1 3c
       0.047605872 -0.051944397 0.038606264 0.019674271
000170 48 8d 48 bc 10 51 a4 3b 4a 20 44 3d 80 18 68 bb
       -0.012240715 0.005014546 0.047882356 -0.0035414994
000180 ac a0 85 bc c0 9c 76 3c c0 51 55 3d 2a 91 21 3d
       -0.016311966 0.015052021 0.052079916 0.03944508
000190 40 ed 38 3b 82 56 40 bd bc b9 15 bd a8 69 2d 3c
       0.0028217584 -0.0469575 -0.036554083 0.010584272
0001a0 ea 83 2f bd b4 0b 21 bd a2 d3 5a 3d 6c 57 c4 3c
       -0.042850412 -0.0393178 0.053424485 0.023967467
0001b0 c0 b1 fe bc c0 82 e7 bb fe d6 68 bd b8 c6 71 bd
       -0.031090617 -0.007065147 -0.056845658 -0.059027404
0001c0 88 62 30 bd e4 61 3e bd 52 8e 23 bd f8 84 0f 3c
       -0.043062717 -0.046480075 -0.03993065 0.00875973
0001d0 8c 62 10 3d 50 70 28 bd 50 c8 bb bc 96 ab 50 bd
       0.03525023 -0.041122735 -0.022922665 -0.050944887
0001e0 aa 46 0b bd fe 3a 02 bd 28 40 73 bd 10 e8 94 bb
       -0.034002937 -0.03179454 -0.059387356 -0.0045442656
0001f0 e0 31 70 bb b0 7f 56 bd ee 1f 5e 3d 90 ec 4c 3d
       -0.0036650822 -0.052367866 0.05422967 0.05003029
000200 0c 60 4c 3d c4 6f 69 3d e8 65 bf 3c 40 71 34 bb
       0.049896285 0.056991354 0.023364022 -0.0027533323
000210 8e dc 0a bd 34 93 67 bd bc 15 3a 3d 20 9f f9 3c
       -0.033901744 -0.05653687 0.045430884 0.030471385
000220 78 50 3c 3d 40 b9 0b 3b 00 6c 20 3d 0c 78 57 3d
       0.04597518 0.0021320134 0.039165497 0.05260472
000230 d8 e3 ab bc a0 89 a4 bc f4 b9 ac bc e0 ed d3 bc
       -0.020982668 -0.020085156 -0.021084763 -0.025870264
000240 5a 04 43 bd a6 30 5b bd 9e b0 55 3d 70 77 c8 3b
       -0.04761157 -0.05351319 0.05217039 0.0061177537
000250 10 9a a7 bb 3c 16 be 3c 6a 86 41 bd 8c 9b 5d bd
       -0.005114801 0.023203962 -0.047247328 -0.05410342
000260 00 a6 7b ba 00 92 44 3a e2 e7 33 3d 60 4f a4 bc
       -0.0009599626 0.00074985623 0.043922313 -0.02005738
000270 74 eb 0a bd 8c c7 d7 3c e4 c8 58 bd f2 4a 3b 3d
       -0.03391595 0.026340269 -0.05292596 0.04572577
000280 30 a8 d8 bb a8 19 0a 3d a8 24 e9 bc 7c 25 f0 bc
       -0.0066118464 0.033715874 -0.028459862 -0.029314749
000290 40 58 1d 3d 94 2d 65 3d 70 ba 44 bc a0 32 23 3c
       0.03841424 0.05595167 -0.012007341 0.0099608
0002a0 f2 65 38 bd 30 ae 47 bd c8 b0 4e 3d c2 b9 06 3d
       -0.045019098 -0.048750103 0.05046156 0.032891996
0002b0 c0 c2 6e bd 28 02 56 bc 46 5b 53 bd dc 6f 6b 3d
       -0.058291197 -0.0130620375 -0.051600717 0.057479724
0002c0 fc 92 27 bd d0 17 f4 bb f0 16 0c 3c 0c b0 b0 bc
       -0.04091166 -0.0074491277 0.008550391 -0.02156832
0002d0 0a 95 23 bd 90 4c 7d 3d f0 f7 49 3c 88 6c 64 3d
       -0.039937057 0.061840594 0.012327179 0.055767566
0002e0 a0 14 a1 bb 80 fe 3c 3a b4 32 c2 bc 98 d6 42 3c
       -0.004915789 0.00072095543 -0.023705818 0.011891983
0002f0 22 90 0e 3d 6a b3 18 bd b0 ec 3c bd b6 cf 6b bd
       0.034805425 -0.037280478 -0.04612416 -0.057571135
000300 fc aa 0d 3d f6 d7 17 3d 0e 71 6d 3d 00 ea cd bb
       0.03458689 0.03707119 0.057969145 -0.0062839985
000310 c0 33 4d bc 28 9b 7c bd 34 db 0c bd 20 5c e8 bb
       -0.012524545 -0.061671406 -0.034388736 -0.0070910603
000320 7c 74 23 bd 12 76 39 3d 94 d9 cc 3c d4 30 09 bd
       -0.03990601 0.045278616 0.025006093 -0.03349383
000330 54 a0 8f bc 5e 13 2d bd 50 48 c7 bc b6 1a 47 3d
       -0.017532505 -0.042254798 -0.024326473 0.048609458
000340 78 d5 3a bc 52 a3 2f 3d 48 cc 35 3d a0 a1 36 3d
       -0.011403434 0.042880364 0.04438427 0.04458773
000350 52 a5 68 3d de 68 4b bd a0 7c 9c bc 62 ea 78 3d
       0.056798287 -0.049660556 -0.019102395 0.0607704
000360 84 95 52 3d a0 4c cc bc d8 88 c3 bc 30 03 27 3d
       0.05141212 -0.024938881 -0.023868963 0.040774524
000370 a8 c0 a6 bc e0 d8 0c 3b f0 61 ba bb 16 6c 39 3d
       -0.020355538 0.0021491572 -0.0056879446 0.045269094
000380 20 4b 1a 3b ec df 31 bd e0 58 48 bd e2 c8 73 3d
       0.0023543313 -0.04342644 -0.048912883 0.05951775
000390 36 7d 68 bd ac 9e 28 bd 46 8d 75 bd e6 e7 2f 3d
       -0.056760035 -0.041166946 -0.059949182 0.042945765
0003a0 7c f0 fd bc 96 46 1b 3d a4 dd 79 bd a4 ad 5d 3d
       -0.030998461 0.037909113 -0.06100239 0.054120675
0003b0 60 fb 61 3b bc 19 48 3d 14 bc 9d 3c 6c 66 27 3d
       0.0034482107 0.048852667 0.019254722 0.04086916
0003c0 c8 2a 1e bd 3a bc 37 bd 40 80 a1 3a f4 b0 b4 3c
       -0.038615018 -0.04485724 0.0012321547 0.022057034
0003d0 90 46 0f bd 2c 05 59 bd a0 ec 7b bd 6a 3a 69 bd
       -0.034979403 -0.052983448 -0.06150496 -0.056940474
0003e0 64 99 6e 3d 80 e9 b7 3a 00 48 16 39 12 e1 4a 3d
       0.058251753 0.001403138 0.00014331937 0.04953105
0003f0 e0 88 d1 bb e6 92 6d bd 6a 5c 2b 3d 46 56 66 bd
       -0.0063944906 -0.05800142 0.04183618 -0.05623462

FC3.bias f4 [128]
000000 a0 d1 0b 3c 78 70 fe bc 40 0b df 3b 88 39 75 bd
       0.008533865 -0.031059489 0.006806761 -0.05986932
000010 e8 45 6b 3c 0e 68 6e 3d 40 69 b5 3a ce 05 06 3d
       0.014359929 0.058204703 0.0013840571 0.03272038
000020 d0 10 26 bd 34 d5 ca 3c 5c f3 1e 3d 56 f3 34 bd
       -0.040543377 0.024759866 0.038806304 -0.044177376
000030 d4 c1 71 bd ca 65 3c bd d4 ec 2a bd 24 77 46 bd
       -0.05902274 -0.04599551 -0.041729763 -0.048453465
000040 a6 86 6b bd 78 89 fe bc 16 dd 0a bd 1a 24 73 3d
       -0.057501458 -0.03107141 -0.03390225 0.0593606
000050 f0 44 ad 3b f8 21 bc 3c 70 aa a2 bb 20 ed 9e bb
       0.005287759 0.022965416 -0.0049641654 -0.004850045
000060 c4 7d 75 3d 00 6a 77 bb d2 72 52 bd a0 4f 05 bc
       0.059934393 -0.003775239 -0.051379032 -0.00813666
000070 58 0e fd 3c ee eb 1c bd 5a 33 2e 3d f2 95 0b bd
       0.030890629 -0.038310938 0.04252944 -0.034078546
000080 68 65 40 bc 96 52 50 3d 7a 08 04 3d 44 71 52 3d
       -0.011742927 0.05086001 0.032234646 0.05137755
000090 b8 67 0a 3d 00 d1 f2 3b f0 c7 a8 3c c0 4b 7c bc
       0.03379032 0.0074101686 0.02060315 -0.01539892
0000a0 50 02 04 bd 78 14 53 bc ac 4c 7b 3d 7a c2 5e 3d
       -0.032228768 -0.012883298 0.061352417 0.054384686
0000b0 bc e9 03 3d 88 f7 82 3c d0 c3 a3 3b 60 a5 54 3d
       0.03220533 0.015987173 0.004997708 0.051915526
0000c0 68 dc 74 bd a0 00 c6 bc 10 e1 84 3b e0 20 e3 3c
       -0.05978051 -0.02417022 0.00405515 0.027725637
0000d0 d8 04 d8 3c c0 aa e2 3b 6a 0f 5d bd d0 0d 20 3d
       0.026369497 0.0069173276 -0.053969778 0.039075673
0000e0 cc 94 b3 3c 4c a6 e0 bc f0 ab 59 bc 1e 98 16 3d
       0.021921538 -0.027423047 -0.013285622 0.036766164
0000f0 84 0f 98 bc 78 e2 38 3d c0 cb 9a 3b 18 78 a8 3c
       -0.018562086 0.045137852 0.004723996 0.020565078
000100 20 c8 2e 3b 5c d2 70 bd 24 a7 e2 3c 3c 30 6b 3d
       0.0026669577 -0.058794364 0.02766759 0.057419047
000110 0a 8b 33 bd 00 71 ec b9 8c f3 b0 bc 40 e5 63 3d
       -0.04383377 -0.0004509762 -0.021600507 0.05563855
000120 94 66 1b bd c4 9e 27 3d 28 59 be 3c e8 f8 01 3c
       -0.037939623 0.040922895 0.023235872 0.007932879
000130 cc b6 66 bd 90 fe 75 bc fa 52 29 3d e8 83 47 3c
       -0.056326672 -0.015014306 0.0413389 0.012177445
000140 74 0b bb 3c 40 ea 8b 3a 8c c5 56 3d d4 4d 84 3c
       0.02283261 0.001067467 0.05243449 0.016150393
000150 54 4b b3 bc a8 de 0c 3c 5c fe 5b 3d ce 53 6e 3d
       -0.021886505 0.008598007 0.053709373 0.05818539
000160 5c 53 41 bd c4 ef db 3c a0 bf 65 3c 34 81 7d 3d
       -0.04719864 0.026847728 0.014022738 0.061890796
000170 f6 ca 50 3d 78 e9 58 3c 12 3f 0a bd 88 7b 6e bd
       0.05097481 0.013239257 -0.033751555 -0.058223277
000180 30 67 96 bb b0 87 f7 bc a4 fc 96 bc 9e 43 39 bd
       -0.0045899376 -0.030216068 -0.018431015 -0.0452305
000190 e8 9c ff bc f4 d0 bf bc d0 dc d8 3b 18 7b a7 3c
       -0.031202748 -0.023415066 0.00661812 0.020444438
0001a0 a2 bf 11 3d 80 80 21 3a 40 67 42 3b 6e bc 43 bd
       0.035583146 0.00061608106 0.0029663593 -0.047787122
0001b0 14 0e 3e 3d 26 45 31 bd de 85 6f 3d 44 52 cd 3c
       0.046400145 -0.043278836 0.058477275 0.025063641
0001c0 74 ed d3 3c 64 d0 85 3c 3c 5a 5a 3d 72 f5 49 bd
       0.025870062 0.01633472 0.05330871 -0.04930634
0001d0 c8 bb 5c bc d0 c6 13 3d 42 b7 0e bd 2c 7e fd 3c
       -0.013472505 0.036078274 -0.034842737 0.030943953
0001e0 40 2b 71 bc b0 81 2c bd d4 c3 3b bd 08 1e 20 3c
       -0.014719784 -0.042115867 -0.045841053 0.009772785
0001f0 90 1f 7e bc 2c 8f 44 3d d8 32 b4 3c 40 2a 2d bd
       -0.015510455 0.0479881 0.0219969 -0.04227662

FC4.weight f4 [128, 512]
000000 db fe 07 bd 7e 47 25 3d d9 18 61 bc b5 50 6a bc
       -0.033202033 0.040351383 -0.013738834 -0.014301469
000010 b4 8a 11 bd 26 74 d3 bc be ec 64 bc 37 ad 0f 3d
       -0.03553267 -0.02581222 -0.013972459 0.0350773
000020 a0 49 79 bc 1a 0d d3 bb fc 7a 8c 3c cf 08 d8 3c
       -0.0152153075 -0.006440771 0.017148487 0.026371388
000030 9c 8b d9 3c 40 f8 1e 3c 6b 53 ac bb f2 67 7c bc
       0.026555829 0.009702742 -0.0052589676 -0.015405642
000040 8c 3f d1 bc 26 79 00 bd 11 4e 29 bd e4 69 fa 3c
       -0.025542997 -0.031365536 -0.041334216 0.03056807
000050 81 c2 25 bd 37 55 db 3c bf 23 eb 3c d7 f4 b8 3c
       -0.040468697 0.026774032 0.028703569 0.022577686
000060 f1 02 56 3c a1 96 f5 ba 7e eb d2 3c 2b 10 ae 3c
       0.013062225 -0.0018736908 0.025747057 0.021247944
000070 9c 0b c4 b8 ff 23 4a bc 0c e5 0b 3d 61 6c b6 3b
       -9.348171e-05 -0.012337684 0.034153983 0.005567119
000080 b9 b0 0c bd 55 39 e9 bc 98 ec b1 bb 20 8a b6 bc
       -0.034348223 -0.02846972 -0.0054298155 -0.02228266
000090 50 15 1e 3b 44 92 1b 3c b2 b2 04 3d 40 69 ca bc
       0.002412159 0.009495322 0.03239698 -0.02470839
0000a0 90 d2 21 bd 1d 25 aa 3b ac 7d 45 bc d8 fc 17 bd
       -0.03950745 0.0051924125 -0.012053888 -0.037106365
0000b0 7e 6a e6 3b 05 83 d1 bc 8c 38 82 b9 eb c5 32 bc
       0.007031738 -0.02557517 -0.00024837663 -0.010911445
0000c0 c6 7e e7 3c aa 6b ab 3c 95 be a5 bc 60 d5 b8 3c
       0.028258692 0.020925362 -0.020232478 0.022562683
0000d0 97 c0 c5 3c 2e 05 06 3d 04 49 02 bd e0 2b 97 bc
       0.024139686 0.032719783 -0.031807914 -0.018453538
0000e0 0b 23 64 3b ec 60 1c bd cf 02 03 3d 5e af 49 bc
       0.0034810926 -0.03817837 0.0319851 -0.012309877
0000f0 3c 6a 5c bb 28 45 01 bd a6 f8 3f 3c f5 6f 05 bd
       -0.0033632657 -0.031560093 0.011716997 -0.032577474
000100 85 41 2a 3d 03 ea 52 bc 5c cf 5b 3c 4e d4 10 bc
       0.04156639 -0.012873176 0.013416138 -0.00883968
000110 90 1b d3 3c d0 40 b0 3c c0 f9 05 3d fd cd f8 3c
       0.025769979 0.02151528 0.032708883 0.03037166
000120 d9 0d 23 bd 52 4d e5 3c e2 c1 9f 3c 16 f5 11 3d
       -0.039808128 0.02799097 0.01950163 0.035634123
000130 34 45 1f 3d 55 b0 ec 3a 0a 24 4a bc e0 a3 52 bc
       0.038884357 0.0018057922 -0.012337694 -0.012856454
000140 5f 89 31 3d 07 ac a4 3c b8 b5 95 bc 34 71 10 3d
       0.043343898 0.02010156 -0.018275127 0.03526421
000150 0e 0f ea 3c 1d f5 fa bb a7 5a ce bc e0 c1 71 3c
       0.028571632 -0.0076586143 -0.02518971 0.014755696
000160 26 f8 1c 3c 2d a6 81 ba 81 e3 9f bc dd 40 fb 3c
       0.009580648 -0.0009891443 -0.019517662 0.030670578
000170 46 28 d0 bc 7e 82 09 3d 91 ec 15 bd 89 99 8e bc
       -0.025409829 0.033571713 -0.03660256 -0.017407196
000180 d2 15 2f bc 20 49 d3 3c 57 9e c3 bc 4f 99 e3 bc
       -0.010686355 0.025791705 -0.023879213 -0.027783064
000190 29 23 2c 3b ee a8 ea bc 26 ef da bc cf 6e 69 bc
       0.0026266074 -0.028645005 -0.026725363 -0.01424761
0001a0 25 d8 07 3d 28 dc 56 bb 3e 40 bc bb 9c be 1e 3d
       0.033165116 -0.0032785032 -0.005744963 0.038755998
0001b0 cf 28 16 3d 80 7d 1e bd 0e 39 e3 bc 30 17 2f 3c
       0.03666001 -0.038693905 -0.027737167 0.010686681
0001c0 c7 9d 0b 3d f7 77 20 bd 82 0a e7 3c ff 36 64 bc
       0.034086015 -0.039176907 0.028203253 -0.013929128
0001d0 b3 66 d4 bb 08 10 0d bc e8 36 17 3d 35 fe 4e 3c
       -0.0064819693 -0.008609779 0.036917597 0.01263385
0001e0 8f c4 24 bd d1 5c f2 3b 2f 6f 88 ba 73 5f 95 3b
       -0.040226515 0.0073963185 -0.0010409112 0.0045584976
0001f0 63 49 d4 3c f3 9f c6 3c 45 d9 11 3d 22 1b fb bc
       0.0259139 0.024246192 0.035607595 -0.030652586
000200 38 db 86 bc eb 9a 18 3d 49 29 02 3d 31 53 f7 3c
       -0.016461954 0.037257116 0.031777654 0.030191036
000210 02 60 3a 3c 13 be 0d bd 75 f8 a7 bc 76 a2 88 3c
       0.011375429 -0.034605097 -0.020504216 0.01667903
000220 0b 6b 26 bd 6f a0 0d 3c f6 8d 5d bc f9 00 1e bd
       -0.040629428 0.008644207 -0.013522616 -0.038575146
000230 06 d9 81 bc 37 1e 7b bc ca bc 26 bc 90 a6 d1 3c
       -0.015850555 -0.015327028 -0.010176847 0.025592119
000240 86 1a c2 bc f9 5e 9e bc b6 6b 09 3c 9d c6 04 3d
       -0.023694288 -0.019332396 0.008387497 0.032415975
000250 50 aa 09 bc 50 d6 bf bc 0e ee e3 bc 64 3a 12 3d
       -0.008402422 -0.023417622 -0.027823474 0.035700217
000260 ee bb 1e bd 01 50 fa 3c 74 f2 02 bd 20 21 d6 bb
       -0.038753442 0.030555727 -0.031969503 -0.0065347105
000270 ed 71 32 39 03 e0 88 3b 80 cd 03 3c 3e 75 1f bd
       0.00017017843 0.004177095 0.0080446005 -0.03893017
000280 5b 28 23 3b f9 44 c4 bb d0 1a d9 3c bb da 99 3c
       0.002489588 -0.0059896675 0.026502043 0.018781057
000290 60 fd 10 bd 32 6e 9a 3c ac ab 28 bd 75 4b fd 3a
       -0.035397887 0.018851373 -0.041179344 0.0019324856
0002a0 9a ff 62 bc 92 ea c4 bc c8 92 25 3d 95 41 94 bc
       -0.0138548855 -0.024037633 0.040423185 -0.018097678
0002b0 88 25 a4 bc 65 6b e7 3c 91 79 c6 3c b3 22 12 bc
       -0.020037428 0.028249452 0.02422789 -0.008919406
0002c0 35 dc 40 3c 1c bd 13 3c 1b 97 e2 3b 52 b0 66 3b
       0.011771251 0.009017255 0.006914986 0.003520031
0002d0 8a a1 d7 3c 68 5c 7d bc 29 f8 20 3d 91 63 08 3d
       0.026322145 -0.015463926 0.039299164 0.03329808
0002e0 6a 78 27 3c 91 17 1b bd ee 23 e5 3c 0b 89 98 3c
       0.01022158 -0.03786427 0.027971234 0.018620035
0002f0 83 05 85 3c 3e 6b a5 bc ba b9 82 3c ed 7b 07 3d
       0.01623798 -0.020192739 0.015957702 0.03307717
000300 d2 38 34 bd be 46 7f 3c ef 3e 2c bd 28 40 08 bd
       -0.0439995 0.015580831 -0.042052206 -0.03326431
000310 65 52 3a 3c 2b b6 bb bc 47 29 25 3d 50 69 ad 3c
       0.011372183 -0.022914013 0.04032257 0.021168381
000320 78 8c 3e b9 7b f1 18 bd 5d a1 27 3d 3a 0d 23 3d
       -0.0001817214 -0.03733967 0.040925372 0.039807536
000330 3d cc 4f bc 8c a9 21 39 33 1b a0 3c 35 d6 7d 3c
       -0.012682972 0.00015417318 0.01954422 0.0154929655
000340 a7 86 0d 3d e2 fd 1a bc 82 8b 7b bb 94 d9 e3 3c
       0.034552243 -0.009459944 -0.0038382714 0.02781371
000350 e6 a3 41 bb 16 c4 af bc b2 c3 9b 3b fb 72 db 3c
       -0.0029547154 -0.021455806 0.0047535533 0.026788225
000360 f2 69 28 3d b5 7e 14 bd bd c5 d8 bb 02 7e 1d 3d
       0.041116662 -0.03625365 -0.006615369 0.03845025
000370 93 bc 2d bb 9b 74 5b 3b b9 2c 57 bc 0e 2b a2 3c
       -0.0026510104 0.003348625 -0.013133221 0.01979592
000380 11 51 da bc 46 c5 b7 bb db 46 7a 3c c7 92 87 bc
       -0.026649984 -0.0056082336 0.015275682 -0.016549481
000390 a4 6f 2c 3d c3 7b 2d 3c ec ae 14 bd 60 a5 5f bb
       0.042098656 0.010588589 -0.03629963 -0.003412567
0003a0 21 09 28 bd 49 68 d3 3c 65 c9 23 3d f9 45 13 3d
       -0.04102433 0.025806563 0.039986987 0.035955403
0003b0 c4 12 5e 3b 54 e2 05 3d 98 81 f5 bb c1 ec 10 bd
       0.0033885697 0.032686546 -0.0074922554 -0.035382036
0003c0 48 87 13 bc 91 c9 57 3b 8d eb e6 3c 66 a6 90 3c
       -0.0090044215 0.003292654 0.028188491 0.01765747
0003d0 18 54 a8 bc 4b 17 88 bc f2 54 21 bd 1d 66 8a 3b
       -0.020547912 -0.01661267 -0.03938765 0.0042235986
0003e0 3a 9a 09 bd ca 69 0a bd 5d 62 89 3c 1a 42 b3 bc
       -0.033594348 -0.033792295 0.016770536 -0.021882106
0003f0 dc d7 1c bd 40 a2 e1 bc 6c 0e 20 bd 2d 42 8c bb
       -0.038291797 -0.027543187 -0.039076254 -0.0042803497

FC4.bias f4 [128]
000000 f9 4d b0 3c 1e 68 2d bd c8 65 93 bc 6a f9 24 bd
       0.021521555 -0.042335622 -0.017992869 -0.040276922
000010 00 d5 73 bb 02 48 ae 3c c4 c5 53 bc 26 d0 f3 bc
       -0.0037205815 0.02127457 -0.012925569 -0.029762339
000020 86 98 2b bd 72 ca f1 bc 3a 39 01 bd 69 6d 4d bc
       -0.041893505 -0.029515479 -0.031548716 -0.012538292
000030 b1 4f f4 3c 61 28 03 bd 43 c1 1e bd a5 61 1b 3d
       0.029823156 -0.03202093 -0.038758527 0.037934918
000040 ea 1a a0 bb 3c 81 26 bd 33 5e 09 3d 00 b1 08 3d
       -0.004886021 -0.04065059 0.0335371 0.033371925
000050 e8 3f a2 bc 53 ce 15 3d 3e 30 9d 3c 9c a2 9c 3a
       -0.019805863 0.03657372 0.019188043 0.0011950317
000060 17 c0 f8 bb 5e a6 6c bc 90 50 16 bd c8 28 f6 bb
       -0.0075912583 -0.014443962 -0.036697924 -0.0075121857
000070 96 56 c4 bc 25 62 27 3d 79 cc 1a 3d 67 91 ef 3b
       -0.023967069 0.040865082 0.037792657 0.0073110345
000080 fa 32 89 3c 54 f0 52 3c 5b bf a1 3c 83 55 ec bb
       0.01674794 0.0128746815 0.019744566 -0.007212342
000090 9c 7a e0 3b a1 4b 43 ba e5 85 ee 3c 9f ef 0a 3d
       0.0068505537 -0.0007449929 0.02911658 0.033919927
0000a0 14 e7 c2 3c 5a ac f7 bc 89 e2 d7 bc 8a d1 f1 bc
       0.023791827 -0.03023355 -0.026353138 -0.029518861
0000b0 03 61 c7 bc e4 53 30 bd 0b e6 fe bc 1e d3 6b 3c
       -0.024338251 -0.043048754 -0.031115552 0.014393596
0000c0 52 5a 44 3c bb 4d 75 bc d2 69 9c bc 00 ca 33 3c
       0.011984425 -0.014972146 -0.019093428 0.0109734535
0000d0 e5 f8 18 bd 7f 1e bb 3c ac cc c2 3c ec 68 cd 3b
       -0.03734674 0.02284169 0.023779236 0.006268611
0000e0 19 17 4d 3c 28 6a 1a 3d 71 15 a3 3c 7b f4 be 3c
       0.012517714 0.037698895 0.019907685 0.023309937
0000f0 d7 b0 81 3c 8e 4c ce 3c 52 c8 44 3b 54 24 df bc
       0.015831394 0.025182988 0.0030026627 -0.027239002
000100 50 b4 b5 ba d1 4d b9 3c 3a af 25 3c c7 19 69 3c
       -0.0013862941 0.022620114 0.010112578 0.014227337
000110 84 d1 cc bc 66 6f be bc fc ae a9 3b 12 0d 87 bc
       -0.025002249 -0.023246478 0.0051783305 -0.016485725
000120 1e 78 29 bc c0 4d 50 3c b1 67 b3 bc 78 61 24 bd
       -0.01034358 0.01271385 -0.02190003 -0.040132016
000130 f8 6d bb bb 5b 9a 87 3c 95 9e 05 bd 62 5b fc 3c
       -0.0057198964 0.016553095 -0.03262194 0.030805293
000140 7e 9c 8b 3b 06 19 df 3c 3d 21 09 bd d8 0a 43 3c
       0.0042605987 0.027233612 -0.033478964 0.011904441
000150 04 14 03 bd 17 5b be 3c f4 66 06 3c 1f cf 1f 3c
       -0.03200151 0.023236794 0.008203257 0.009753971
000160 8f af db bc 35 e5 71 3c bf 52 8e 3c 53 62 e7 bc
       -0.026817111 0.01476412 0.01737344 -0.028245127
000170 c7 e3 d2 3c 99 47 0a bc 74 eb 28 3d 93 e9 08 bd
       0.025743378 -0.008439922 0.04124017 -0.03342588
000180 e6 6b 23 3d 95 44 16 bd aa a0 b8 3c 4c 6a b3 bc
       0.03989782 -0.0366865 0.022537548 -0.021901272
000190 a6 fb 98 bc a9 8e 12 bd 32 ce 38 3c 3f cc f8 3c
       -0.018674683 -0.035780583 0.01127963 0.03037083
0001a0 25 7f 06 3d 50 2a 13 3d 8e 17 c2 3b 23 9f ba ba
       0.0328361 0.035929024 0.005923218 -0.00142381
0001b0 36 4e c2 bc f4 76 56 3b f5 12 1f 3d 4c 24 43 3b
       -0.023718935 0.003272471 0.03883644 0.0029776273
0001c0 68 8f 25 bd 9c 21 ca bc db 9b 33 3d 6c 46 c6 ba
       -0.040419966 -0.02467423 0.043849807 -0.0015127189
0001d0 ce 95 b1 bc 62 84 85 3c a9 b3 b1 bc 6b af 0b bd
       -0.021677878 0.016298477 -0.021692114 -0.03410284
0001e0 fe 59 04 bb c3 b4 96 3b f9 e5 d1 3c 0e 51 02 bc
       -0.002019524 0.004599185 0.025622355 -0.007953895
0001f0 e4 11 d4 3c 22 d2 b3 bc 58 89 a4 3c 8c 6a c9 3c
       0.025887437 -0.021950785 0.020085022 0.024586938

linear.weight f4 [1, 512]
000000 4a 0f 14 bd 27 c1 d8 bc 22 07 0b bd ac 8f c6 3c
       -0.036147393 -0.02645929 -0.03394235 0.02423843
000010 87 4a 1c 3d d2 41 f5 3b 6c f6 33 bd 31 67 fb 3c
       0.038157012 0.007484653 -0.043936178 0.030688854
000020 a6 71 1f bd 79 98 84 bc 0b c8 5f bc ae 6a 5c 3c
       -0.038926743 -0.016185986 -0.013658534 0.013453169
000030 fc 2c 12 3d ca 4d 90 3c 5b 2b 74 3c 53 6f d9 bc
       0.03568743 0.017615218 0.014902915 -0.026542341
000040 26 94 df bc ab b5 51 ba 6d ee 98 bb 5d 0e b1 bc
       -0.027292322 -0.0007999788 -0.0046670944 -0.021613294
000050 5f 50 0c bd a3 20 b7 bc bc a6 8f 3c 19 2b 85 3c
       -0.034256335 -0.02235443 0.01753556 0.016255902
000060 9c 76 80 bc 9b 96 47 3c a2 f5 bd bc db 93 1f 3d
       -0.015681557 0.012181903 -0.023188416 0.038959365
000070 89 38 80 bc 28 40 85 3c 9b fb c2 3c 18 85 d6 bb
       -0.015651958 0.016265944 0.023801615 -0.0065466277
000080 4f 12 bb bb 28 05 af bb cb 0f b8 3c bd c6 db 3c
       -0.0057089697 -0.005341191 0.022468468 0.026828164
000090 a4 67 13 3d e4 dd d2 3c 5f 9e cc 3c 62 5d 0f bc
       0.03598751 0.025740571 0.024977861 -0.008750292
0000a0 87 09 a1 3c 53 3b ed bb be 22 e0 bc e2 b6 e2 bc
       0.019657863 -0.007239738 -0.027360316 -0.027675096
0000b0 63 c0 61 bc b9 3f 4f bc 95 56 11 3d 97 fd fe 3c
       -0.013778779 -0.01264947 0.03548296 0.03112678
0000c0 6d b5 dd 3c ca 27 14 bd 6b 1a 8f 3c 71 fc ed bc
       0.02706405 -0.03617076 0.017468652 -0.029051038
0000d0 e3 69 83 3b 55 6f a9 3c 1e 0b b2 3c f4 f1 11 3d
       0.0040104254 0.02068297 0.021733817 0.035631135
0000e0 6d 7d 86 bb af 64 0d bd f7 1c 0c 3d 68 25 de bc
       -0.0041043074 -0.034519847 0.03420731 -0.027117446
0000f0 57 0e d9 bc 61 3c b3 3c 20 97 c1 3b 31 91 50 bc
       -0.026496096 0.021879377 0.005907908 -0.012729929
000100 a4 68 23 3d e9 fc ee bc ff 11 b3 bb f1 24 cf 3c
       0.039894715 -0.029173331 -0.005464792 0.02528617
000110 e0 e5 e1 3c 85 16 1f bc 4f 58 03 bd 6b 5d 54 bc
       0.027575433 -0.009709959 -0.03206664 -0.012961726
000120 2c 15 02 bd 44 e2 28 3d 2f e9 1a bd d7 be 16 bc
       -0.031758472 0.04123141 -0.037820037 -0.009200773
000130 2d 82 99 bc 3c c2 21 3d 44 67 11 bd ba d9 17 bb
       -0.01873883 0.039491877 -0.035498872 -0.0023170547
000140 b8 69 81 3b 52 2e ef bc 91 53 71 bb 43 7a c8 3c
       0.0039493702 -0.029196892 -0.003682349 0.024472361
000150 b7 dc 22 bc ae f7 25 bd 0c 82 9f 3c cf e8 05 3d
       -0.009940318 -0.04051941 0.01947119 0.032692727
000160 83 6a 2b bd ae 47 cf 3b f8 fd 10 bd 3a c5 ad 3c
       -0.041849624 0.0063256836 -0.035398453 0.021212209
000170 35 d9 0c bd 89 ff 0e bb a9 87 ba bc 23 a8 b3 3c
       -0.034386832 -0.0021819791 -0.022769766 0.02193076
000180 14 2c 13 3d c0 0c 13 3d 72 af 25 3d 90 13 27 bc
       0.035930708 0.03590083 0.04045052 -0.010197535
000190 c9 a7 95 bc e1 4a bb 3b 7a 68 24 bc 23 95 34 bd
       -0.018268483 0.0057157134 -0.010034675 -0.04408754
0001a0 28 6b d7 3c d0 bd c8 bc fb 96 31 3d 29 4a 95 bc
       0.026296213 -0.024504572 0.043356877 -0.018223839
0001b0 40 c6 29 bd d5 50 c8 3c f6 26 45 3c 50 0c 6b 3b
       -0.04144883 0.024452606 0.012033215 0.0035865493
0001c0 f9 23 10 3d e1 21 17 bb 00 b0 e4 3c 04 e7 76 bc
       0.035190556 -0.0023060965 0.027915955 -0.015069727
0001d0 25 78 1a 3d 56 2b 9d 3c 49 18 0f bd df 95 14 3d
       0.037712235 0.019185703 -0.03493527 0.03627574
0001e0 6a ce de 3a dc fa 26 bc 36 81 22 bd 52 1e 9d bc
       0.0016998772 -0.0101916455 -0.039674006 -0.019179497
0001f0 b7 a7 87 bc ae e6 66 3b 3a 80 00 3d 85 a6 0e 3d
       -0.016559465 0.003523271 0.031372286 0.034826774
000200 20 eb df 3c 69 ff f6 3c 39 1b ea bc 4b d5 f4 bc
       0.027333796 0.030151086 -0.028577434 -0.029886862
000210 de ce f1 3b 0c 17 1d bd 79 59 a2 bc 5a 1f 81 bc
       0.007379397 -0.038352057 -0.019818055 -0.01576202
000220 39 aa ab 3c 0b 24 d8 3c e2 ff 2f 3d 91 92 d3 3c
       0.020955192 0.026384374 0.04296864 0.025826724
000230 7a ae 9c bc 9c 03 00 bd 01 cb 9a 3c d8 d9 8f bc
       -0.019126166 -0.031253442 0.018895628 -0.01755993
000240 4c 57 2e bd 72 dc 23 3d cc cc 29 3d c9 f8 0b 3d
       -0.04256372 0.040005155 0.041455075 0.034172807
000250 8e c8 84 bc 85 1f 2b 3c 35 72 c8 3a 3e 3f a8 bb
       -0.016208913 0.010444527 0.0015292825 -0.005134492
000260 b6 84 d3 3c bf 05 fe 3c 11 3e fb 3c 63 b5 71 3c
       0.025820117 0.0310086 0.030669244 0.014752719
000270 ae 53 a2 3c c2 4b dd 3c 39 99 cc 3c 93 49 82 3c
       0.019815292 0.027013663 0.024975406 0.015904224
000280 da bc 33 3b 61 5f f7 bb b4 c4 34 bd 06 e7 18 3d
       0.0027425797 -0.007549212 -0.044132903 0.037329696
000290 de 53 48 bc b9 fa d3 3c 53 b3 b4 3c f4 75 b9 bc
       -0.012227027 0.02587639 0.022058165 -0.022639252
0002a0 38 4b bd 3c 0b e1 21 bd 78 58 30 3d 50 fc 26 3d
       0.023107156 -0.03952126 0.04305312 0.040767968
0002b0 67 2f ed 3c 55 6a 0f 3d f9 c4 a4 3c 31 04 21 bc
       0.028953267 0.035013516 0.020113455 -0.009827659
0002c0 03 ab b9 bc 51 0f d4 3c d7 1f 31 3b 2c 7f 2b bd
       -0.022664553 0.02588621 0.0027027035 -0.041869327
0002d0 e6 9e 0f bc e8 04 8d 3c 56 4e bd 3c a8 f3 04 3d
       -0.008765912 0.017214254 0.023108643 0.03245893
0002e0 09 07 09 3b e8 41 26 3c 0d 56 21 bd cc 9a fd 3c
       0.0020908734 0.010147549 -0.039388705 0.030957602
0002f0 74 86 1d 3d 13 f6 97 bc 12 10 49 3b dc 76 85 3c
       0.038458303 -0.018549955 0.0030679745 0.016292028
000300 9c 54 ee bc 0f 9e c6 bc c8 2a 93 3b 91 8a 21 bc
       -0.02909308 -0.02424529 0.004491184 -0.009859697
000310 da 77 b1 bc b1 0c 17 bd af f8 01 3d 04 c5 0b bc
       -0.021663595 -0.036877338 0.031731304 -0.008530859
000320 8e 15 a0 3c 44 62 25 3d 12 94 33 bd 9d d6 81 3c
       0.019541528 0.040376917 -0.043842383 0.015849406
000330 12 ea 75 3b d5 43 31 3d 42 8d 3b bb e7 e7 8e bc
       0.003752355 0.04327758 -0.0028618132 -0.017444564
000340 f3 43 7c bc b4 b8 86 bc 22 be 89 bb f0 34 86 bc
       -0.01539706 -0.016445495 -0.004203574 -0.016382664
000350 d0 b6 34 3a 35 02 28 3d 79 4e bc 3a 16 d3 34 bd
       0.0006893696 0.04101773 0.0014366648 -0.04414662
000360 c1 aa 20 bd c3 8c b4 3c 5d bf 2e 3d 8f b4 99 bc
       -0.039225344 0.022039777 0.042662967 -0.018762855
000370 45 9a 0b bd 6f 34 cf 3c 26 27 17 3d 7e 65 4e ba
       -0.03408267 0.025293557 0.03690257 -0.00078734
000380 23 e8 0d 3d cd c3 cc bc 99 47 ef 3b e0 35 91 bc
       0.03464521 -0.024995709 0.0073022363 -0.017725885
000390 9e ea 8d bb 99 cf 19 bd c9 e1 7d 3c f3 b8 2d 3b
       -0.004330947 -0.037551496 0.015495726 0.0026507943
0003a0 a6 3f 1e 3c fc 69 0e 3c ca 39 07 bd ee fd 48 bc
       0.00965873 0.008692261 -0.033014096 -0.012267573
0003b0 03 ed 07 3d 73 2b 01 bd 2c 79 05 3d 0b 6e 13 3d
       0.033185016 -0.031535577 0.03258626 0.035993617
0003c0 35 8e 0c 3d a2 da 4d 3b ec 5f 0e bd 8b 63 3e bb
       0.034315307 0.0031410833 -0.034759447 -0.0029051031
0003d0 27 5e fd 3b c8 c8 05 3c a1 93 cc 3c 47 73 9a bc
       0.007732171 0.008165546 0.024972739 -0.018853797
0003e0 bf 7c c0 3c f0 bd aa 3b eb e0 d4 bc db 5e b6 3c
       0.023496984 0.0052106306 -0.025986155 0.022262027
0003f0 be a3 d4 3c f9 16 97 bc a0 f1 33 bd ca 5e f1 3c
       0.025956985 -0.018443571 -0.043931603 0.029464144
