dl/poal_dl/modelpara/20230826_042803__epochsbackbone100_epochsmqnet100_lrbackbone0.1_lrmqnet0.001_module.params (torch, 500695 bytes, 9 tensors)

FC1.weight f4 [128, 64]
000000 c0 71 fe 3b 2c b0 7f bd c0 6b 93 3d ce d6 b3 bd
       0.007765025 -0.06242387 0.07198286 -0.08781205
000010 9c c7 a0 3d 8c d4 0d bd 16 ed b0 bd 38 6d cf 3d
       0.078505725 -0.03462653 -0.086389706 0.10128254
000020 a0 85 d8 3d a4 f2 a1 bd 70 98 cf 3d fc c6 64 bd
       0.10572362 -0.07907608 0.10136497 -0.05585383
000030 dc 20 1e bd e6 06 98 bd c8 78 84 bc 8c 58 66 bd
       -0.038605556 -0.07423191 -0.016170874 -0.05623679
000040 48 79 f3 bc 92 d6 a2 bd d4 c8 a1 bd 38 8d 4f bd
       -0.029720917 -0.07951082 -0.07899633 -0.050671786
000050 d6 88 b9 bd ec 5a 01 bd 18 35 25 bd e8 f2 d8 bc
       -0.090593025 -0.03158085 -0.040333837 -0.026483014
000060 8a be eb bd 42 d8 fc 3d fa 20 ec 3d d0 cc d3 3c
       -0.11510952 0.123459354 0.11529727 0.025854498
000070 00 9c eb bb e8 20 5d 3d c0 09 24 bc fa 18 d2 bd
       -0.0071902275 0.05398646 -0.01001209 -0.1025867
000080 7a 2d 9c bd 82 4f 9a 3d 4c 55 ae 3d c8 3d 83 3d
       -0.076258615 0.07534696 0.08512363 0.06408268
000090 ac a2 5c bd 92 68 ae bd 04 f9 40 bd 88 92 f6 bd
       -0.053866073 -0.08516039 -0.04711248 -0.12039667
0000a0 bc 5a 6f bd 64 65 d2 bd 42 fd 89 3d 90 f6 f7 3d
       -0.05843614 -0.10273245 0.06737758 0.12107575
0000b0 60 36 f2 3d 90 96 89 3d 08 cd 5d 3d 10 12 b0 3c
       0.118267775 0.06718171 0.05415061 0.021492988
0000c0 e4 47 45 bd e4 1d 78 3d 38 73 33 3d c0 b1 a4 3d
       -0.048164263 0.06057538 0.043811053 0.080417156
0000d0 ec 3a bd 3d 1a 7a c9 3d 60 5a 76 bd 32 2f d1 bd
       0.09239754 0.09837742 -0.060144782 -0.1021408
0000e0 00 4c ec 39 e6 b9 c8 3d 7e 00 da 3d 58 03 a5 bd
       0.00045070052 0.09801082 0.10644625 -0.080572784
0000f0 10 73 47 bc 74 87 f4 3d e4 d9 7f bd 94 36 cc bd
       -0.012173429 0.11939898 -0.062463656 -0.099713475
000100 a0 eb 74 bd 7a 96 a5 bd 48 22 f9 3c 42 de a2 3d
       -0.059795022 -0.08085342 0.030411854 0.079525486
000110 6c 4b c0 3d 3c 22 a9 bd 54 04 f3 3d ac b2 cc 3d
       0.093893856 -0.08258483 0.1186606 0.099950165
000120 24 9b 48 3d ce 88 e6 bd 1c 5a 9c 3d aa bb d1 3d
       0.04897608 -0.11256562 0.076343745 0.10240872
000130 7c 1d c8 bd c0 d3 47 3b fa ad b0 bd 50 79 f6 bc
       -0.09771249 0.0030491203 -0.086269334 -0.030087143
000140 f8 52 43 3d 98 4e 09 bd 76 ad 80 3d 12 77 ca bd
       0.047686547 -0.03352222 0.06283085 -0.09885992
000150 58 b2 c6 bd 1e 71 f5 3d d0 5d 91 bc 5e a4 95 3d
       -0.09701985 0.11984466 -0.017744929 0.07306741
000160 a8 65 fc bd 6e 5b da bd 98 60 97 bc e0 b8 91 3c
       -0.12324077 -0.1066197 -0.018478677 0.01778835
000170 4e df ab bd 6e 8b 80 3d 00 60 7c 39 20 c5 7f 3c
       -0.08392201 0.06276594 0.00024068356 0.015610963
000180 ba 36 e0 bd 76 25 c4 bd ac 30 70 bd c0 24 41 bb
       -0.10947938 -0.095774576 -0.058640167 -0.0029471368
000190 30 70 25 3d f4 c3 07 3d 80 5f 81 ba dc 16 1f 3d
       0.040390193 0.03314586 -0.000987038 0.03884016
0001a0 28 16 b3 3c f4 94 98 3d 26 24 d0 3d 70 5e 0c 3d
       0.02186115 0.074502856 0.10163145 0.03426975
0001b0 9c 8b 83 bd 06 dc 8c bd 3e 11 a6 3d ea 79 b8 bd
       -0.06423113 -0.06877904 0.081087574 -0.09007628
0001c0 68 f6 cb bc 80 90 08 bd 00 e0 49 3a 80 f3 ba 3b
       -0.02489777 -0.03334093 0.000770092 0.005705297
0001d0 4c 23 05 3d 00 53 bd 3c 1a 5f 9e 3d a8 31 c0 3d
       0.032504365 0.023110867 0.07732983 0.09384471
0001e0 dc e6 3c 3d 72 4b c7 3d e0 f6 69 bd c8 be 70 3d
       0.046118602 0.09731187 -0.057120204 0.058775693
0001f0 b4 47 4c bd a6 77 a7 3d 08 9c d6 3d 40 cd a4 3d
       -0.04987307 0.08177118 0.10478979 0.08046961
000200 b0 0b 78 bd 44 8f 18 3d 94 39 d2 3d fc 3b db bd
       -0.06055802 0.037246004 0.102648884 -0.107048005
000210 fe a1 8b 3d ec 6c 25 3d 56 f2 ef bd fe fa f6 bd
       0.06818007 0.04038708 -0.11716144 -0.12059592
000220 68 ca e6 bd 80 2e 52 bd 84 f8 b4 3d 20 51 28 3c
       -0.11269075 -0.051313877 0.08836463 0.010273248
000230 80 07 fa bc a4 2c c0 bd 40 15 c7 3d 20 ea 8f 3b
       -0.030521154 -0.093835145 0.0972085 0.0043919235
000240 0e d8 ff 3d 10 3d 1d bc e0 08 2c bc 34 1a 1a bd
       0.12492381 -0.009597078 -0.010500163 -0.037622645
000250 c4 f7 48 3d 4c 6c 88 3d 56 9b b4 3d 8a d1 f2 3d
       0.049064413 0.06661281 0.088186905 0.11856373
000260 20 04 e6 bd a0 a8 82 bb d2 0b a9 bd 62 a4 eb 3d
       -0.112312555 -0.003987387 -0.08254208 0.11505963
000270 06 9b d7 3d ae 30 dd 3d 36 1a e7 bd 7e da 88 3d
       0.10527615 0.108003005 -0.11284296 0.06682299
000280 ae b1 9c 3d ec 8c 6e bd a0 ed f5 bd 9e fb dc 3d
       0.07651077 -0.058239862 -0.12008214 0.1079018
000290 8a 53 da bd b8 62 8b bd 02 7f f1 bd b2 05 af 3d
       -0.10660465 -0.068059385 -0.11791803 0.08546008
0002a0 00 56 cb ba 98 e5 3f bd 54 36 80 bd b0 9e 63 3c
       -0.0015513301 -0.046849817 -0.06260362 0.0138928145
0002b0 3e df d3 bd bc 63 d5 bd 90 8a a9 3d 76 61 91 3d
       -0.103453144 -0.104194134 0.08278382 0.07098667
0002c0 30 05 10 bc 58 e6 39 3d 3c d7 47 3d 2e b6 c4 bd
       -0.008790299 0.04538569 0.048789248 -0.096050605
0002d0 18 0d a9 3c 24 7b 97 3d ac b0 b6 bd e8 77 f3 bc
       0.020636126 0.07396534 -0.08920416 -0.029720262
0002e0 e0 0c c5 bc c0 93 a1 3c c2 1c e5 bd 48 a0 63 3d
       -0.02405399 0.019723773 -0.11187126 0.055572778
0002f0 00 26 50 bd 64 a8 55 3d 38 71 2a 3d 78 6d 7b 3d
       -0.05081749 0.052162543 0.04161188 0.061383694
000300 46 13 c9 3d 80 e4 4e bb 82 e7 b1 bd 80 63 06 bd
       0.09818129 -0.0031569302 -0.08686735 -0.032809734
000310 48 9a c9 bc 4c d9 81 bd a4 88 56 bd ea ae d2 3d
       -0.0246097 -0.06340274 -0.052376404 0.102872685
000320 b0 a4 73 3d 2a 38 c6 3d 68 6e 8f 3c 50 17 bb 3d
       0.05948323 0.09678681 0.0175087 0.09135306
000330 ce 4e e6 3d fc 27 7e bd 64 1a 82 3d d8 13 e6 bc
       0.112454996 -0.06204985 0.0635269 -0.028085634
000340 60 79 e4 3b cc bb a1 3d de ef a1 3d 4c 5c 4e bd
       0.006972477 0.078971475 0.07907079 -0.05038099
000350 d0 13 76 3c 60 ae 30 bd e0 61 a4 3c 10 c3 1d bc
       0.015019372 -0.043135047 0.020066202 -0.009629026
000360 80 2f 91 ba 74 7d a8 3d e4 4b f7 bd 1a cd 93 3d
       -0.0011076778 0.08227053 -0.12075022 0.072168544
000370 32 19 8b 3d 10 df 53 bd 1c 68 cb bd 68 8d b6 3d
       0.06791915 -0.0517264 -0.09931967 0.0891369
000380 c0 55 26 3c 0e 1c e1 3d be f1 f2 3d e2 fe 9e 3d
       0.01015228 0.10991679 0.11862515 0.07763459
000390 58 08 a8 3d d6 d3 d0 bd 70 c6 fc bc 48 98 1c 3d
       0.082047164 -0.101966545 -0.030856341 0.038231164
0003a0 c0 2a 4c 3d a0 81 f8 3b 80 fd 0c bd f4 b5 34 bd
       0.049845457 0.007583812 -0.034421444 -0.044118837
0003b0 dc 65 bc bd 40 5d 9d 3d 34 97 ed bd 40 45 0a 3d
       -0.09199116 0.07683802 -0.11601105 0.03375745
0003c0 20 c9 9c 3b 00 17 b3 3d 80 af 7b bc b8 9b 16 3d
       0.004784718 0.08744621 -0.015361667 0.0367696
0003d0 40 a9 8b 3d 40 3a ac bc ec fe 66 3d b2 0c e7 bd
       0.06819391 -0.02102387 0.056395456 -0.11281718
0003e0 68 a9 39 3d 08 df 39 bd 78 d6 88 3c 0e db c5 bd
       0.045327574 -0.045378715 0.01670383 -0.09660922
0003f0 f0 cb 4e 3d 96 df 82 3d 1e 19 e0 3d e0 b7 b9 3b
       0.05048746 0.06390302 0.10942291 0.0056676716

FC1.bias f4 [128]
000000 b8 f1 be 3c cc 09 72 3d fc ae 64 3d fc 06 2b 3d
       0.02330862 0.059091374 0.05583094 0.041754708
000010 1c 37 ee bd c2 33 a8 bd 72 31 8b bd f2 f2 f4 bd
       -0.11631605 -0.08212997 -0.0679654 -0.11960401
000020 40 97 8a 3d 40 96 4e bc 98 5d a7 3c bc c8 e6 bd
       0.0676713 -0.012609065 0.020430371 -0.11268756
000030 68 6c 02 3d b4 48 dc 3d 0e e7 97 3d 48 d5 d2 3d
       0.031841666 0.107560545 0.07417117 0.102945864
000040 62 c8 cb bd 94 5b 24 bd ac 64 fa 3d 18 34 d6 3d
       -0.09950329 -0.0401264 0.12226233 0.10459155
000050 d4 a4 85 bd 6c be 08 3d 80 93 02 3b c4 76 60 3d
       -0.06525579 0.033384725 0.0019924343 0.054800764
000060 4c 89 65 bd e0 74 9e bd aa 88 d7 bd 18 60 1e bd
       -0.05603914 -0.07737136 -0.105241135 -0.03866586
000070 70 1c 7e bc 5c 3c 46 bd 34 cb ff 3d c0 e3 76 3b
       -0.01550971 -0.048397407 0.1248993 0.003767237
000080 02 67 8d 3d 6a 08 c0 bd 5c e8 a1 bd 78 c0 e2 3d
       0.06904413 -0.09376605 -0.07905647 0.11071867
000090 88 57 72 bd dc 8e b4 bd d8 87 73 bd 14 e5 00 3d
       -0.059165508 -0.08816311 -0.059455723 0.031468466
0000a0 08 2d 11 bd 12 7a eb bd 2c e8 b4 bd 52 41 99 bd
       -0.035443336 -0.114978924 -0.08833346 -0.07483162
0000b0 50 4c c7 bd b8 b1 8a 3d 10 9f 1f bd 78 d4 8c 3c
       -0.09731352 0.067721784 -0.038970053 0.017191157
0000c0 60 b4 1b bc 5e fe c9 bd 98 9e 8d 3d 94 8a 33 bd
       -0.009503454 -0.0986297 0.06915015 -0.04383333
0000d0 c0 38 df bb 70 72 87 3d 00 81 ac bb 44 5f 95 3d
       -0.006812185 0.06613624 -0.0052644014 0.07293561
0000e0 32 c4 83 3d f6 e0 9b bd 84 0c ee bd 80 ef 0b bb
       0.06433906 -0.07611267 -0.11623481 -0.002135247
0000f0 a4 19 72 bd 88 88 05 3d 28 0c ed 3d 00 0c 31 bd
       -0.059106484 0.03260091 0.11574584 -0.043224335
000100 50 36 2e bc 70 09 c8 3d c0 33 67 3d da f7 a0 bd
       -0.010633066 0.09767425 0.056445837 -0.07859774
000110 0c e8 6a bd 58 8f b4 bc 26 72 ab 3d a4 38 5e bd
       -0.057350203 -0.022041008 0.083713815 -0.054253235
000120 c8 b3 e6 bc 74 b9 6e bd 18 83 b3 bc c0 66 cc bc
       -0.028161898 -0.05828233 -0.021913096 -0.024951339
000130 50 00 dd 3c ac 79 36 3d ce f7 b2 bd ea f3 d2 bd
       0.026977688 0.04454963 -0.08738671 -0.10300429
000140 90 3b be bc 10 c7 cc bc d0 03 e7 bc 3e ac ee 3d
       -0.023221761 -0.024997264 -0.02820006 0.11653946
000150 80 d6 20 3b 9e bb d4 3d 64 93 89 bd 58 c5 ba 3d
       0.0024541914 0.10387348 -0.06717566 0.091196716
000160 54 9c 78 3d 08 92 01 bd ac a3 17 3d 08 e0 24 3d
       0.06069596 -0.031633407 0.037021324 0.040252715
000170 30 47 7d 3d 38 db 0f bd 98 df 7b bd 02 31 ed 3d
       0.061835468 -0.035121173 -0.061492532 0.11581613
000180 b6 a2 d1 3d 30 4d f7 bd 3a 26 a8 bd ac 7e e4 bd
       0.10236113 -0.12075269 -0.08210416 -0.11156973
000190 10 dd b6 bc dc 99 64 3d a0 ff c6 3b 18 fa 55 3d
       -0.022322208 0.055810794 0.0060729533 0.05224046
0001a0 2a 4c c8 3d f0 a8 dc 3c c0 ca 83 3b 44 d6 6c 3d
       0.09780152 0.026936024 0.0040219724 0.057821527
0001b0 94 dd 1d 3d c4 b9 56 bd de a0 b6 3d 3c c7 d5 3d
       0.03854139 -0.052423254 0.08917402 0.104383916
0001c0 22 34 f0 3d f4 ab ba bd 80 6e b8 bb ea 43 83 bd
       0.117286935 -0.09114829 -0.005628407 -0.06409438
0001d0 60 04 c2 bb 00 7e ef 39 da 19 d5 bd c0 1c 53 3d
       -0.0059209317 0.0004567951 -0.104053214 0.05154109
0001e0 40 99 84 3b c8 a1 93 bc 18 f6 8e 3d 28 f4 ef bd
       0.004046589 -0.01802148 0.069805324 -0.11716491
0001f0 80 7a be 3a 80 38 35 3d a2 5c be 3d f8 3e 90 3c
       0.0014532357 0.044243336 0.09295012 0.01760815

FC2.weight f4 [128, 128]
000000 b8 24 23 bd fd 2c 99 bd 7b de 2b 3b 70 a4 56 bd
       -0.03982994 -0.07479284 0.0026225138 -0.052402914
000010 37 e9 82 bc f5 0c b1 3d 0a 89 2e 3d 1b 93 0a 3d
       -0.015980346 0.086450495 0.04261116 0.033831697
000020 cf 57 73 3d bb 01 53 3d 5b 32 ab bd 73 71 3d bd
       0.059409913 0.051515322 -0.08359214 -0.04625077
000030 42 7c 93 bd f7 64 89 bd 76 fe 88 bb 53 04 8c 3c
       -0.07201435 -0.06708711 -0.0041807247 0.017091906
000040 c0 df 53 3d 72 16 c7 bc e8 fc 0c 3d 8e 37 5a ba
       0.051727057 -0.024302695 0.034420878 -0.00083243183
000050 a5 af 90 bd aa fc 10 bd 64 0b 0d 3d f6 3e 73 bd
       -0.070647515 -0.03539721 0.03443469 -0.059386216
000060 c8 c6 8f 3d d4 fc 7e bc 3b ca b5 3a 97 1f 9d bb
       0.070203364 -0.015563209 0.0013869473 -0.0047950256
000070 26 44 a4 3d 7e d3 4e 3c 59 4f 68 bd 9f 19 4c bd
       0.08020811 0.012623666 -0.056716297 -0.04982912
000080 c5 95 51 bd fd 37 90 3b c4 9a 18 3d 6d ae 91 bd
       -0.051168222 0.0044012056 0.03725697 -0.07113347
000090 44 d2 3f 3c d5 19 00 3d 29 54 80 bc c0 ad 4c bd
       0.011707846 0.031274635 -0.01566513 -0.04997039
0000a0 65 d1 5a 3d f9 61 8f 3d 89 56 89 bd d8 d5 92 3d
       0.05342235 0.07001109 -0.067059584 0.07169694
0000b0 60 94 a1 3c f7 f5 82 bc db 5e 43 3c ee 2e 3a 3c
       0.019724071 -0.015986426 0.011924471 0.011363728
0000c0 14 35 8f bc 5b 75 2d 3d af 3b a0 3d 23 b1 de 3c
       -0.017481364 0.042348247 0.07823884 0.027184075
0000d0 2f d3 a3 bd 64 d2 5c bd 43 ef 21 bd e3 6b b4 bd
       -0.079992644 -0.05391158 -0.03953482 -0.0880964
0000e0 73 e5 e0 bc 99 6b 7f 3d 91 b8 96 3d 75 03 74 3d
       -0.02745316 0.062358472 0.07359422 0.05957361
0000f0 d9 f0 70 bd fb aa 1f bd 4d 81 5b bd 8b a9 54 bd
       -0.05882344 -0.03898142 -0.053590108 -0.0519195
000100 46 9a 26 bd 7a 71 89 bc db 71 8f bd 7d fe a2 bd
       -0.04067447 -0.016777743 -0.07004138 -0.07958696
000110 5d b1 02 bd 1d 9e 98 3d f1 cd 31 3d 35 4e 93 3d
       -0.031907428 0.07452033 0.04340929 0.07192651
000120 b5 cb 2e bd 9b 98 93 bb 83 10 08 3d ae 60 64 bd
       -0.04267474 -0.004504276 0.03321887 -0.055756263
000130 fd 99 e0 bc eb 21 76 bd 58 cf ac 3d ca 6f c6 3c
       -0.027417177 -0.06009094 0.08437985 0.024223227
000140 42 fa d1 bb 9a 49 ec 3c c8 e9 f9 3c 40 60 b6 3c
       -0.006408007 0.02884369 0.030506983 0.022262692
000150 ff f7 8a bd 7f 4f 74 3d 36 b6 57 bc 73 71 30 3c
       -0.06785583 0.059646126 -0.013166001 0.010769236
000160 17 bf 0a bd af 46 36 3b d3 33 aa bd cf 14 99 bc
       -0.033873644 0.0027813127 -0.08310666 -0.01868668
000170 e0 24 3e 3b 42 f7 84 3c 5a 77 4d 3d 98 c8 e8 bc
       0.0029013678 0.016231183 0.05016265 -0.028415963
000180 46 7d 60 3d b2 0d 1f bd 65 68 96 3c 0a 8b c9 3c
       0.05480697 -0.03883142 0.018360326 0.024602432
000190 42 87 50 3d 1f e7 27 3c 6e e0 a9 3d 90 c6 20 bb
       0.050910242 0.010247975 0.0829476 -0.0024532415
0001a0 c3 d8 65 bd 66 21 f2 3c d9 ae ae 3d 61 80 6f 3d
       -0.056114923 0.029556941 0.08529443 0.05847204
0001b0 ca 63 03 3d 40 eb 1f 3d 4c de 5f 3a c7 fc 7b 3c
       0.03207759 0.03904271 0.00085399 0.015380091
0001c0 8a 72 a1 bd af 0a 4c 3c 26 44 a1 3d 3b a7 59 3d
       -0.07883175 0.012453719 0.078743264 0.053138
0001d0 80 4e 94 3d c7 7d b5 3b 9d 72 ae 3d 6e 81 1a ba
       0.07241535 0.0055386755 0.085179545 -0.00058939203
0001e0 6f 02 13 bc 87 d5 ac 3b ba 7e 07 3c 33 60 4a 3d
       -0.008972748 0.005274478 0.00826996 0.04940815
0001f0 d1 0d 62 bd d6 8d a5 bc 42 ae 11 3d 04 52 fa 3c
       -0.055188958 -0.020209234 0.035566576 0.030556686
000200 fe 5f 93 bd 3e 56 18 3d ce ab 5d 3d 92 2c 35 bd
       -0.071960434 0.037191622 0.054118924 -0.04423196
000210 bc 71 4e bd cf 60 17 bd 9b d3 9c 3d fa 6c b2 3d
       -0.050401434 -0.03695756 0.07657548 0.08712192
000220 ae 9f 8a 3c fc 0e 11 bd d2 79 86 bd 68 a4 82 bc
       0.016921844 -0.03541468 -0.06566204 -0.015947536
000230 2f 5f 8f 3d 54 2d 6c 3d dd e5 70 bd 4c 60 18 3d
       0.07000577 0.057660416 -0.058812965 0.03720121
000240 1b 84 89 3b df 6d c5 3c 41 5d 1b 3d de 34 5b 3d
       0.0041966564 0.024100242 0.03793073 0.053517215
000250 dc 32 9d 38 7f d2 b1 3d 9b 63 52 3d 55 ed 89 3d
       7.495817e-05 0.08682727 0.051364522 0.067347206
000260 d1 e8 7c 3b 70 ce b8 3c 17 88 a1 bc 60 25 81 bd
       0.0038590918 0.022559375 -0.019718213 -0.06305957
000270 61 d8 38 3c 6c 1d 57 bd e7 95 49 bd a1 3e e6 3c
       0.0112820575 -0.052518293 -0.049215224 0.028106036
000280 50 cb ae 3d 34 5b af 3c a7 94 8e 3c f5 0c 53 3d
       0.085348725 0.021405794 0.017404867 0.05152603
000290 20 00 b3 3d 6b 50 80 3d 21 99 7f 3d 75 1a fb bb
       0.08740258 0.062653385 0.062401894 -0.007663066
0002a0 58 5b f1 3a c4 97 b3 3d 85 62 33 3c 65 86 35 3d
       0.0018414063 0.08769181 0.010948782 0.04431762
0002b0 72 2b 69 3d 76 d9 02 bd b1 cb ca bc 85 b4 7d bd
       0.0569262 -0.03194567 -0.02475533 -0.061939735
0002c0 ff 15 a0 3d 43 bb dd 3b ef 93 23 bd 10 3b 51 bd
       0.078166954 0.006766708 -0.039936002 -0.051081717
0002d0 76 50 75 3d 18 4e 0a 3d b3 51 e2 bc d8 5d 53 bd
       0.059891187 0.033765882 -0.027626848 -0.05160317
0002e0 9e 8f 85 bd 5b 24 4d 3d ca b3 8e bb ce 66 96 3c
       -0.065215334 0.0500835 -0.0043549286 0.018359568
0002f0 cf 08 96 3d e3 28 85 bd 59 64 43 bd f4 ab 85 3d
       0.07325899 -0.06501939 -0.04770312 0.06526938
000300 dd aa 82 3d 47 ea b0 3d 9e 2e 2a 3b 95 3d 1c bd
       0.06380246 0.08638435 0.0025967727 -0.038144667
000310 cc ad b0 3c c9 14 99 3c 01 73 c8 3b 09 ee 89 bd
       0.021567248 0.018686669 0.006117225 -0.06734855
000320 fd 2d 34 3d 44 14 a8 3d a9 89 96 3d e2 d2 05 3c
       0.04398917 0.0820699 0.07350475 0.008167954
000330 bd fa 17 bd a6 24 f2 bc ee b8 63 bd 45 a0 b3 3d
       -0.037104357 -0.029558491 -0.055596285 0.08770803
000340 cc 3f da 3c 4f 81 98 bd 96 37 17 bd ec 03 b1 bd
       0.026641749 -0.07446539 -0.036918245 -0.08643326
000350 42 d3 c8 ba 07 17 50 3d 02 68 51 3d 6f 12 4d ba
       -0.0015321749 0.05080321 0.05112458 -0.0007822876
000360 35 01 b3 bd b0 d9 2f bd 96 eb 46 bd 5b 33 9b 3c
       -0.087404646 -0.042932212 -0.048564516 0.018945387
000370 f7 8f a4 3d 5d 69 4d 3d 76 1e 61 bd 0a cc 88 3d
       0.080352716 0.05014931 -0.05496069 0.06679542
000380 0e be 99 3d b8 74 67 bb 5d 63 04 bd de b4 00 bd
       0.07506953 -0.0035317373 -0.032321323 -0.03142249
000390 b0 d7 b1 3b db 99 b1 3d b1 87 41 bd ed df f1 3c
       0.0054273233 0.08671924 -0.047248546 0.029525721
0003a0 99 d9 9a bc 87 62 12 bd 7a ba e3 3c de 9b 47 bc
       -0.018902587 -0.035738494 0.02779888 -0.012183158
0003b0 c1 e5 11 bd 6d 61 31 bc e2 5d fe 3c f5 37 4d 3d
       -0.0356195 -0.010826451 0.031050626 0.050102193
0003c0 34 44 9f bd db 26 59 bd 49 95 93 bd ae 3c bd bb
       -0.077766806 -0.05301557 -0.07206208 -0.005775056
0003d0 17 9e a3 bd 51 67 54 3c f4 9c 83 3d 3b 28 1d bd
       -0.079891376 0.012964086 0.06426421 -0.038368445
0003e0 9d 09 d6 bc 44 7a eb bc f8 69 54 3c 23 9a 8f bd
       -0.02612763 -0.028744824 0.012964718 -0.07011821
0003f0 e4 97 0c 3d b7 e7 a7 3d d8 ae d0 bc 38 e7 32 bc
       0.03432454 0.08198493 -0.025473997 -0.010919385

FC2.bias f4 [128]
000000 c7 6d b4 bd e4 ad 9b 3d 94 a3 60 3c 51 cf ce 3c
       -0.08810001 0.076015264 0.013710875 0.02524534
000010 a0 84 9a 3d 67 2c 37 3c b9 79 2c bd 2c 3d a2 3d
       0.075448275 0.01118002 -0.04210827 0.07921824
000020 f1 21 a7 bd 16 2c 84 bd 79 d4 44 3c 48 dd 7c bc
       -0.08160771 -0.06453721 0.012013548 -0.015433617
000030 f2 4d 80 bd 1d a1 9b bc 5e 7c ef 3b 46 7e b3 bd
       -0.06264867 -0.018997723 0.007308527 -0.08764319
000040 84 61 24 3b 43 6b 96 bd e5 37 09 bd 8a ce 14 3c
       0.0025082538 -0.07344677 -0.03350057 0.009082446
000050 7f f0 67 bd 50 b7 cf 3b 70 fb 81 bd d4 4e 92 3c
       -0.05662584 0.006338991 -0.06346786 0.017859854
000060 dd 35 95 bd 94 58 a3 3d 33 9e ac bd 9b 14 c4 3c
       -0.07285664 0.07975879 -0.084286116 0.023935607
000070 fc 9f 28 3b 7b 31 8e bc 12 8a d5 3c 62 31 97 3d
       0.0025730124 -0.017357579 0.026066814 0.07382466
000080 65 3e 58 bd 1e 92 c8 bc 47 37 37 bd 7e 9f 0e 3d
       -0.05279388 -0.024483737 -0.04473045 0.034820072
000090 81 f6 b3 bc 82 b6 09 3d ce cd 80 3d 5b 54 59 bd
       -0.021968128 0.03362132 0.06289254 -0.053058963
0000a0 6b a6 90 3d 0b f2 69 bd a0 39 a9 bd 59 ff a5 bc
       0.07062992 -0.057115596 -0.08262944 -0.02026336
0000b0 3e 3a 9b 3d c5 6b ad 3d 67 ec 9a 3d 56 fd 4b 3d
       0.07579468 0.08467821 0.075646214 0.049802147
0000c0 fd fa ee bc a3 57 a0 3d 7b bf 9e 3c 05 5c 96 3d
       -0.029172415 0.078292154 0.019378414 0.0734177
0000d0 26 fb 99 3d 6e ce 83 bc a0 c3 93 3d a9 58 a9 3d
       0.07518606 -0.016089644 0.07215047 0.08268864
0000e0 f6 0f 03 3d cc a0 75 3d 15 7c bc 3c aa 28 0a 3d
       0.031997643 0.0599678 0.023008386 0.033730187
0000f0 7e 1e a3 bd 4f ef 27 3d 5a 00 d7 3c d2 96 d5 3c
       -0.079648 0.040999707 0.026245285 0.026072893
000100 6e e6 3f 3d 84 5a a9 bd 77 2c 73 bd 2d ed 18 3d
       0.046850614 -0.082692176 -0.059368577 0.037335563
000110 80 57 4b 3d b9 6e 8c 3c 7c 7a 5b bd e1 44 4e 3d
       0.049643993 0.01714264 -0.053583607 0.050358657
000120 35 2b 23 bd db b3 10 3d 8d 8a 3d bb 1e 3e b0 bd
       -0.039836127 0.035327774 -0.0028921694 -0.08605598
000130 f1 67 92 bd a0 17 ae bd bb c7 a9 ba 5e 66 2e bd
       -0.071487315 -0.085006 -0.0012953201 -0.042578094
000140 95 0e df 3c de e6 2d 3d c8 2d 53 bd 5f 71 99 bd
       0.027228633 0.0424565 -0.051557332 -0.07492327
000150 48 5d ee bc 4d 63 af bd 98 78 6e bc b6 36 ae 3d
       -0.029097214 -0.08563862 -0.014555119 0.08506529
000160 05 e5 8b bd 42 1f 52 3d b2 c5 9a 3d 48 06 da bc
       -0.068307914 0.05129934 0.07557239 -0.026614323
000170 08 e7 40 bd f8 1a 86 bd 11 57 56 bd 45 5f d9 bb
       -0.04709533 -0.06548113 -0.052329127 -0.0066336715
000180 a5 5f 9f 3d 35 61 ac 3d c8 b4 79 bd ab 8b a1 3c
       0.077819146 0.08416978 -0.060963422 0.01971992
000190 4a 6c 50 3c d0 ee 33 3d c4 db ff bc 4f 9f 0d bc
       0.012721131 0.04392892 -0.031232722 -0.008643939
0001a0 78 c4 84 bd ea a5 37 bd 8c 59 61 3d 76 60 d5 3c
       -0.06482786 -0.044835962 0.05501704 0.026046973
0001b0 70 05 3d ba 91 3d da bc 58 f4 c7 bb 81 51 33 bc
       -0.0007210588 -0.026640685 -0.006102126 -0.010944725
0001c0 cb 40 0a bd 53 c8 9b 3d 5e c7 cd 3c f9 a8 1a bd
       -0.033753198 0.07606568 0.02511948 -0.0377588
0001d0 60 2c 4d bd f5 7c ae 3d d6 f5 a4 bd 49 1f 83 bd
       -0.050091147 0.085199274 -0.08054702 -0.064024515
0001e0 85 32 a6 bd c4 f8 3e 3d 92 a9 2b 3d db bc 65 3c
       -0.081151046 0.04662396 0.04190976 0.014022077
0001f0 e3 3e 99 bd ba 03 41 bd ad 6d 91 bd f6 b7 1f 3c
       -0.07482698 -0.047122695 -0.07100997 0.00974845

FC3.weight f4 [128, 256]
000000 a4 e7 df bc 46 f4 46 bd 36 6d 4d bd a4 f2 8a 3c
       -0.027332135 -0.0485728 -0.05015298 0.016961403
000010 fc 5b 2b bd 26 3e 0b bd 98 a5 a8 3c 64 b1 cb bc
       -0.04183577 -0.033994816 0.020586774 -0.02486486
000020 92 a2 12 3d 24 af 7f bd 1c 24 38 3d 04 72 23 bd
       0.03579957 -0.062422886 0.04495631 -0.039903656
000030 d8 0b fe bc 70 eb 3e bd 6c 26 e2 bc 80 fc 3c bc
       -0.031011507 -0.04661125 -0.027606212 -0.01153481
000040 a8 df 07 3c 34 fa 02 bd 60 b1 06 3c 48 eb 57 bd
       0.00829307 -0.031976894 0.008221 -0.052714616
000050 04 ea 8d 3c 08 93 8b 3c 14 e9 79 3d 08 e9 7b bd
       0.017323501 0.017037883 0.061013296 -0.061501533
000060 b4 23 15 bd 8a 4b 17 bd 0a e7 74 3d 2e 79 77 3d
       -0.036411002 -0.036937274 0.05979065 0.0604183
000070 5c f0 4b 3d 78 6d 2c 3c 58 f8 00 3d d0 a4 73 3d
       0.04978977 0.010524146 0.03148684 0.05948335
000080 8a 8b 2e bd a8 7d 2e bd 78 f5 ab 3c b8 09 a6 bc
       -0.042613544 -0.042600304 0.020991072 -0.020268306
000090 40 db 86 bb 30 75 87 3c 6e 88 56 bd 2c a8 8d 3c
       -0.004115492 0.016535372 -0.052376203 0.017292105
0000a0 44 6e fc 3c a0 8f 4f 3b 70 e7 83 3c d0 2c 1e 3d
       0.030814297 0.00316713 0.016101569 0.038616955
0000b0 d8 75 64 bc c8 59 10 bc 80 d3 48 ba 2c b6 3f 3d
       -0.013944112 -0.008810468 -0.00076609105 0.046804592
0000c0 50 b6 4f 3c 5c 09 14 3d 28 d4 0b 3d 14 0e 62 bd
       0.012677744 0.03614174 0.034137875 -0.055189207
0000d0 2e 85 05 bd 92 50 0c bd 70 3a 20 3c 88 3c 37 bc
       -0.032597713 -0.034256525 0.009779558 -0.011183865
0000e0 8c 23 99 bc 0c 70 5d bd 80 bc ad ba d0 28 7d bd
       -0.018693708 -0.054061934 -0.001325503 -0.0618065
0000f0 46 e4 02 3d 2a 5a 26 3d cc f3 10 3d 54 27 9e 3c
       0.03195598 0.04061333 0.035388753 0.019305862
000100 84 48 53 bd 3c fe 89 3c 3c b1 2b 3d 40 62 4c bc
       -0.05158283 0.016844861 0.04191707 -0.0124745965
000110 70 47 1a bc 8a d8 3b bd 00 15 e4 bc 58 41 3e bd
       -0.009416446 -0.045860805 -0.027842045 -0.046449035
000120 42 3c 5d bd 72 07 5a bd 3e 52 22 3d 28 bc 03 3c
       -0.054012544 -0.053229757 0.039629214 0.008040465
000130 d4 17 00 bd b8 12 12 3c 2e fa 29 3d 58 19 9d bc
       -0.031272724 0.008915596 0.041498356 -0.019177124
000140 2a 37 0e 3d 86 65 4c bd 60 75 46 bb 74 f4 09 bd
       0.034720577 -0.049901508 -0.0030282363 -0.033680394
000150 4e a3 25 bd fe 87 5e bd d2 83 52 bd d0 ce 2e bd
       -0.040438943 -0.05432891 -0.051395245 -0.0426777
000160 fe b4 7d bd 24 e1 f6 3c 70 ab 30 bd 64 b5 93 bc
       -0.061940186 0.030136652 -0.043132246 -0.01803083
000170 84 86 77 bd 2e 35 47 bd ac 7c c5 3c a0 55 12 bc
       -0.06043102 -0.0486347 0.0241073 -0.008931547
000180 da f7 7d bd 70 e5 fa bc 6a 0b 79 3d 7c 2a 7e bd
       -0.062003948 -0.030626982 0.0608019 -0.062052235
000190 7e 48 34 3d c0 97 ed bc 90 24 e0 bb ac e1 dc 3c
       0.044014446 -0.029003024 -0.006840296 0.026963077
0001a0 e8 85 79 bc ac 98 06 bd f6 b8 57 3d 90 93 a5 bc
       -0.01522968 -0.032860443 0.052666627 -0.020211965
0001b0 9a de 73 3d 2c 9f 06 bd 28 e2 3f bd 70 bb c5 bb
       0.05953846 -0.032866642 -0.04684654 -0.006034307
0001c0 4c f4 c2 3c 28 44 33 bc 00 d0 fc bc 40 d1 f5 bb
       0.02379813 -0.010941543 -0.0308609 -0.007501751
0001d0 56 9c 15 3d 24 9f ce 3c be c1 4b 3d 70 73 44 bc
       0.036526047 0.025222369 0.049745314 -0.011990413
0001e0 c4 f9 b1 3c f0 f5 55 bc 34 b7 83 bc 40 df 12 3c
       0.021725543 -0.013059124 -0.016078569 0.00896436
0001f0 0c 45 21 bd 80 fa b2 3c 56 ac 6b 3d b8 34 5c 3d
       -0.03937249 0.021847963 0.0575374 0.053761214
000200 a2 df 18 3d 84 1e 79 bd 1e 5d 08 3d 20 ad 11 bd
       0.037322648 -0.060820118 0.03329193 -0.035565495
000210 38 2c 75 3c 7c df 65 3d 34 9b 94 bc b8 3b 37 3c
       0.014964156 0.056121334 -0.018140413 0.011183672
000220 36 46 5a bd e0 62 4e 3b 10 98 49 bc 3c 73 3d bd
       -0.053289615 0.003149204 -0.012304321 -0.046252474
000230 08 ed 93 bc ba 18 60 bd 20 29 75 3c cc 8c 79 3d
       -0.018057361 -0.05471108 0.014963418 0.06092529
000240 d4 72 2d bd d0 dc 2f 3c 78 f7 b5 3c 98 db 53 bd
       -0.042345837 0.010733798 0.022212729 -0.051723093
000250 74 9c 2a 3d c0 8c 49 3d d6 4b 71 3d 6a c2 78 bd
       0.04165311 0.049206495 0.058910213 -0.060732283
000260 12 b3 08 3d 60 b5 b8 bc 1e 6c 4c 3d 72 8d 05 3d
       0.0333739 -0.022547424 0.049907796 0.032605596
000270 90 ad c4 bb 14 d0 39 bd a0 5a d1 3c ec e1 04 3d
       -0.0060021356 -0.045364454 0.025555909 0.03244202
000280 f4 f2 df 3c 18 a4 85 3c 20 2d 2f 3b c8 a8 7b 3d
       0.027337529 0.016313598 0.0026729777 0.06144026
000290 8a e6 5e 3d c2 37 01 3d 98 58 93 3c 84 00 b9 3c
       0.054419078 0.031547315 0.01798658 0.022583254
0002a0 30 a9 79 3d 08 7a 4a 3c 88 7f 6d bc 18 fb 79 bc
       0.060952365 0.012358196 -0.014495738 -0.015257619
0002b0 1a 42 31 bd 2c 8b b9 3c 34 87 b7 3c 28 3c 72 3c
       -0.04327593 0.02264937 0.022403337 0.01478485
0002c0 98 44 c5 3c 48 04 2d bd 78 32 09 3c 3c f2 aa 3c
       0.02408056 -0.04224041 0.008373849 0.02086746
0002d0 50 99 00 bd 4a 5d 02 bd 08 4b 88 3c 90 39 45 3d
       -0.03139621 -0.03182725 0.01663734 0.0481506
0002e0 90 96 d7 bc 48 45 02 bd 8c 61 b1 3c d4 1a 19 3d
       -0.026316911 -0.031804353 0.02165296 0.0373791
0002f0 e8 24 82 3c 84 33 7d bd f6 b6 67 bd a8 4a cd 3c
       0.015886739 -0.061816707 -0.05657097 0.025060013
000300 1c e7 17 3d f0 56 ef 3c c4 90 5d 3d c8 fe 08 bd
       0.037085637 0.02921626 0.054093137 -0.033446103
000310 88 02 c9 bc b2 b2 61 3d 70 f1 ba 3b bc 6a 95 3c
       -0.02453734 0.055102058 0.005705051 0.018239371
000320 b8 8e e0 3c 5e 81 4b bd 76 29 13 bd e0 8e a4 3b
       0.027411804 -0.04968392 -0.035928212 0.005021915
000330 d4 b3 a6 3c 80 98 bf bc 60 08 ae 3c c6 f2 5e 3d
       0.02034942 -0.023388147 0.021244228 0.054430746
000340 00 f5 92 ba a4 bd 11 bd 70 ea 23 bc 2a 39 20 bd
       -0.0011211932 -0.035581246 -0.010004625 -0.039117016
000350 c4 da 7e 3d 90 94 e8 bc 5a cc 6c 3d 38 f9 e7 3c
       0.06222035 -0.028391153 0.057812072 0.028317079
000360 c4 70 20 bd 38 1e 23 3c 60 63 22 bd 58 a1 12 bc
       -0.03917004 0.009955935 -0.039645553 -0.0089496
000370 94 20 3e 3d 18 49 52 3d f8 f0 9b bc 08 f3 26 3c
       0.046417788 0.05133924 -0.019035801 0.010189779
000380 b4 f7 9e 3c 4e 4c 62 bd 80 f2 c6 3a 24 37 a1 3c
       0.019405223 -0.05524855 0.0015178472 0.019679613
000390 3e 4f 5d bd 4c f6 ca 3c 12 ad 4d bd 78 3c be bc
       -0.05403065 0.024775647 -0.05021388 -0.023222193
0003a0 fe 65 11 bd 46 7d 6d 3d 84 aa 53 bd b8 48 02 3d
       -0.035497658 0.0579808 -0.05167629 0.03180763
0003b0 60 fa db 3b 00 c6 eb 3a 26 a4 45 3d 0a 3a 0b 3d
       0.0067131966 0.0017988086 0.048252247 0.033990897
0003c0 64 aa d3 3c f4 0b fb 3c 58 49 70 3d a2 e7 2d 3d
       0.025838085 0.030645348 0.058663696 0.04245723
0003d0 b6 17 03 3d 30 57 88 bb f8 17 10 bd 84 8f ce bc
       0.032005034 -0.004160784 -0.03517911 -0.025214918
0003e0 5e e8 45 3d ae 93 60 bd c0 f5 60 3c 54 ed eb bc
       0.048317306 -0.05482834 0.013730466 -0.02879969
0003f0 68 09 91 bc 76 77 7c bd 40 bd 0e bb f2 48 16 bd
       -0.01770468 -0.061637364 -0.0021780282 -0.03669066

FC3.bias f4 [128]
000000 4c 8b 94 bc f6 bd 38 bd a2 de 6e bd 64 96 e5 3c
       -0.018132828 -0.045103036 -0.058317788 0.028025813
000010 18 9b 18 3c 38 02 b0 bc 50 46 32 bc 56 37 2b 3d
       0.009314321 -0.021485433 -0.010881022 0.04180082
000020 ac 9c 5c bd e2 51 0e 3d e8 b3 07 bd f2 26 63 3d
       -0.05386035 0.03474606 -0.033130556 0.055457063
000030 82 66 41 bd 40 d9 3b bc 9a 6b 17 3d 78 5a 13 bc
       -0.0472169 -0.011465371 0.03696785 -0.008993737
000040 20 46 43 3d 24 a5 3a 3d 78 ad 52 bd a0 f8 cd 3c
       0.0476743 0.045567647 -0.051434964 0.025142968
000050 5c dc 69 bd 08 5a d3 3c 24 2e e2 3c 30 d7 f2 3b
       -0.057094917 0.025799766 0.027609892 0.0074109063
000060 a2 53 1e bd e4 44 96 bc 90 ac e5 bb b8 41 29 bd
       -0.038653977 -0.018343396 -0.0070090964 -0.04132244
000070 30 b2 49 3c 32 fe 1e 3d f8 2e 7b 3c 54 a1 35 3d
       0.01231055 0.03881664 0.015331022 0.044343308
000080 00 cb 0d 3d a6 4e 01 bd e8 86 5e bc b0 fa d6 bc
       0.034617424 -0.031569146 -0.013581969 -0.026242584
000090 30 31 df 3c de df 1e 3d e0 36 2b bd 28 5e 7d 3c
       0.027245134 0.038787715 -0.04180038 0.015464343
0000a0 0e b3 0f 3d cc 78 ae bc 00 2a 90 39 f8 7b 3e bd
       0.03508287 -0.021297835 0.00027497113 -0.046504945
0000b0 d8 be ab bc 5c c7 07 bd a2 ed 1b bd 82 6a 22 3d
       -0.020965025 -0.03314911 -0.03806842 0.039652355
0000c0 b8 5e d3 bc 3a eb 26 3d 80 02 ed 3b 3c e2 5e bd
       -0.025802001 0.040751673 0.007232964 -0.054414973
0000d0 a4 80 70 bd 62 39 72 bd 4e b5 6e bd f0 9d b7 bc
       -0.05871643 -0.059136756 -0.058278374 -0.022414178
0000e0 40 c3 de 3c 98 af 23 3d 38 31 5b bc ec df 71 3d
       0.027192712 0.03996238 -0.013378434 0.05905144
0000f0 a6 31 24 bd 74 77 69 3d 3c c7 8c 3c 00 61 06 3c
       -0.04008641 0.056998685 0.017184846 0.008201838
000100 0c e6 d8 3c 40 1d dd ba d0 66 bd 3c 8c 19 d6 3c
       0.026476882 -0.0016869679 0.023120314 0.026135229
000110 b8 6a 70 3d 6c 15 3e bd 64 95 6e 3d 60 06 84 bc
       0.058695525 -0.04640715 0.05824794 -0.016116321
000120 d6 d2 00 3d 58 17 31 3c b4 0b e6 3c f4 8a 46 bd
       0.03145107 0.010808788 0.028081752 -0.04847236
000130 00 70 a8 b7 24 a0 e4 bc a0 42 e5 bc 80 a7 4f 3b
       -2.0079315e-05 -0.027908392 -0.02798587 0.003168553
000140 38 0a ce 3c b8 80 40 bd f8 0f af 3c cc b8 6a bd
       0.025151357 -0.046997756 0.02136992 -0.057305142
000150 1a ff 42 bd 0e 5b 13 bd e0 d6 73 bd a4 33 ab 3c
       -0.047606565 -0.03597551 -0.059531093 0.020898648
000160 d0 1f 1c 3d 30 06 62 3c 0c 09 77 3d 4c 68 68 bd
       0.038116276 0.0137954205 0.060311362 -0.05674009
000170 8c 4c d9 3c 7c 19 3f 3d 28 3f 2e 3c 84 2a 87 bc
       0.026525758 0.046655163 0.010635175 -0.016499765
000180 78 79 80 3c 84 08 3b 3d 68 7e 17 3c 06 05 68 3d
       0.01568292 0.045662418 0.009246446 0.056645416
000190 76 8c 03 bd 00 85 21 3a 18 5c ad bc cc 4b 0a bd
       -0.032116376 0.0006161481 -0.021162078 -0.03376369
0001a0 08 13 89 bc f0 12 49 3c 18 84 0b 3d 48 2f 60 bc
       -0.016732708 0.012272581 0.03406152 -0.013683148
0001b0 e0 0d 97 bb d8 5d 4a bc 00 45 77 bb bc 2c b2 3c
       -0.0046098083 -0.012351476 -0.0037730336 0.021749847
0001c0 00 63 d2 b9 38 55 29 bc 70 1c 30 3d b2 b1 6f bd
       -0.00040128082 -0.010335259 0.04299587 -0.058519073
0001d0 be 53 11 3d 1a 0d 1a 3d d8 b9 9f 3c 76 f7 09 bd
       0.035480253 0.03761015 0.019497797 -0.033683263
0001e0 10 0a 58 3c f0 ef 05 bc 88 1b f8 3c 72 63 5e bd
       0.013185993 -0.008174881 0.030286565 -0.054294057
0001f0 5c 04 1f 3d f8 48 f4 bc e2 e1 40 3d fc 92 2d bd
       0.038822517 -0.02981995 0.04709042 -0.042376503

FC4.weight f4 [128, 512]
000000 eb 67 e0 3b 5b 67 51 bc ec c3 02 bd 83 18 de bb
       0.0068483255 -0.0127809895 -0.031925127 -0.0067778244
000010 73 26 ee 3c ba 29 cd 3b 7c 10 9c bc 6f 6f 07 bd
       0.029071068 0.0062610777 -0.01905083 -0.033065256
000020 d7 3c ad 3c 69 f0 dc ba 7d 96 cb bc 7b 4e 2b bd
       0.021147175 -0.0016856316 -0.024852032 -0.04182289
000030 bd d6 46 bc 09 81 ee bc 19 e4 a8 bc 61 83 a0 3c
       -0.0121361585 -0.029114263 -0.020616578 0.019593896
000040 fe 73 1b 3d c1 1f 02 bc ec d4 f9 bc 4b 64 0c bb
       0.037952416 -0.007942141 -0.030497037 -0.0021422084
000050 ac c8 05 3c f8 7c 9a 3b d9 c0 cb bc a3 23 3a 3c
       0.00816552 0.0047146045 -0.02487223 0.0113610355
000060 f0 76 37 3c a2 e4 29 bd ec e6 77 bb b0 58 2a 39
       0.0111977905 -0.041477807 -0.003782685 0.00016245502
000070 df d5 1b bd d2 4d 9f 3c 16 e9 0d 3d 50 3a 07 3c
       -0.03804576 0.019446287 0.034646116 0.008253649
000080 8e 71 1f 3d cf 4b 25 3d 8a a4 a1 3c 10 fb 03 bd
       0.038926654 0.0403555 0.019731779 -0.032221854
000090 11 00 10 3d d4 2c 0e 3d 8f dc 81 bc 65 39 05 bc
       0.035156313 0.03471072 -0.01585224 -0.00813136
0000a0 f0 88 ce 3b 05 b5 28 bb 9e b9 25 bd 17 c5 de bb
       0.0063029453 -0.0025742662 -0.04046022 -0.0067983973
0000b0 29 79 a6 bc c8 68 08 3d ba 28 0f bc 50 0f 2e bd
       -0.020321446 0.033303052 -0.008737737 -0.042495072
0000c0 ee 7a 67 3c 61 21 54 3c 06 08 9d bc 1b ca cb 3c
       0.01412843 0.012947411 -0.019168865 0.024876645
0000d0 01 4d 10 3d 73 a0 82 3b 58 71 27 bb 04 1b fe bc
       0.035229687 0.003986412 -0.0025549736 -0.031018741
0000e0 e8 63 e6 bc c9 ee f5 3c 4b 22 04 bd 71 d0 34 3d
       -0.02812381 0.030021088 -0.032259267 0.044144098
0000f0 9c e7 1f bd 6c 25 27 bd 8d 3c e2 3b c6 f1 09 bd
       -0.03903924 -0.040807173 0.006904191 -0.03367784
000100 19 19 d3 bc 15 ca 73 bc fe 76 f2 bc d3 90 0d 3d
       -0.025768803 -0.014879723 -0.029597756 0.034561943
000110 67 d7 5b 3c 8c 74 d1 bc 73 b9 26 bc fd 38 a8 bc
       0.013418055 -0.02556827 -0.0101760505 -0.020534987
000120 a9 1d 20 3d d1 31 cc bc 6e 94 bd bc 14 35 26 bd
       0.039090786 -0.024926098 -0.023142066 -0.040577963
000130 f4 e4 13 bd 00 61 a7 bc 0f 81 0f 3d 32 e5 e2 3c
       -0.03610702 -0.020431995 0.03503519 0.02769718
000140 0a e5 f8 3c 95 47 07 3d 38 70 dd bb f3 68 c4 b9
       0.030382652 0.03302725 -0.0067577623 -0.00037462226
000150 1d 6d 31 bd ae 20 07 bd 51 ec f2 3b 17 3b 07 3d
       -0.04331695 -0.03299015 0.007413425 0.033015337
000160 93 98 b6 3b 84 82 7f 3c b9 0e de 3c b0 81 a4 bb
       0.0055723875 0.015595082 0.02710663 -0.005020343
000170 9c 32 cb bc 38 0a 2f bc 32 85 f1 3b 28 ca 26 3c
       -0.024804406 -0.010683589 0.0073706144 0.010180034
000180 a9 13 0d 3d 84 b0 38 bb 0c f6 29 bd 20 6a 15 3c
       0.034442578 -0.0028181383 -0.041494414 0.00911954
000190 6f 03 33 bc b3 96 bc bc 40 ba cb bc 25 b3 6b bc
       -0.010926112 -0.023021078 -0.024869084 -0.014385973
0001a0 1c 04 24 3d 2b dd dd bc b4 c8 96 3c 30 e4 0f 3d
       0.04004298 -0.027083 0.01840625 0.035129726
0001b0 f1 4d 33 3d 5c 6a c7 bc b0 f0 66 3c 48 4b a9 bb
       0.043775503 -0.024342708 0.01409547 -0.005166445
0001c0 a9 ac 34 bd 80 ee a9 3c 84 0c 96 bb c5 87 6b 3c
       -0.044109974 0.020743608 -0.0045791287 0.014375632
0001d0 db 60 06 3d ba 2d 19 bd 0f 9f e7 3c ec 5b 5b bc
       0.032807212 -0.037397124 0.028274087 -0.013388615
0001e0 70 15 3d 3b 4e b8 31 3d 07 87 0c bb 61 a6 e1 ba
       0.002885189 0.043388657 -0.0021442787 -0.0017215722
0001f0 95 3a 9f ba 33 a4 b6 bc 8f 61 b1 bc b6 87 fa bc
       -0.0012148196 -0.022295093 -0.021652965 -0.03058229
000200 02 c3 2d 3d fa 90 d3 bc 95 67 fe 3c f9 bc 21 bd
       0.042422302 -0.025825966 0.031055251 -0.03948686
000210 33 9f 0e 3d 5a 69 04 bc 6a 48 6b ba 91 27 c1 bc
       0.034819793 -0.008081758 -0.0008975329 -0.023578437
000220 ce e3 a7 bc 15 a6 bb 3c a1 44 a9 bc 3b 22 a4 3b
       -0.020494368 0.022906343 -0.020662608 0.0050089634
000230 c4 b0 95 ba bb b0 81 bc 32 cf d6 3c 14 46 2b bd
       -0.0011420478 -0.015831342 0.026221845 -0.04181488
000240 ac 04 33 3d e5 9d 09 bc 8f 18 1d 3d 00 2a 2e bd
       0.043705627 -0.008399461 0.0383535 -0.042520523
000250 67 9d a7 3b b0 cb a7 3c 27 07 3f ba b6 7f b7 3b
       0.0051151994 0.020482868 -0.00072871376 0.005599941
000260 8c f2 ec bc 02 1a 1c 3c b4 92 28 bc 1c d9 e6 3c
       -0.02892425 0.009527685 -0.010288883 0.028179698
000270 9d 83 2c 3d 0f 92 2d 3d 76 5d 54 bc 63 84 0a bc
       0.042117704 0.04237562 -0.012961736 -0.008454415
000280 76 04 03 bd fd e4 29 3d 88 63 16 3c 1f 77 2d bc
       -0.031986676 0.041478146 0.009179004 -0.010587483
000290 cf d6 05 bd e9 d6 75 bc 4c 96 1d bd 9f 09 01 3c
       -0.03267556 -0.015004852 -0.038473412 0.007875829
0002a0 27 84 95 bc 99 05 1a bb cc 79 ca bb e3 39 b0 3c
       -0.018251492 -0.0023501872 -0.00617907 0.021511978
0002b0 75 9b ae 3c 14 dc 2e 3d 47 4b 1b bd 03 41 e3 3c
       0.021314362 0.04269035 -0.037913587 0.027740961
0002c0 b8 31 fa 3c df 1b 0f 3d 6a 94 8d 3c 45 29 b0 bc
       0.030541286 0.03493869 0.017282683 -0.021504054
0002d0 aa 8f 21 bd 77 a6 27 bc 42 21 ce bb d2 f6 cf bc
       -0.03944365 -0.010232559 -0.0062905857 -0.025386248
0002e0 80 af ae bc 05 66 08 3d 84 62 0f bd a8 c8 95 3c
       -0.02132392 0.03330042 -0.03500606 0.018284157
0002f0 eb 7d f2 3b 57 21 16 3d 3b 60 a9 bb 7c 02 c8 3c
       0.0074002645 0.03665289 -0.0051689423 0.024415247
000300 fe 90 95 bb 80 ff eb bc 5b 0d ee 3c 11 5c 09 bc
       -0.0045644036 -0.028808355 0.029059103 -0.008383767
000310 9d 58 06 bd a0 d0 a7 3b 83 4d 25 3c 87 6d 31 bd
       -0.032799352 0.0051213056 0.010089281 -0.043317344
000320 70 ce 96 ba 7c 22 15 3c 08 b5 84 3b e7 55 11 3d
       -0.0011505615 0.00910246 0.004049901 0.035482313
000330 11 3a de 3c 79 0a 34 bd a8 e2 51 bc 50 8b 00 bd
       0.027127298 -0.0439553 -0.012810387 -0.03138286
000340 0c f6 42 3c 06 a6 31 bd 37 d2 32 3d 76 64 ab bb
       0.011899482 -0.043371223 0.043657508 -0.0052304817
000350 92 0d 1b bc a4 81 d3 3c bd 58 9a bc e7 f1 f5 3c
       -0.009463685 0.025818653 -0.018841142 0.030022575
000360 3e c7 97 bc 43 68 f7 3c f0 a1 59 bc c2 e1 ed bc
       -0.018527623 0.030201083 -0.013283238 -0.029038314
000370 fd e0 b8 3c 7d 06 95 bc dd 34 cd bb 3e cc ff bc
       0.02256822 -0.01819157 -0.0062624053 -0.03122532
000380 72 ef 28 3b fb 68 d3 3c 11 77 96 3b f9 84 34 bd
       0.0025777486 0.025806895 0.0045918305 -0.044072125
000390 29 4f d7 3c 35 c0 b8 3c 9c 54 ce 3c ac 8e cc 3c
       0.026282864 0.022552589 0.02518683 0.024970375
0003a0 38 a6 1f bd ff d2 e9 bc 9b d7 34 bc e9 16 75 bb
       -0.038976878 -0.028542994 -0.0110377325 -0.0037397689
0003b0 c0 94 08 bd 56 72 8e bc 7d bf c7 3a 32 99 28 3d
       -0.033344984 -0.017388504 0.0015239563 0.041161723
0003c0 4f 2d 9e 3c a5 fa 79 3c 83 0d 72 3c 1c 11 38 3c
       0.019308714 0.015257512 0.014773729 0.011234548
0003d0 f7 d6 c1 bc ae ff ba 3c 96 f2 17 3d 8d d8 78 bc
       -0.023662074 0.022826996 0.037096582 -0.0151883485
0003e0 84 34 6d 3c 8b e4 2f 3d 2e f4 03 3d 9e 33 16 3d
       0.014477853 0.042942565 0.03221529 0.03667032
0003f0 48 cd 57 bb 6a 4b 05 bd 90 c5 de bc 88 5b b8 bb
       -0.0032928754 -0.032542624 -0.027193815 -0.0056261458

FC4.bias f4 [128]
000000 2f a0 41 3c 2e 45 8a 3c 79 f1 e0 3c 11 1d 1f bd
       0.011817976 0.01687869 0.027458893 -0.03884608
000010 4c ac 5e bb ec d7 4c bb af 47 9e 3c 36 86 0d 3d
       -0.0033977209 -0.003125663 0.01932129 0.03455182
000020 5e d4 03 bd 11 78 18 bd 8a 6b fc 3c 38 94 04 3c
       -0.03218495 -0.03722388 0.030812997 0.008091979
000030 11 94 24 bd e8 00 39 3c 3d b4 c3 3b 3e b9 86 3c
       -0.04018027 0.01129172 0.005972414 0.016445752
000040 61 08 73 bb 89 f5 dc 3a 07 a6 c1 bc a2 ab b0 3c
       -0.0037083852 0.0016857843 -0.023638738 0.021566216
000050 39 0c eb 3b e6 53 de bc 58 e7 0d bd af da fa 3c
       0.007173088 -0.027139615 -0.034644455 0.030621855
000060 15 57 db bb b6 55 c0 bc 30 50 03 3d dc f6 d4 bc
       -0.0066937306 -0.02347837 0.032058895 -0.025996618
000070 63 98 24 3d ff 48 2b bc 20 be 41 bc 63 9f 24 bd
       0.04018439 -0.010454415 -0.0118251145 -0.040191066
000080 77 80 fe 3a 2c 51 d5 bc eb 1c 21 bc 3b 55 e9 3c
       0.0019416948 -0.026039682 -0.009833555 0.028483024
000090 3d 15 0a 3d 4a af 2d bd 66 c1 1a 3d 2a 46 1f bc
       0.03371166 -0.042403497 0.037782095 -0.009721318
0000a0 22 e4 02 bc bb 93 50 bc 7e 15 19 bc 32 0e ff bc
       -0.007988961 -0.012730534 -0.009343503 -0.031134699
0000b0 32 9c 2e 3c f4 b5 22 bd a3 6c 96 3b a3 40 b0 bc
       0.010657357 -0.039724305 0.004590587 -0.021515196
0000c0 3d 32 df bc 1e fa 89 3c 3f e8 b8 3c ac 37 16 bc
       -0.027245635 0.016842898 0.022571681 -0.009168547
0000d0 92 89 ef bc ad 1d df bc 05 ec 21 3d 4e b2 bd 3c
       -0.029240403 -0.02723583 0.039531726 0.023156311
0000e0 e4 b6 c3 3b f1 66 a8 bc 92 78 2f 3d 4d fb 7e bc
       0.00597273 -0.020556899 0.042839594 -0.015562844
0000f0 19 67 1a 3d 41 7d 44 3c 59 20 0b bd 38 81 10 3d
       0.037695978 0.0119927535 -0.033966396 0.035279483
000100 16 87 92 bb 25 4c df 3b 33 9b f4 3c a1 06 07 bd
       -0.00447167 0.006814497 0.029859161 -0.032965306
000110 c9 a5 84 bb 9d 06 8a bb b2 83 b8 3c 87 86 df bc
       -0.0040480834 -0.004212214 0.022523735 -0.027285827
000120 25 ce e1 3c ac 34 9b 3c 05 64 77 3c 22 4b 1b 3c
       0.027564118 0.018946014 0.01509953 0.009478362
000130 dc 60 1e bc 34 12 a3 bc 2b b8 1e 3d cc 94 10 bc
       -0.009666648 -0.01990614 0.038749855 -0.008824538
000140 f5 b5 a4 bc 65 00 d9 3c a0 94 f6 bc 90 19 29 bc
       -0.020106295 0.026489446 -0.030100167 -0.010321036
000150 3d ab e8 3c bb 97 e3 3c db 86 04 bd 92 cd 34 3d
       0.028401965 0.027782312 -0.03235517 0.04414136
000160 f7 c0 d0 bc db e0 e8 3c ef 88 29 3d c0 4c d5 bc
       -0.025482638 0.028427532 0.041390356 -0.026037574
000170 29 47 59 3c 7c 08 b5 3c d4 ba fb 3c d4 5a 00 3d
       0.013261595 0.022098772 0.030728735 0.03133662
000180 ec e6 98 bc 3d 47 cf 3a a5 2e 46 bc b9 57 70 bc
       -0.0186648 0.0015814077 -0.012096082 -0.014669352
000190 e2 86 eb bc ef 60 b6 3b 77 2f 21 bd fb b8 f7 3c
       -0.02875084 0.0055657546 -0.039351907 0.030239573
0001a0 cb 9a b4 bc 7a 9d 54 bc c7 ae f4 3c b6 f4 7b 3c
       -0.022046467 -0.012976998 0.029868497 0.015378168
0001b0 98 ba 24 bd ac bb aa bc 94 05 ca bc b4 3f ee bc
       -0.040217012 -0.020841442 -0.024660863 -0.02908311
0001c0 d7 96 5e 3c c3 30 4b 3c 55 37 18 3d 25 cc 50 bc
       0.013585768 0.012401762 0.037162144 -0.012743984
0001d0 23 62 52 bc c1 80 f1 3c 44 81 9c 3c c3 94 7c bb
       -0.01284078 0.02948034 0.019104607 -0.0038540817
0001e0 bc c4 56 bb aa 1f d9 3c 56 1b e3 bb 0c 18 34 3d
       -0.0032771071 0.026504356 -0.006930749 0.043968245
0001f0 72 f0 92 bc 11 48 81 bc 77 5b c5 bc 7b 9e 35 3b
       -0.017936919 -0.015781434 -0.024091465 0.002771287

linear.weight f4 [1, 512]
000000 62 ed a1 bb 04 4b f3 bc d0 03 0c bd fa 6e 1b bd
       -0.0049416283 -0.029698856 -0.034183323 -0.037947632
000010 6a 76 8c 3b 30 8b 87 3b 89 5b 55 3c d2 80 36 3c
       0.004286577 0.0041364655 0.013022312 0.011139112
000020 35 02 c2 3b 00 a7 fe 39 f8 08 03 bb b2 d7 09 bd
       0.0059206733 0.0004857108 -0.001999436 -0.03365297
000030 9b 20 22 3b 92 94 3b bc 4f 93 cc 3c 29 d0 14 bd
       0.0024738673 -0.011448996 0.024972586 -0.03633133
000040 c0 cf d4 b9 13 11 1d bc d0 e7 04 3d 76 78 c8 3c
       -0.00040590577 -0.00958659 0.032447636 0.024471503
000050 93 88 2c bd 06 64 00 bd 22 de 05 3d 61 e1 f6 bb
       -0.042122435 -0.03134539 0.032682545 -0.0075341915
000060 a0 80 3e 3b 86 3e b7 ba 81 36 22 3c 87 c7 e1 3b
       0.0029068366 -0.0013980425 0.00990069 0.0068902406
000070 5b 82 10 3d 2d fd 6e 3c b6 e7 35 3c d6 de 85 3c
       0.035280567 0.014586729 0.0111026075 0.016341608
000080 ea b6 9d 3b e7 ae c7 3c f9 3d 22 3c b7 1b 90 3c
       0.004813065 0.024375392 0.009902471 0.01759134
000090 00 d0 e3 bc 66 c0 87 bb 0a ac 1d 3b eb 79 07 3d
       -0.027809143 -0.0041428087 0.0024058842 0.033075254
0000a0 11 45 f4 bc ae f2 fd 3c e6 ed d2 bb 47 ba 34 bd
       -0.02981809 0.030999508 -0.006437051 -0.04412296
0000b0 3b 86 fc bc 30 7d 02 bd c0 c1 aa bc 6f 86 de 3c
       -0.030825725 -0.03185767 -0.02084434 0.027163712
0000c0 df ec e5 bc 6f 41 d4 3c 4f 3b 10 bd fb 04 bc 3c
       -0.02806705 0.025910107 -0.03521281 0.022951594
0000d0 9d 25 d8 3c d2 ba 0f bd db d0 f5 bc fe 0f c7 bc
       0.026385123 -0.035090275 -0.030006817 -0.024299618
0000e0 da 98 be bc f4 53 fd bc 40 b0 1c bd fb 3e aa 3c
       -0.023266245 -0.030923821 -0.038254023 0.020781985
0000f0 ba 1c 24 bc 81 cf 10 3d 31 17 3f bc 91 e4 30 bd
       -0.010016615 0.03535414 -0.011663244 -0.043186728
000100 93 c6 7f bc ac ae cb 3c aa 6f 12 bd 63 bb 30 3c
       -0.015611309 0.024863563 -0.035751022 0.010786864
000110 ae 39 73 bc 95 fc df bc f5 9c 02 3a 8c 51 96 3b
       -0.014845295 -0.02734212 0.0004982495 0.004587358
000120 a4 a0 e0 3c 45 64 30 bd 4c 3d a4 bc 79 c7 18 3d
       0.02742035 -0.043064374 -0.02004876 0.037299607
000130 b4 af 2f bc a1 ee f8 bc 7f 40 23 bd 92 39 13 3d
       -0.010723043 -0.030387225 -0.03985643 0.035943575
000140 71 15 81 3c b6 1f 17 bd cc 8b 8b bc 7c 46 a5 bb
       0.015757294 -0.036895476 -0.017034434 -0.005043803
000150 91 97 f8 3b 50 e8 90 3c 2a 76 9e 3c 86 f6 81 bc
       0.0075864275 0.0176889 0.019343454 -0.015864622
000160 d5 7f 0b bc 46 4c ef bc 6d 82 59 3c 1e 77 d8 bc
       -0.008514364 -0.029211175 0.013275725 -0.026423987
000170 b4 cd 4e 3c 3c 8d ce bc c3 57 9b 3c b7 e0 06 bd
       0.012622286 -0.02521383 0.018962746 -0.03292915
000180 00 bc c2 3b dd 96 9f bb 07 f9 d4 3c 55 2d 8d 3b
       0.0059428215 -0.004870279 0.025997652 0.0043083825
000190 8f 99 12 bc d8 73 11 3d ed 95 1c bc 43 03 27 3d
       -0.008947744 0.035510868 -0.0095572295 0.040774595
0001a0 2e 82 09 bd f8 c1 e7 ba a3 e5 f1 bc ec 14 fd 3b
       -0.033571415 -0.0017681709 -0.029528445 0.0077234413
0001b0 ac 8a ac 3c 28 92 0c 3d a4 81 ec bc 56 5a a8 ba
       0.021062218 0.034319073 -0.028870411 -0.0012844305
0001c0 69 cc 19 3d 6d 27 9b 3b 03 52 08 3d cc b2 08 3d
       0.037548456 0.0047349245 0.033281337 0.03337364
0001d0 84 35 d1 3c b1 15 54 3b 45 25 8a bc 2f 6c 2c bd
       0.025538214 0.0032361562 -0.016863475 -0.04209536
0001e0 5a 12 26 3c f9 39 cc bb ce 5e 87 bc a1 88 d6 3a
       0.010136211 -0.006232497 -0.016524699 0.0016367623
0001f0 ae a3 a9 bc d5 89 8d bb 87 dc 83 3c 93 7f d9 3b
       -0.020707931 -0.0043194094 0.016096367 0.0066375225
000200 a6 17 30 3d 77 83 0d 3b de 04 ef bb a2 00 ae 3c
       0.042991303 0.0021593252 -0.0072942814 0.021240536
000210 be 15 98 bc 35 a6 f1 3b 98 a3 05 3c c0 68 c0 bb
       -0.018565055 0.0073745498 0.00815668 -0.005871862
000220 a2 6b dd 3c 47 41 bd 3b 8e 54 8f bc 67 f3 32 bd
       0.027028862 0.005775604 -0.017496374 -0.043689158
000230 9e b0 a1 39 2c a7 a7 bc 80 a9 33 bd bc 2f 06 3c
       0.00030839903 -0.020465456 -0.04386282 0.008190092
000240 d3 0f 29 bd 32 9c ce 3c e1 06 23 bc e7 10 ea 3c
       -0.041274857 0.025220964 -0.0099503705 0.028572513
000250 3b 88 52 bc 2a a6 43 bc 89 79 ca 3b d2 f8 ff 3a
       -0.012849863 -0.011941472 0.006179039 0.001952911
000260 08 6c 68 bb 67 a5 32 bd 3e 97 1d bd 9c 1f 89 3b
       -0.0035464782 -0.04361477 -0.038474314 0.0041846763
000270 e1 5e b6 3c 28 ee 24 3d 2e f0 17 bd a7 ea 0a 3c
       0.022262039 0.040266186 -0.037094288 0.008478797
000280 f7 e5 01 bd d7 3a f5 bc a7 76 50 bc 50 23 d2 3b
       -0.031713452 -0.029935284 -0.012723601 0.006412901
000290 68 22 e9 3c ba 96 7c bc dd 1c 06 bd 20 09 ec 3c
       0.028458789 -0.015416795 -0.03274237 0.028812945
0002a0 a9 55 26 bd ee 3f b0 3c 81 67 bd 3b 89 43 77 3c
       -0.040609036 0.021514859 0.005780161 0.015091785
0002b0 89 1e 03 3d 04 64 2d 3d b2 d3 62 bb ee 7f 44 3a
       0.032011542 0.04233171 -0.0034611044 0.00074958696
0002c0 41 d0 e5 3b 03 9a a5 3c 2f 82 03 bd e2 65 d4 bc
       0.007013351 0.02021504 -0.032106575 -0.025927488
0002d0 d9 bf 1f 3d d0 03 2a bd fd 80 44 bb ee 75 0c bd
       0.03900132 -0.041507542 -0.002998411 -0.034292154
0002e0 e1 04 cd 3c d6 4e dc 39 0d e8 07 3d a6 80 c8 3c
       0.02502674 0.00042020407 0.033180285 0.024475407
0002f0 e9 e4 83 3c 22 42 f7 3c e6 bf 6a 3c f6 6d 8e bc
       0.016100364 0.030182902 0.014327979 -0.017386418
000300 24 7a 0f bd 73 3e 13 3d 5b d4 31 3d d0 2c e5 bc
       -0.03502859 0.035948228 0.04341541 -0.02797547
000310 c3 e4 a2 bc 96 4a 18 3d e4 94 c8 3c 65 15 f7 bb
       -0.019884473 0.037180506 0.02448506 -0.007540392
000320 1a 40 87 3c 70 b3 55 bb 16 54 4d 3c 4f ca ca 3c
       0.016510058 -0.0032608174 0.012532255 0.024754671
000330 1d ca c3 3c 8e 5f 15 3d aa 2b 22 3d 68 e5 07 bd
       0.023900086 0.03646808 0.039592423 -0.033177763
000340 c5 0b fc 3c f0 a3 a4 bc 39 57 e0 3c e3 ef 0f 3d
       0.03076733 -0.020097703 0.027385341 0.035140883
000350 69 70 31 3d 88 c7 26 3d a1 74 52 3c 65 06 09 3d
       0.043320093 0.04071763 0.012845189 0.033453364
000360 5e b7 5a bc 8e b1 b8 bc 62 b8 cd bc e3 03 2b 3d
       -0.013349382 -0.022545602 -0.025112335 0.041751754
000370 f9 1a fc 3c 2f 7f 31 bd d4 74 e9 bc 94 1f d2 3c
       0.03077458 -0.043334182 -0.02849809 0.025649823
000380 e7 0d 8a bc b6 d6 58 3c 6a be f3 3c fa 57 f0 3c
       -0.016852332 0.013234785 0.029753882 0.029338825
000390 db 60 38 bc bc 3f a1 bc b7 e9 10 bd 22 c0 f2 bc
       -0.011253561 -0.019683711 -0.035379138 -0.029632632
0003a0 e3 e5 bb bc 02 09 e9 ba f6 dc 2c 3d da f7 11 bb
       -0.022936767 -0.0017779174 0.042202912 -0.0022272975
0003b0 4a db 18 3b f3 a2 0e 3d 4b 15 17 bd 19 50 19 bd
       0.0023324066 0.03482337 -0.03688554 -0.037429903
0003c0 bd 99 33 3c 74 64 0a bd f4 e6 f1 3b 72 e3 e3 3b
       0.010961947 -0.033787206 0.007382268 0.006954604
0003d0 27 43 f8 3b 80 6a b2 ba 82 8b 72 bc 42 98 33 3c
       0.0075763646 -0.0013612062 -0.014803769 0.010961594
0003e0 71 0a 1f bd b8 45 30 bc d9 8f e8 3c 94 97 08 3b
       -0.038828317 -0.01075881 0.028388904 0.00208423
0003f0 51 18 2e bd ec 39 f7 3c 0e 9f 1d bd 03 34 c0 3c
       -0.04250366 0.030178986 -0.038481764 0.023462301
