dl/poal_dl/modelpara/20230828_083239__epochsbackbone200_epochsmqnet100_lrbackbone0.1_lrmqnet0.001_module.params (torch, 500695 bytes, 9 tensors)

FC1.weight f4 [128, 64]
00000000: 30d0 4cbd b043 073c 6217 ff3d cc7a 6b3d
00000010: 7cd2 df3d ee74 f8bd 5807 cc3d 9039 ae3c
00000020: 20f3 f13c 34c7 d13d ec65 373d 182a 9abc
00000030: 68c6 69bd 6ea3 edbd 28a3 f03c ca90 d2bd
00000040: e843 fcbd a8a7 dd3d e685 acbd f8cb a43c
00000050: 98e0 98bd 4458 0cbd a6eb 9c3d 0cbd 73bd
00000060: 20a2 79bc e8f4 efbd 1886 fb3c e00e 9ebb
00000070: 581e ff3c 60c7 863c 006f bcba 887f ff3c
00000080: 78f1 c23d b410 8ebd d073 d03d 5486 efbd
00000090: b23c b5bd a82b 963c 74e6 ab3d 40d5 a2bb
000000a0: f88b bd3c a012 ef3b 3619 9ebd c42b 19bd
000000b0: 40a0 5e3b fe15 c7bd 5851 b0bc 04e2 53bd
000000c0: 086a e63d 8853 823c dadf bc3d 8867 843d
000000d0: 00a4 25bb a060 b2bc ea88 953d 809c 57bc
000000e0: 6897 603d 08e9 c53d a0fc b9bb 8ca0 86bd
000000f0: 5884 98bd 403f d73b 96d1 b9bd 9808 0ebd
00000100: 6a92 87bd a40c dd3d 9882 95bc 4003 5cbc
00000110: 4ed8 be3d 24a0 22bd 0c00 44bd 8031 cabb
00000120: 7072 cfbc 4006 233d 9a3b c8bd 1084 123c
00000130: c89d 123d 2c83 f23d 28b1 dabc 40de b1bc
00000140: 0c5e ee3d d6aa 923d 008c fc3d 80e9 cdba
00000150: 902e 693c fc22 2ebd 067e 90bd 6200 ef3d
00000160: c24a bbbd a83e 873d c008 94bd 6022 5ebc
00000170: fa0d d63d 34a9 183d 3824 e93d 48b3 a63d
00000180: bc6d c1bd 08c4 8b3c 38f5 12bd 8cfe 23bd
00000190: e059 243d cc00 653d 60df e03b d003 92bd
000001a0: e2ff b1bd 66ff 9fbd 04f3 183d b0f1 58bc
000001b0: 6210 bc3d ac18 37bd 0cfa ffbd 3e61 e4bd
000001c0: a888 083d 8e24 fa3d 9c8a 5c3d a2fb c63d
000001d0: 8aef b1bd 0af5 8d3d f03f e63c d0fd 843c
000001e0: 5c93 863d 1840 5bbd d28f 84bd 3cc1 2c3d
000001f0: 0074 783a c0d2 ac3c 9acf b03d 0463 0c3d
00000200: 6e50 bd3d 7099 ac3d e2d8 e93d eaa6 ce3d
00000210: c027 58bc dcb6 44bd 906b 353c 5065 783c
00000220: 7cab 60bd fc8f 383d 9c0c 393d 4cd9 a1bd
00000230: 08c3 e7bc 78de b1bd a64b dfbd f4ab 423d
00000240: b82c 4a3d aeec aabd 84fc 053d 4ca3 69bd
00000250: fcf9 eebd 3c4f 23bd 945b 7ebd 62e5 d5bd
00000260: 468b bfbd e848 bebc 70bd aabc 4c97 353d
00000270: bcf9 efbd b2bc aabd 00ab cd3c d2ef c03d
00000280: 68cc f13d 1ea0 d73d 0a4f f33d f851 5abd
00000290: 0e04 b23d 3884 8b3d 70c6 483d 602b 05bd
000002a0: 80d4 923a 6c1c cebd 50d7 f33d 8c9d 6dbd
000002b0: 5c84 653d 80f7 43bb 0099 acbb e01b 5abc
000002c0: 6cce babd 44b7 b53d b657 953d a8be 9fbd
000002d0: c0ac 8e3d c87d ee3c 702b 283c b0bd 453d
000002e0: 8c12 86bd 8260 a9bd b074 27bc 9ed5 ccbd
000002f0: 525f a6bd 40bc d43c c412 703d 6860 87bc
00000300: 4eb3 8abd 7411 633d 2430 1a3d 408d 74bb
00000310: b853 f1bc f880 833d a0a3 a7bc 4ea7 98bd
00000320: 4050 193b 98e4 713d 70c7 a73d b05f 2c3d
00000330: 8a9c ae3d 5810 febd 0899 ba3d 2c4a 6ebd
00000340: 3cb0 15bd 9ebf 903d dc2b a13d 0468 c4bd
00000350: 4480 9c3d 802b dc3a 6050 2ebc f8cc b1bd
00000360: a8d3 b4bc a2ab bb3d 9878 e53d 20fe febd
00000370: f0ae 32bc d41e bbbd 800d 7fbc 1410 273d
00000380: b8e5 d3bd 6027 96bb fc37 69bd e003 673c
00000390: e460 00bd ce7c b1bd b089 77bd 34f3 25bd
000003a0: 4c5f 1b3d 28d1 3dbd c4bb 41bd 080b c93c
000003b0: 4456 57bd 6011 d83c e0f6 cdbc b8f0 d5bc
000003c0: 9000 ae3d 048f c4bd 204e b23c 9872 8e3d
000003d0: 4069 56bb 2c6e a53d 8894 71bd 546e c3bd
000003e0: 5022 113c d85f 0c3d 5eff d9bd 8eb3 eb3d
000003f0: 6085 84bc 4434 b33d d8e4 aebc b8e6 ac3d
-0.05000323 0.008255884 0.12455632 0.057490155 0.109288186 -0.121316776 0.09962338 0.021267682
0.029534876 0.10243073 0.044774935 -0.0188189 -0.05707398 -0.11603437 0.029374674 -0.102815226
-0.123176396 0.108229935 -0.084239766 0.020116791 -0.07464713 -0.034263864 0.07662134 -0.05950646
-0.0152364075 -0.11716634 0.03070359 -0.0048235506 0.031142399 0.016452491 -0.0014376342 0.031188741
0.09518713 -0.069367796 0.101783395 -0.11695543 -0.08849467 0.018331364 0.08393565 -0.004969269
0.023138031 0.0072959214 -0.07719652 -0.037395254 0.0033970028 -0.097209916 -0.021523163 -0.051729217
0.112506926 0.015908971 0.09222384 0.064650595 -0.0025274754 -0.02177459 0.07301505 -0.013159871
0.054831892 0.09663588 -0.005675867 -0.06573591 -0.074471176 0.0065688193 -0.090731785 -0.034676164
-0.06619723 0.10793427 -0.018250749 -0.013428509 0.093186006 -0.039703503 -0.047851607 -0.0061704516
-0.025323123 0.039800882 -0.09776993 0.008942619 0.035795003 0.11841425 -0.026695803 -0.021712422
0.11639032 0.071614906 0.123313904 -0.0015709847 0.014232293 -0.042513832 -0.07055287 0.11669995
-0.09145118 0.066037476 -0.072282314 -0.013558 0.104518846 0.03727074 0.11383861 0.08139664
-0.09444758 0.017061248 -0.03587839 -0.040037677 0.040124774 0.055908963 0.006862566 -0.071296334
-0.08691384 -0.07812385 0.037341133 -0.013241217 0.09182812 -0.044701263 -0.124988645 -0.1115136
0.03333345 0.122140035 0.053843126 0.09715964 -0.086882666 0.06931503 0.02810666 0.016234308
0.06571075 -0.05352792 -0.06472744 0.04217647 0.00094777346 0.021096587 0.08633347 0.034274116
0.09243856 0.084277034 0.1141832 0.1009043 -0.013193071 -0.04802595 0.011073008 0.0151608735
-0.05485104 0.04505919 0.04517804 -0.07902774 -0.02829124 -0.08685011 -0.10903101 0.04752727
0.049359053 -0.08345924 0.03271152 -0.057040498 -0.116687745 -0.039870486 -0.062099054 -0.10444142
-0.09352736 -0.023228124 -0.020842284 0.04433374 -0.11717555 -0.08336772 0.025105953 0.09420742
0.118065655 0.10528587 0.1188031 -0.053300828 0.086921796 0.06812328 0.04901737 -0.03251207
0.0011202246 -0.10064015 0.11906302 -0.058011577 0.05603443 -0.002990216 -0.0052672625 -0.01331231
-0.09121403 0.08872846 0.0729212 -0.07800037 0.06966543 0.029112712 0.010264263 0.048276603
-0.06546506 -0.082703605 -0.010220692 -0.10001682 -0.0812365 0.02596867 0.058611646 -0.016525462
-0.06772481 0.055436566 0.037643567 -0.0037315637 -0.029458866 0.06421083 -0.020463765 -0.07453786
0.002339378 0.059055895 0.081923366 0.042083442 0.08525951 -0.12405461 0.0911122 -0.058176205
-0.036545023 0.07067798 0.07869694 -0.09590152 0.07641652 0.0016797632 -0.01063928 -0.08681673
-0.022073582 0.09163596 0.11204642 -0.12450814 -0.010905966 -0.091367394 -0.0155671835 0.040786818
-0.1034655 -0.0045823306 -0.056938156 0.014100045 -0.031342402 -0.08666383 -0.060434043 -0.04051514
0.03793268 -0.046342045 -0.047298208 0.024541393 -0.052572504 0.026375473 -0.025142133 -0.02611576
0.08496201 -0.095975906 0.021765769 0.06955451 -0.0032716542 0.08077654 -0.05897954 -0.09542528
0.008858278 0.03427109 -0.106444106 0.11508857 -0.01617688 0.08750203 -0.021349356 0.084424436

FC1.bias f4 [128]
00000000: d8c1 b0bd 0448 b8bd b29c a83d ba5a d53d
00000010: d41a cc3d b0da a1bd 6835 1cbd 7e14 aebd
00000020: 0079 663d 0854 f93c 0012 5e3c 0895 163d
00000030: 80c7 a7bd a091 28bc 6439 dcbd 1835 8bbc
00000040: 8e39 da3d 6087 afbb 4c2f 66bd 1082 b63c
00000050: e03a a33d b09b debd cea8 903d 5c21 fd3d
00000060: f40b f2bd a0a2 96bd cea6 c2bd 82fa bdbd
00000070: c8f0 fe3c 708d 00bd 10ec 963c 98ff 723d
00000080: 78af 363d a0da c13d 004b fb3c 9083 e3bc
00000090: b099 64bc 507b f03d e0ae 1bbc 647a 62bd
000000a0: f410 da3d 14b0 8b3d 20c2 cb3b 20bb 043d
000000b0: 80b4 96bd 6a15 a7bd 5231 b73d 9075 493c
000000c0: 1023 8cbc de66 bdbd 84d9 c33d 9adc d7bd
000000d0: 5080 debd fc47 54bd 64b3 fdbd e02f c6bc
000000e0: f0aa bf3d bc90 4fbd 52b9 fbbd 2c52 933d
000000f0: 72f4 a63d c48c 6dbd dcb0 54bd 9cb7 ed3d
00000100: 404f 753d a628 ef3d d408 5e3d 6e55 be3d
00000110: 4cb0 933d 9c5c 00bd b8fe 0a3d 00fa b53c
00000120: 16c2 d8bd 884f f13c 5266 bbbd e04a 08bd
00000130: 1c83 c43d b467 b93d 10f1 ef3d 5411 9abd
00000140: ec5d aebd 6428 88bd 0804 e83c e403 7f3d
00000150: d486 61bd 5e7e eebd ec90 803d 2aa7 cabd
00000160: 282c 98bc eebc b63d f064 82bc 32d8 963d
00000170: 6ca3 13bd c451 013d d81b bbbc 726c f7bd
00000180: 183e 5c3d 1e76 fc3d fc44 993d 98ea 69bd
00000190: 58d3 adbc dc3d 6abd 60ad 37bc 3a02 9bbd
000001a0: dc05 5cbd 4c14 553d 7c2d a6bd bc6a f23d
000001b0: c8ae 15bd ac43 283d 641f 5abd 00b0 783d
000001c0: 5c7c 133d 8c2e 16bd c4da 563d 4806 c4bc
000001d0: c017 11bc 00d1 95bd a0d6 94bc ecb4 f93d
000001e0: 94aa 413d ace7 cebd c44e 9a3d b85a cebc
000001f0: baf9 c3bd 468a b8bd 4482 f43d 40de e23c
-0.08630723 -0.08998111 0.08233012 0.10417695 0.099660546 -0.079030395 -0.03813687 -0.08500002
0.05626774 0.030435577 0.013554096 0.03676322 -0.081923485 -0.010288626 -0.10753134 -0.01699309
0.10655509 -0.005356714 -0.05619745 0.022278816 0.07970214 -0.10869539 0.07063447 0.123598784
-0.11818686 -0.07355237 -0.09504472 -0.09276296 0.031120673 -0.031384885 0.01842311 0.059325784
0.044600934 0.094655275 0.030675411 -0.027772695 -0.013952658 0.1174227 -0.009502143 -0.055292502
0.10647765 0.068206936 0.00621821 0.03240502 -0.073586464 -0.08158381 0.08944954 0.0122960955
-0.017106563 -0.09248136 0.09562972 -0.10540123 -0.108643174 -0.051826462 -0.12387732 -0.02419275
0.093587756 -0.05067514 -0.122912064 0.071934074 0.08152093 -0.057995573 -0.05192648 0.11607286
0.05989003 0.11677675 0.054207638 0.09293638 0.0721136 -0.03133832 0.033934325 0.022213936
-0.10583894 0.029456869 -0.091503754 -0.03327453 0.0959532 0.09052983 0.11715901 -0.07522836
-0.08514008 -0.06648329 0.028322235 0.06225957 -0.055060223 -0.116451964 0.06277642 -0.09895165
-0.018575743 0.08922754 -0.015917271 0.07365455 -0.036044523 0.03157212 -0.022840425 -0.12081231
0.053770155 0.123272166 0.07483861 -0.05710849 -0.02121894 -0.0571879 -0.011210769 -0.07568784
-0.053716525 0.05202131 -0.08114144 0.11836764 -0.036543638 0.041080162 -0.053252593 0.06071472
0.03600727 -0.036665484 0.052454725 -0.023928776 -0.00885576 -0.07315254 -0.018168747 0.12192711
0.047281817 -0.10102782 0.075345546 -0.025189742 -0.09569116 -0.090107486 0.11938909 0.027693868

FC2.weight f4 [128, 128]
00000000: d5f4 23bd bd01 e9bc 4c86 763d 405e 8a3d
00000010: 6313 6a3d de34 263d 96c5 babb 20b1 a83d
00000020: ebb4 9bbd 3222 9ebd 42d7 05bc 6c56 913d
00000030: ec80 96bb 52c2 613d 1925 963d a7f7 b23d
00000040: b29a c7bc dba0 c8bc 1e06 a73d 4157 7cbd
00000050: d32f 233d 618c 4bbd e3a0 16bd 3910 8a3d
00000060: 4096 223b b779 a33c 6624 c93c 6f54 f8bc
00000070: 6490 46bd 0fee c0bc d644 b4bc 2068 0cbd
00000080: cb93 fbbc 302f 76bb 9f8c a0bd 3c0a 2c3d
00000090: 9580 223d bc7f 833d dbb3 a73d 80b5 3e3d
000000a0: 4a47 dabc 2777 a33d 1016 83bd b879 a9bd
000000b0: 1d75 b1bd 749d b1bd 0e63 c33c 2b57 36bc
000000c0: 6bf6 90bd 6062 763d 3f33 dabc 7822 dbbc
000000d0: 525b 8dbd 319e 443d 6e6d 9c3d 1bca cdbc
000000e0: 053c b03d 9b31 9e3d bc34 5dbd 70c8 8d3d
000000f0: c897 87bc 3040 b4bd 2470 a1bd fdf0 a03d
00000100: e11f 893d b02a 3a3d f1d2 8a3d 58fa a83d
00000110: 68db 97bd a2a3 86bd ff76 523d 8a7c 1c3d
00000120: cb76 ad3d 0fc8 813d 6906 e73c 0916 83bd
00000130: 2d12 a23c 5ab1 8bbd c74b bc3c d46a a23d
00000140: 0c06 acbd 7832 6cbd 2569 853c a758 05bd
00000150: 3f1f 4ebd 8470 94bc 0aab 01bd ac81 51bd
00000160: a21e 51bd 0941 023d 637c 393c d93b 81bc
00000170: aa09 443b 0aa3 e2bc 9b61 eb3c fa19 61bd
00000180: 18e2 bebc 7507 2fbc da09 233d dcad 89bd
00000190: ef32 0b3d 2981 d63c 623a 7cbc 877b 23bd
000001a0: ca91 543c c255 a53d 72ba 843c 2bb4 91bd
000001b0: 2ed4 e7bb 28fe 90bd 0d83 583d 5eab e2bc
000001c0: eabf 3dbd 87b6 da3c e50b 3e3d 57e8 653c
000001d0: 9c51 913d 0aa2 823c 0747 793d 785f 683d
000001e0: 4382 a0bc 3f4f c9bc f797 543d 5529 633d
000001f0: 95fb 40bd 273c eb3c e05e dd3c 50fc 403c
00000200: 67fd cbbc 01ca 5c3d d176 2a3d c1c2 aa39
00000210: 1b09 f4bc 2511 0b3c 5ed9 83bd 8777 b1bd
00000220: 6256 8a3a 3018 903d b1d5 823d 1eb8 c53b
00000230: 6e3e 93bd 1da7 883c c09e 1bbc 4d68 0abd
00000240: 95ad 9dbd d952 25bd 22ce 9e3b fc46 9f3d
00000250: 424f 94bc 09b7 6f3d e11b 2a3a 13cf 04bd
00000260: d161 453d 5e0a 543d 5c0e cf3c 003b 833d
00000270: 07bf 18bd f6f4 1dbc 7660 14bd 7366 2b3d
00000280: 57b8 813c fe55 843d e43f 2fbc df9e 4dbd
00000290: f2dd 13bd 3e1f b0bd cc95 023c fa70 583d
000002a0: f270 a63d f563 e93c 7c4b 76bd c65b 1f3d
000002b0: 1463 a53d a916 8d3b 78cf b4bd 5802 cabc
000002c0: 920b 193d 49ec 193d abdb 2abd 91fe b23d
000002d0: 2ffa a83c 7456 c83c a87f 96bd a194 c53c
000002e0: f1ef 7a3b 7fef f73c 1a86 5cbd 3348 68bd
000002f0: bb5d 963d 589e 3a3c a832 84bd bd59 a6bd
00000300: da5f 0cbd 59de a53d 7711 aa3d f092 02bd
00000310: a53f 5abc 1082 72bd 5f2b 81bd 2267 aa3d
00000320: 952b 383c 58bf efbc 62d8 853d 7c1b be3c
00000330: d42c 30bd e5fc 43bc e541 28bd 654e 233d
00000340: ff7f 8c3d f025 16bd 6747 163d 6f0e d63c
00000350: 50c3 66bd a788 3fbd 8a2b 3cbd 62c8 813b
00000360: f3a3 ddbc ca05 cabb 34c8 1f3d 4cab d2bb
00000370: 0f30 7bbd 142d 723d 8c4e 9a3d c65d 38bd
00000380: 8b4b 433d 2c4a 883c 489c 863d b213 8ebd
00000390: f474 c7bc 69b2 423c 61d6 213d 652f f5ba
000003a0: 3158 743d 6592 c1bb 4998 a73d 0491 b4bd
000003b0: bd51 633c 1af4 823d cbef a93c 1e6f 2e3d
000003c0: b2ff 7f3d 051d a33c af2d 333d 2e84 77bd
000003d0: d993 85bd f673 cb3c ce54 38bd ec6c 8bbd
000003e0: e39f 323d f028 aebc 7e91 213d 059f 88bd
000003f0: 9872 1c3d 381a a03d 1dec a3bc 2c4a 19bd
-0.040028412 -0.028443212 0.06018667 0.06756258 0.057147395 0.04057776 -0.0056998236 0.08236909
-0.07602867 -0.07721366 -0.008168997 0.07096562 -0.0045930054 0.05511696 0.073312946 0.08738642
-0.024365757 -0.024490764 0.08155464 -0.06160665 0.03984053 -0.049694423 -0.036774527 0.067413755
0.0024808794 0.0199555 0.024553489 -0.030313699 -0.048477545 -0.023551015 -0.02200548 -0.03427899
-0.030710122 -0.0037564747 -0.07839321 0.042001948 0.039673407 0.06420848 0.081886016 0.04655981
-0.026645321 0.07981711 -0.064006925 -0.08275169 -0.08664916 -0.0867261 0.023850944 -0.011129181
-0.070782505 0.06015241 -0.026635764 -0.026749834 -0.069021836 0.048002426 0.076380596 -0.025120785
0.08605198 0.07724305 -0.05400537 0.06922996 -0.016551867 -0.08801305 -0.07882717 0.07858465
0.066955335 0.045450866 0.06778515 0.08250874 -0.07414895 -0.06574179 0.051383015 0.038204707
0.084699236 0.06336986 0.028201299 -0.06400687 0.019784058 -0.068209365 0.022985352 0.07930532
-0.08399591 -0.05766532 0.016285488 -0.03255525 -0.050322767 -0.018120058 -0.031657256 -0.051149055
-0.051054604 0.031800304 0.01132116 -0.015775608 0.0029912987 -0.027665634 0.028733065 -0.054956414
-0.02330117 -0.01068293 0.039804317 -0.06722614 0.03398412 0.026184635 -0.015394779 -0.039912727
0.012974212 0.08072998 0.016202185 -0.071144424 -0.0070748543 -0.070797265 0.052859355 -0.027669605
-0.0463256 0.026698364 0.046398062 0.014032445 0.07095644 0.015946407 0.060858753 0.05673167
-0.019593364 -0.02457392 0.051902737 0.05545934 -0.047114927 0.028715206 0.027022779 0.011778906
-0.024901105 0.053903583 0.04161722 0.0003257003 -0.029789498 0.008487974 -0.06437944 -0.08665376
0.0010554309 0.070358634 0.06388415 0.0060339114 -0.07189642 0.016681248 -0.009498298 -0.033790875
-0.07699124 -0.040362213 0.0048463503 0.07777211 -0.0181042 0.058524165 0.00064891396 -0.032424044
0.048188988 0.0517677 0.025275402 0.06407738 -0.037291553 -0.009640923 -0.036224805 0.04184575
0.01583497 0.06461714 -0.010696385 -0.05020034 -0.036100335 -0.08599709 0.007970285 0.052842118
0.08127011 0.028490046 -0.06013058 0.03890588 0.08075538 0.00430568 -0.08828634 -0.02465932
0.03736455 0.037578855 -0.041713398 0.08739961 0.02062711 0.024455287 -0.07348567 0.024118723
0.003828999 0.030265568 -0.053838827 -0.05670948 0.073420964 0.011390291 -0.064549744 -0.08122585
-0.0342711 0.0809905 0.083041124 -0.03187841 -0.013320838 -0.05920607 -0.063071005 0.08320452
0.0112408595 -0.029266044 0.06535412 0.023206465 -0.0430115 -0.01196215 -0.041078467 0.039869685
0.06860351 -0.036657274 0.03668919 0.02612993 -0.05633861 -0.04676118 -0.04593996 0.003960655
-0.027055716 -0.006165241 0.039009288 -0.0064291116 -0.06132513 0.05912502 0.07534513 -0.045011304
0.047679465 0.01663693 0.06572777 -0.0693735 -0.02434776 0.011883357 0.03951109 -0.0018706141
0.05965442 -0.005907344 0.08183343 -0.08816722 0.013874468 0.06394215 0.020744225 0.04258644
0.06249971 0.019911299 0.04374474 -0.06042879 -0.0652234 0.024835568 -0.04500275 -0.068078846
0.04360951 -0.021259755 0.039445393 -0.066709556 0.038195223 0.07817501 -0.020010049 -0.03742425

FC2.bias f4 [128]
00000000: 285b 32bd b947 82bd a9d1 193d fd21 67bd
00000010: 97fc 9cbc 00c3 563d 270c 853d f375 95bd
00000020: 81a0 cc3c 2aba 2d3d 1b06 a33d fcbc adbd
00000030: ba80 8dbb 77ff 7c3d 85c0 203d 35e3 863b
00000040: 63bc 16bd 1469 d53c 8f38 113d a3a3 423d
00000050: 5e46 7fbc 1a84 77bc 0066 94bd e597 ce3c
00000060: d09e 613d ad15 37bd e152 063d 3451 e03c
00000070: a28f 52bc 46b7 5f3d 1287 453d db42 ab3d
00000080: 616c c3bc 2333 8fbd 9620 983d ab28 2b3c
00000090: eba1 e93a e5fc b6bc 642f 2a3d 2d4c 383d
000000a0: 0df0 5f3d 13f5 7dbc b808 263d 59a0 89bd
000000b0: 70bd 923d f643 8f3d 3a38 a53d a6db 833d
000000c0: b392 833d ab13 13bb 4a87 3bbc 0577 1b3d
000000d0: abee 093d 3bed 873c 6ca9 993d 78c9 403d
000000e0: 84c2 27bd 967c e73c c555 61bd 2843 b2bd
000000f0: 74f3 22bd ffcf 29bc cef1 03bd eb07 8e3c
00000100: dc2b a9bc 655c 6a3d b46c 993d 1391 a3bc
00000110: 8a39 b53c d57f 8f3c 4f1a 903d 7e11 e5bc
00000120: aa70 7a3a 3ecb 853d dc07 ae3c 86f8 6c3d
00000130: 5fb2 73bd 5630 1abc 7257 9a3d 206c 9fbc
00000140: a916 8bbd abbd 59bc c90f a63d 7623 803d
00000150: bf46 a73d 1c27 403d 594e 80bd db47 53bd
00000160: e75a 913d cec2 2bbd a3f9 513c 1736 3e3d
00000170: 077d 6b3d 6ca1 93bd c896 ccbb a391 14bc
00000180: f52d 97bd fcf9 11bd 4f29 a23c 8f8e 263d
00000190: 281f 073d 3e80 a2bc 2662 dcbc 6470 a33d
000001a0: 2ef2 f53c c887 36bd 58dd dbbc 6c47 0a3d
000001b0: 05d6 a3bd 83dc 123c 8fd7 aabd 1bd2 38bd
000001c0: d2b7 60bd 409f 183d 31c0 bf3c bcc2 b63c
000001d0: 6625 1eba 8e60 0d3a e1f5 5a3d 4ccf 863d
000001e0: 9588 313d 0634 5e3d 7bf2 5dbd a660 4b3d
000001f0: cae8 1cbb d0e4 513d 14c0 0bbd de68 a4bd
-0.043543965 -0.06361336 0.037553463 -0.056428898 -0.019163413 0.05243206 0.064964585 -0.07297888
0.024978878 0.042413868 0.07960149 -0.084833115 -0.004318324 0.061767068 0.0392461 0.0041164407
-0.036800753 0.026051082 0.03545433 0.047519337 -0.015580742 -0.015107179 -0.072460175 0.025218913
0.055083096 -0.044698406 0.032793883 0.02738247 -0.012851628 0.054618143 0.048224516 0.08362361
-0.02385539 -0.069921754 0.0742809 0.010446708 0.0017824745 -0.022337386 0.0415491 0.044994522
0.05467229 -0.015500325 0.04053566 -0.06720037 0.071650386 0.069953844 0.08067365 0.06438379
0.06424465 -0.0022442143 -0.01144583 0.037955303 0.033674877 0.016592612 0.07503018 0.047067136
-0.04095699 0.02825765 -0.055013437 -0.08704215 -0.039782956 -0.010364532 -0.032213025 0.01733776
-0.020650797 0.05721702 0.074914366 -0.019966638 0.022122163 0.01751701 0.07036268 -0.027962442
0.00095535314 0.06532906 0.021243982 0.057854198 -0.05949628 -0.009410938 0.0753621 -0.019460738
-0.067914315 -0.013289849 0.081084795 0.06256764 0.081677906 0.046912298 -0.06264944 -0.0515822
0.07097416 -0.041933827 0.012815866 0.046438303 0.057492282 -0.07208523 -0.0062435605 -0.009067926
-0.073818125 -0.035638794 0.019795088 0.0406633 0.032988697 -0.019836541 -0.02690227 0.07980421
0.030022707 -0.044563085 -0.026838943 0.03375952 -0.07999805 0.008963707 -0.08341896 -0.045122247
-0.054862805 0.037261248 0.023407074 0.022309653 -0.00060327945 0.0005393111 0.053457145 0.065825075
0.043343145 0.054248832 -0.054186326 0.049652718 -0.0023942464 0.051243603 -0.034118727 -0.08027814

FC3.weight f4 [128, 256]
00000000: 8869 e1bc e4a0 573d f059 c8bb 1067 d93c
00000010: e666 593d c8c0 e33c 6c28 58bd 0a05 53bd
00000020: 7c94 c13c 4a31 4b3d 0cd8 2cbd 90b9 7fbc
00000030: 9c03 25bd 8043 173a dadc 3bbd d8bf 53bd
00000040: 3875 6ebc 2011 203d e0f4 8e3c 009f 343d
00000050: 20b7 ab3b 9038 403c 80c9 35bb e65c 713d
00000060: 08f6 863c 7297 3f3d ca08 63bd 206b 7cbd
00000070: 8063 debb f88d 4abc 802e 493c e047 2dbc
00000080: caf3 6cbd 7cfc 8f3c 640b 56bd a4bd a8bc
00000090: 621a 033d 0810 283c a2aa 4a3d 001b 8339
000000a0: 983b 63bd 44da 203d ae91 2d3d 86d0 7abd
000000b0: 8c25 88bc 1c89 073d 3838 a23c e02c a43b
000000c0: 2695 6dbd 1412 36bd 60c3 74bd 80a9 15bc
000000d0: 6e44 243d a098 043d 688a 81bc 521e 373d
000000e0: 2889 7dbc 401d 93ba 9e7b 063d bcee c83c
000000f0: 8077 28bd 00af c0bb e268 7a3d a42b c3bc
00000100: 7069 0d3d da2c 33bd 809d 5d3b d031 fc3b
00000110: 18fd bd3c b41e 36bd a8ec 78bc f0d6 0fbc
00000120: 72ca 583d 4c21 aabc 9e53 61bd b03b 5bbc
00000130: dcab 6dbd 408c 71bc 1aaf 19bd 80e0 463d
00000140: 1803 203c a062 543b b8ba 10bc decf 24bd
00000150: 981d 8a3c 5423 0a3d eacf 30bd c427 413d
00000160: 7866 143d 3cd9 b33c 8ef8 5c3d 9068 9dbb
00000170: 4e9a 073d 0826 a33c 4c3c 843c c0de e9bc
00000180: 1409 b53c 20c9 5f3d 906c 093d 8859 a3bc
00000190: ae57 143d faf9 443d 606d 19bb 14c5 a5bc
000001a0: 189b 63bd a073 80bc 8013 d6bb fe94 5a3d
000001b0: 4ca3 8abc 3073 683d 3c69 ad3c 68cb b83c
000001c0: 4010 a33a 903c c2bb 8cb9 063d 70f6 b2bc
000001d0: 98fb aa3c 948e f13c 78fe 993c 20cb 253d
000001e0: d8f8 203c d45d 58bd 2023 dabb a09c e93b
000001f0: 2c1f 0c3d 4c0d 093d aa2e 7fbd 9843 123c
00000200: 38df 743d 36fb 7b3d ecd1 7a3d 6c1b 033d
00000210: ccc8 3f3d 3801 debc 3852 43bc 6882 423d
00000220: 3cf3 733d 9c01 e33c 6003 dbbc d071 e5bb
00000230: 9039 f9bc 9460 563d b2d3 423d 4097 5a3b
00000240: fc46 cfbc 684c a0bc 0676 38bd 2036 2ebc
00000250: 408f f93b b6fa 4e3d 6048 7ebd f046 2bbd
00000260: 460d 70bd bc9d 343d 06d2 123d 9810 033c
00000270: 280a 583d 1081 c2bc 406c 543d d8ed 473d
00000280: a289 2dbd c4f5 70bd 9647 2ebd e4d7 45bd
00000290: d448 e53c a044 2c3c c82d 6d3c f88d 393c
000002a0: 801c 453a b43b d2bc b05d 793d 544b ecbc
000002b0: 108e 423d 68b1 c0bc 624f 7e3d 2ea0 1d3d
000002c0: 80bc b9bc c0cb 49bb d0e5 72bd 5437 74bd
000002d0: 80ba 63bb c04b c63c ea66 74bd a8d2 c1bc
000002e0: a8cb 59bd 705b 643d f487 4c3d 8475 c3bc
000002f0: 347b 70bd 041d e6bc 2ac6 2abd 189d 133c
00000300: 987c 3bbd fc38 54bd 1eab 21bd a824 24bc
00000310: 8099 343c f8e5 f2bc daa0 623d f046 81bb
00000320: c0e1 24bc 189f 6bbd d894 3cbd f690 4cbd
00000330: de12 78bd 7c85 5cbd 403d 0ebc ba47 3cbd
00000340: cc92 0f3d 747e 7fbd 0061 f83c 0edc 08bd
00000350: 94ae 743d d0aa 7abd 2006 e83c 3420 bc3c
00000360: 20cc 20bb b853 0b3c 6026 213b 445c b5bc
00000370: 86d0 7bbd 4ced cfbc bcff a73c 4ca1 cc3c
00000380: d4a1 ea3c 04a2 f53c 8c94 913c 9079 f93c
00000390: e041 d7bb e4a3 b7bc 8426 92bc 00a6 ea39
000003a0: be3c 5dbd 1cc6 093d 222c 153d 9869 333c
000003b0: 141e f23c e88c 803c e0db 323d caee 3b3d
000003c0: 60b4 1e3b ec25 9fbc 34e1 dd3c a8c4 7c3c
000003d0: 861d 1c3d 429f 62bd 820a 52bd ceb8 4e3d
000003e0: 3aac 273d 56b7 79bd c606 37bd 009e 03ba
000003f0: dcde 5b3d 30a5 a3bb a681 2f3d 3c3d ad3c
-0.027516142 0.05264367 -0.006114237 0.026538402 0.053076647 0.027801886 -0.052772924 -0.051518477
0.023630373 0.049607553 -0.042198226 -0.015608206 -0.040286645 0.0005770251 -0.045864917 -0.05169663
-0.014554314 0.03907883 0.01745075 0.044096947 0.005240336 0.011732236 -0.0027738512 0.058926485
0.016474739 0.04677529 -0.055428304 -0.0616256 -0.0067867637 -0.01236295 0.012279153 -0.010576218
-0.057849683 0.017576449 -0.052256957 -0.02059824 0.032007582 0.010257728 0.049479134 0.00025006384
-0.055476755 0.039270654 0.04237526 -0.06123402 -0.016619466 0.033089742 0.019802198 0.0050102323
-0.058003567 -0.044450834 -0.059756637 -0.00913465 0.040104322 0.032372117 -0.015813068 0.04470665
-0.015474595 -0.0011223927 0.032832734 0.0245279 -0.04112959 -0.0058802366 0.06113518 -0.02382452
0.03452438 -0.043743946 0.00338158 0.007696368 0.023191974 -0.044462875 -0.015193142 -0.008779272
0.052927442 -0.02076783 -0.055011384 -0.01338093 -0.058025226 -0.014742911 -0.037520505 0.048553944
0.009766363 0.0032407418 -0.00883358 -0.0402373 0.016859815 0.033725098 -0.043167032 0.047157064
0.036230534 0.021954171 0.053947978 -0.0048037246 0.03310614 0.019915596 0.016142033 -0.028548598
0.022099055 0.054635167 0.0335508 -0.019940153 0.03621643 0.04808996 -0.002341114 -0.020235576
-0.05556783 -0.015680134 -0.0065330863 0.053364746 -0.01692357 0.056750476 0.021168344 0.02255793
0.0012440756 -0.00592763 0.032891795 -0.021846026 0.020871922 0.029486932 0.018798098 0.04047692
0.009824954 -0.052823856 -0.0066570193 0.007129267 0.034209415 0.033459947 -0.06230036 0.008927248
0.05978319 0.06151887 0.061235353 0.032008573 0.046822354 -0.02710019 -0.011921458 0.047487646
0.05955814 0.027710728 -0.026735008 -0.007002093 -0.030422956 0.052338198 0.04756517 0.0033354312
-0.025302403 -0.019567683 -0.04503443 -0.010633022 0.0076159537 0.050532065 -0.06208074 -0.0418157
-0.05860641 0.04409574 0.035844825 0.007999562 0.05274406 -0.023743182 0.051861048 0.04881081
-0.042367585 -0.05882813 -0.04254874 -0.048301592 0.027988829 0.010514408 0.014476247 0.011325352
0.00075192004 -0.025663234 0.060880363 -0.028844513 0.047498763 -0.023522094 0.062087424 0.038482837
-0.022672892 -0.003079161 -0.059301198 -0.059623078 -0.0034748614 0.024206042 -0.05966846 -0.023660019
-0.053172737 0.055751264 0.049934343 -0.023859747 -0.058711246 -0.028090008 -0.04169289 0.009009622
-0.04577312 -0.051812157 -0.03946983 -0.010018505 0.011022925 -0.029650673 0.05532918 -0.003945224
-0.010063589 -0.05752477 -0.046040386 -0.049942933 -0.06056487 -0.053838238 -0.008681595 -0.04596684
0.035052106 -0.062376454 0.03031969 -0.033412986 0.059736803 -0.061198056 0.028323233 0.022964574
-0.002453573 0.008503847 0.0024589524 -0.022138722 -0.06147816 -0.025381707 0.020507686 0.024979256
0.028641619 0.029984482 0.017771028 0.030453473 -0.006569132 -0.022417016 -0.017840631 0.00044755638
-0.054013006 0.033636197 0.03641904 0.0109504685 0.029555358 0.01569219 0.04366672 0.045882024
0.0024216399 -0.019427262 0.027084924 0.015427746 0.038114093 -0.05532766 -0.051279552 0.050469212
0.040935732 -0.06096586 -0.044684194 -0.0005020797 0.053679332 -0.004994057 0.04284825 0.021147363

FC3.bias f4 [128]
00000000: d845 373c 2603 02bd 2e38 143d 0655 69bd
00000010: 5033 f4bb 0028 0cbb e844 6a3c 00d0 5938
00000020: 0826 a7bc 6c1c a93c d80c 683c 744c c83c
00000030: e0ae 6fbd 582e 873c 0e9e 423d bc6c 35bd
00000040: f47f bc3c c083 14bc 381b 62bd 98c5 673c
00000050: dea4 463d 4c62 073d 5875 5d3d b263 403d
00000060: 601c db3b 3ee8 383d 5c71 4a3d ee20 5d3d
00000070: 4009 413d 20ea 4fbb 487f 7f3c 6019 4f3d
00000080: c01e e23c d03a 71bc 1474 80bc 70e5 5b3c
00000090: 70ec b8bc 8849 5b3c aefe 1a3d 80d5 26ba
000000a0: 5007 48bd 64ca d3bc b8af d33c 1a88 1abd
000000b0: 4e95 2cbd 48e9 0ebd d4f0 e0bc ca70 013d
000000c0: 28dd febc 64a4 debc 50bb fa3c fce3 0ebd
000000d0: bc70 92bc 1c99 02bd ac34 023d 803b 36bc
000000e0: 2829 d7bc 40f0 7b3c 60f2 a9bb 0051 a0b9
000000f0: 7874 b33c 1c67 bd3c 8ca4 34bd b028 7d3c
00000100: 70e1 523c 9c2d 723d 0030 c638 c811 eebc
00000110: 6089 85bb 489c 5abc fcfb b7bc 82d4 35bd
00000120: 5492 3b3d 04ac 653d 2c95 603d e002 91bc
00000130: f036 89bb 6472 efbc 2ce8 91bc 64f3 813c
00000140: b418 55bd 00e2 4cb9 e462 63bd 489f 343d
00000150: 8045 0aba 7c15 fe3c 6c03 7c3d 3c07 45bd
00000160: 9a2b 793d fc06 aa3c 0a63 473d 08f0 27bc
00000170: 220b 7ebd 90ac e23b 00c0 11bd ccfe 9cbc
00000180: 7498 76bd d8b0 fcbc b6b8 2e3d 78d9 243c
00000190: 7ec9 7bbd 24cb 333d ec0f 263d 7c8a 473d
000001a0: 4cce 1e3d dc77 dabc cca8 2dbd 009d 8e39
000001b0: f8bb 4e3c 9857 b3bc e058 523b f63e 673d
000001c0: 48d5 613d 8a58 2e3d a647 3f3d 5895 783c
000001d0: e435 8cbc 04f8 15bd 3c31 25bd d4a7 fc3c
000001e0: 2a7e 3bbd c438 67bd 4052 f3bc 3ab2 0dbd
000001f0: d65c 26bd d41e ffbc 9076 493c 64ba c7bc
0.011186086 -0.031741284 0.03618639 -0.05696585 -0.007452406 -0.0021386147 0.014298655 5.1930547e-05
-0.020403877 0.020643435 0.014163218 0.024450518 -0.058516383 0.01650159 0.047514014 -0.04429315
0.023010232 -0.009064615 -0.05520174 0.014146231 0.048497073 0.033052728 0.054066986 0.046970077
0.006686732 0.04514336 0.049424514 0.053986482 0.047127962 -0.0031725243 0.015594311 0.05056131
0.027602553 -0.014723495 -0.01568035 0.013421401 -0.02257368 0.01338423 0.037840538 -0.00063642114
-0.0488351 -0.025853343 0.025840625 -0.037727453 -0.042134576 -0.034890443 -0.027458586 0.031601705
-0.031111315 -0.027177997 0.030606896 -0.03488539 -0.017876022 -0.031884298 0.031788513 -0.011122584
-0.026264742 0.015377104 -0.005186364 -0.00030577928 0.021906123 0.023120455 -0.044102237 0.015451595
0.012871131 0.059125528 9.4503164e-05 -0.029061213 -0.0040752143 -0.013342924 -0.022459023 -0.044392116
0.045793846 0.05607225 0.05482976 -0.017701566 -0.0041874573 -0.02922935 -0.017810903 0.015863128
-0.05202551 -0.00019539148 -0.05551423 0.044097215 -0.00052746385 0.031016104 0.0615267 -0.048102602
0.060832597 0.020755284 0.048678435 -0.010250099 -0.062022336 0.0069175437 -0.035583496 -0.019164465
-0.060203984 -0.030846044 0.042656623 0.010061614 -0.061471455 0.043894902 0.040542528 0.048716053
0.03877096 -0.026668482 -0.042397305 0.00027201325 0.012618057 -0.021892354 0.003209643 0.05645653
0.05513504 0.042564906 0.04669919 0.015172325 -0.01711554 -0.03661348 -0.040330157 0.030841745
-0.045774616 -0.05645062 -0.029702306 -0.0345938 -0.04061588 -0.03114263 0.012296334 -0.02438087

FC4.weight f4 [128, 512]
00000000: 3852 8c3c 3ef8 31bd daa3 91bc 70aa ce39
00000010: dfd9 323d 10a0 163d d146 753c 8029 52bc
00000020: d5c1 94bc c39d 3b3c c244 2e3d 5a30 9b3c
00000030: 6360 c2bb 195d 883c cdd6 023d 7447 9d3c
00000040: c93f 99bb 9574 09bd d034 e5bc 81ca 17bd
00000050: 046c 093d 64b0 483c de3c a6ba 5f14 1a3d
00000060: 7bc1 0cbd 8dff db3b 40d5 e53b 5647 b8bc
00000070: 59c5 983c 2e91 043d c60e 543c a530 44bc
00000080: 1f91 afb9 8346 9ebc 9ce7 ff3c 120f 233d
00000090: 110d 663b 5286 d43c f810 0ebd cabd 8bbc
000000a0: 3de5 023c 0a73 633c 109e 27bd bf62 4b3b
000000b0: d61e 1f3d 6c15 22bd 5673 1e3d bd91 143d
000000c0: e116 6abc 8b58 1c3c eff0 d5bc 43a0 02bd
000000d0: fddb f8bc 7b75 80bc fbdb 08bd 4e07 043d
000000e0: bff1 7c3c 379b 06bc d496 20bd 4f4a bc3c
000000f0: 0f52 48bc 3f5b 1aba 5b2c ba3c d908 01bd
00000100: eda1 a23c 82c6 223c c966 223b 0d74 053d
00000110: 1b2f 8ebc 5866 15bc fdd9 783c 1abc 0b3d
00000120: 6d0c a7bc 5d3c 1bbd 0f1a 2c3d 4b71 d03c
00000130: 982b 4b3c 2b63 19bd 6b74 cc3c db5e 86bc
00000140: 6faf 1ebd 13be 0c3d 9f49 093d aba9 27bd
00000150: 4d82 0abd ba2c 243d ccff 80bc a3fd b4bc
00000160: 8b9b 86bc ec71 24bd 64da 0fbd 5829 b53c
00000170: e381 0fbd 5cdb 0f3c ce69 debc b940 273d
00000180: 7bfb 47bc 6ed1 08bd 24d8 813c f5ae 34bd
00000190: 25b7 38bb 5711 99bc de26 1cba 1fbd bfbc
000001a0: 337d 31bc a3fe 4c3c d1fe 0fbd d5bb 25bd
000001b0: 5e1d a43c c4ad 88b9 ca93 343d 1969 b6bc
000001c0: 7308 ffbc 7abf debb ee28 253d 54e8 0abd
000001d0: 344e e73c 4b38 25bd 6575 17bd 272b fb3c
000001e0: 3eda a6bb eac6 2db9 27ff 033d a447 183d
000001f0: c987 e8bb 146a 3bbc 2d0f b4bc eb0d 6c3c
00000200: 83cd d53b 9546 303d 2887 113d 3d40 8fbc
00000210: 9e3b 0dbd e8b2 483c df6a 0dbc bafe e93b
00000220: 3ee5 01bc ebf8 9fbc 3305 a13c 55bf 8cbc
00000230: a8ad 53bc e78e cebc 0856 abbc 7ea7 ec3a
00000240: 5c45 f9bc 1475 403c 1cf8 2c3c c091 dbbc
00000250: 9aca 5c3c 5182 8d3a 1ca3 cc3b 1192 1f3d
00000260: f9cc 26bd 1b97 f9bc 46f9 3e3b 5f85 583c
00000270: 8074 6bbc ff3a 32bd b3eb dfbc edf5 9c3c
00000280: 92eb 0c3c d204 5ebc 52de a83c 03b6 8b3c
00000290: c210 813b dcd5 23bc 80fd 453b 14b9 863c
000002a0: 08ff 04bd bb8a a33b f52f 403c bff1 1dbd
000002b0: e834 f53c ccf7 fabc 6aef 32bc 8bc1 27bd
000002c0: 4dd2 f8b9 c457 babb 8a4a c7bc 11f6 e0bc
000002d0: eee3 16bd 400d 1e3d 8519 d13c 9702 0f3d
000002e0: dda5 933c d0f9 233c 7b0e e63c 2a61 28bd
000002f0: f1ed 13bd 3de6 d9b8 697f 20bd 83ab 9d3c
00000300: ffff 39bc 9a64 103d 88a2 77bc 2111 49ba
00000310: 3cc5 a53b 9e3e 713c de46 97bb 9acf ce3b
00000320: 9b69 ac3c d394 63bb c6a4 f5ba a3c4 293c
00000330: d91d a3bc 5530 debb 6446 72bc 5f86 d9bc
00000340: 9fbd 6fbc 7c97 203d f2d8 fb3c 926a ea3c
00000350: 302d 9abc edbc 223d f3c5 0e3d 392b 2c3d
00000360: 5a9d 0cbd 2e1b bdbc 2942 17bc 50ac 32bd
00000370: fc09 05bd 97f9 34bc 0266 253d 2b76 97bc
00000380: 328a 353c b473 acbc c716 8ebc 3151 cd3b
00000390: c3ea 803c f188 8abc 9be1 34bd cbcc 4f3b
000003a0: 64ad babc 7b1b 82bc 5d48 533a 09b0 323d
000003b0: c0e2 d0bc c9d4 823c 3079 a73c 2398 213d
000003c0: 98a2 01bd 4e18 1f3d f547 0c3d 0f54 953c
000003d0: 3256 b23c dc11 1dbd 2df7 e6bc cd09 0d3d
000003e0: 2c28 a2bc fccf 90bc a996 293d 41ce 5b3c
000003f0: 7a98 943c ebb3 06bb 6a79 25bd 0514 0f3c
0.017129049 -0.043449633 -0.017778326 0.00039418368 0.04366481 0.03677374 0.014970497 -0.012827277
-0.018158833 0.011451188 0.04254604 0.018943954 -0.0059319003 0.016645955 0.03194313 0.01919911
-0.0046767932 -0.033558447 -0.027979285 -0.037058357 0.033550277 0.012249086 -0.0012682935 0.037617084
-0.034364205 0.0067138136 0.007013947 -0.022494953 0.01864879 0.032365017 0.012942975 -0.011974488
-0.00033486725 -0.019320732 0.03123837 0.039809294 0.0035103003 0.025942955 -0.03468415 -0.017058272
0.007989225 0.013882408 -0.040922225 0.00310342 0.038847767 -0.03957121 0.03868421 0.0362718
-0.014287681 0.009542595 -0.026115863 -0.03189112 -0.030378336 -0.015681019 -0.033412915 0.03223353
0.015438496 -0.008215717 -0.03920634 0.022984652 -0.012226596 -0.00058882305 0.022726228 -0.03150258
0.019852603 0.009935023 0.0024780503 0.032581378 -0.017356446 -0.009118639 0.015188691 0.034114935
-0.020391667 -0.037899364 0.04201704 0.025444647 0.01240053 -0.03744809 0.024957856 -0.016402652
-0.038741525 0.034360956 0.033517476 -0.040933292 -0.03381567 0.040081717 -0.015746973 -0.0220936
-0.01643159 -0.040147707 -0.035120383 0.02211444 -0.03503598 0.008780327 -0.027150061 0.04083321
-0.012205954 -0.033402853 0.015850134 -0.044112165 -0.0028185335 -0.018685026 -0.00059567194 -0.02340561
-0.0108330725 0.012511882 -0.03515512 -0.040462334 0.020033535 -0.00026069407 0.044086255 -0.022266911
-0.031131959 -0.006797728 0.040322237 -0.03391297 0.028235532 -0.04033689 -0.03697719 0.030660225
-0.0050919345 -0.00016572667 0.032225754 0.037177697 -0.007096265 -0.011438865 -0.021979893 0.014407615
0.006524743 0.043036062 0.035529286 -0.017486686 -0.034480684 0.012249686 -0.008631437 0.0071409615
-0.007928191 -0.019527873 0.0196558 -0.017181078 -0.012919821 -0.025214626 -0.020915046 0.0018055288
-0.030428581 0.011746664 0.010557201 -0.026802897 0.013476038 0.0010796284 0.00624503 0.03895766
-0.04072282 -0.03046756 0.0029140278 0.013215392 -0.0143710375 -0.043513294 -0.02733407 0.019160235
0.008601086 -0.013550954 0.020613823 0.017054563 0.0039387653 -0.0099997185 0.0030210912 0.016445674
-0.03246978 0.004990903 0.011730184 -0.038560625 0.029932454 -0.030635737 -0.010921339 -0.04095606
-0.00047458932 -0.005686732 -0.024327535 -0.027461084 -0.036838464 0.038586855 0.025524864 0.03491458
0.018023426 0.01000829 0.028083077 -0.041108288 -0.03611559 -0.000103902516 -0.039184008 0.019246822
-0.011352538 0.03525219 -0.015114434 -0.0007670094 0.0050589126 0.014724402 -0.0046166023 0.006311369
0.02104645 -0.0034726157 -0.0018741123 0.010361823 -0.019911693 -0.006780664 -0.01478729 -0.026553331
-0.014632612 0.039206967 0.030743096 0.02861527 -0.018820375 0.039730955 0.034856748 0.042033408
-0.03432975 -0.02308425 -0.009232082 -0.04362136 -0.032480225 -0.011045835 0.040380485 -0.018488964
0.011080312 -0.021051265 -0.017344845 0.0062657823 0.015736943 -0.016911002 -0.044160467 0.003170776
-0.022787757 -0.015882244 0.0008059794 0.04362491 -0.025498748 0.015970604 0.020443529 0.03945173
-0.031649202 0.038841538 0.03424831 0.018228559 0.021769617 -0.03834711 -0.028194034 0.034433175
-0.019794546 -0.0176773 0.041403446 0.013415874 0.018139113 -0.0020554017 -0.040398993 0.0087328

FC4.bias f4 [128]
00000000: e8e4 d03c 11dd 38bb c641 61bc 49e5 f3bc
00000010: 876f ebbc 2ac7 063c 75f1 003d 03e1 9c3c
00000020: ca98 443c 750a 92bb 3856 2b3d 6a74 0ebb
00000030: 0d4b 0c3d 2cef c73c 55df 003d 8653 d9bc
00000040: 4a0f c63c 5453 70bc 5f84 32bd 5a24 6bbc
00000050: f0c7 97bc dddf 68bc 29c7 0f3c 77d8 023c
00000060: 58aa 283d e313 91bc 6341 acbb 3427 083d
00000070: d98a 24bd 0ece 0f3d d6d8 0b3d c355 c33c
00000080: 98f1 1fbc 5d7e dd3a 4931 1e3d cd23 67bc
00000090: 9621 c2b9 9183 dfbc cbbb 95bc 32f0 27bd
000000a0: 17e8 56bc eb40 babb b3a7 0ebd 88b7 86bc
000000b0: 3148 5f3c d797 9c3c dd57 9dbc 2b69 83bc
000000c0: 5c39 53bc 3c2b 00bd 655b 35bc 7f0d 5c3c
000000d0: 5470 f0bc d42d c6bc 07f4 ff3c 3099 09bc
000000e0: c28e 1eb9 8f4e b03c af0d 8ebc 5144 e93b
000000f0: fc73 e23c b068 003b eaa5 c2bc a70c 183d
00000100: dcf6 19bc e94d 42bc 5c3b 98bc d12d 2cbd
00000110: 2bf4 10bc 2910 983c ea53 023d e019 4ebc
00000120: ae97 1c3d becc 153c d26d 53bc eb98 143d
00000130: 1115 03bd 5eeb b73b 1965 c33c 4129 c6bc
00000140: 7762 1dbd d3c0 0ebc a70a cabb 1d82 dcbc
00000150: 97db 0dbb 9cbe 87bc 7789 d7bc 98be 513b
00000160: 92f5 1b3d a4ed 5d3c 89a1 c53c 646a 2cbd
00000170: 8ed4 b43b bda0 e03c 37da a7bc f854 0aba
00000180: 8eb3 32bc 975f d7ba 682f 253d 862e 7b3b
00000190: 3f3f 063c 3d42 fe3a 668f 6e37 42bf bc3a
000001a0: 0107 5f3c 7de2 cd3c 989c d03a d63f c43c
000001b0: d6f1 203d 744a 1ebd 2ff5 33bd 9843 1abd
000001c0: 85cb cdbc 3da4 aebb bd9a 883c ed98 803c
000001d0: a1d8 503c 855d 9f3c 7013 323c 4e99 143d
000001e0: 41c2 983c a0e8 9c3c 8a53 113d f0a7 ecbc
000001f0: 1c4a ffbc d26c bfbc 9abe 08bc 540e 8dbc
0.025499776 -0.0028207938 -0.013748592 -0.029772418 -0.028739704 0.008226195 0.03148027 0.019150263
0.011999318 -0.004456813 0.04183027 -0.0021736869 0.03425126 0.024406038 0.031462986 -0.026529085
0.024177212 -0.0146683045 -0.04358327 -0.014351929 -0.018527955 -0.014213529 0.008775511 0.00798618
0.041178077 -0.017709678 -0.005256818 0.033240512 -0.040171478 0.03510862 0.034142338 0.023844605
-0.00976219 0.0016898621 0.03862122 -0.014107657 -0.00037027587 -0.027284415 -0.018278023 -0.041000552
-0.013116858 -0.0056840084 -0.0348279 -0.016444936 0.013628052 0.019115372 -0.019206936 -0.016041359
-0.0128920935 -0.03129123 -0.011069153 0.013430952 -0.029350437 -0.024191774 0.031244291 -0.008398339
-0.00015121236 0.021521835 -0.01734051 0.0071187397 0.027643196 0.0019593649 -0.023760755 0.03712144
-0.009397235 -0.011859396 -0.018582992 -0.04203588 -0.008847277 0.018562393 0.031818308 -0.012579411
0.03823059 0.009143053 -0.012904601 0.036278646 -0.032002512 0.0056127748 0.023851918 -0.024189593
-0.03842398 -0.008712965 -0.0061658206 -0.026917512 -0.0021645778 -0.016570382 -0.026310666 0.0032004472
0.03807599 0.0135454275 0.024124878 -0.04209365 0.0055185026 0.027420396 -0.020489795 -0.00052769436
-0.010907067 -0.0016431686 0.040328413 0.003832729 0.00819379 0.0019398403 1.4219293e-05 0.0014400261
0.01361251 0.025132412 0.0015915809 0.02395622 0.039293133 -0.038645223 -0.043934997 -0.03766212
-0.02512146 -0.0053296373 0.016675347 0.01569792 0.012746961 0.019453773 0.010868892 0.036279015
0.018647315 0.019153893 0.03548006 -0.028888673 -0.031163268 -0.02336732 -0.008346224 -0.017218746

linear.weight f4 [1, 512]
00000000: 5ff1 243d 96b7 1d3d 42e1 c6bc e49a 11bd
00000010: 4250 203d acf1 85bc ed98 13bd 8625 08bd
00000020: d1fb 18bb 6fd2 b43c f795 473c 74b0 263d
00000030: 1376 223b 7c30 97bc 0d18 7b3c 7ddf fd3c
00000040: df89 bcba cc72 ae3c 16d4 c2bc 10d4 14bc
00000050: 164a f1bc 3376 91bc 86fc df3c 00bc 2f3d
00000060: c600 ce3c a4af d8bb 318e f53b fb2d 2bbd
00000070: ee14 2c3d 29b6 84bc d153 aabc 3c6d 03bd
00000080: 0eae 2fbd 05fd fbbc 24ac 33bd 86bd 85bc
00000090: 1633 c8bc 7015 fa3c a56d 743b b556 6cbb
000000a0: 6bae 9d3c ba57 34bd c4cf 893c 8370 edbc
000000b0: 9490 3abc 0209 95bc 5b30 16bc d237 bdbc
000000c0: adbb 27bd ce11 ed3c 8836 923c 628f 643c
000000d0: 5080 28bd 0000 ce3c 1184 80bc 1b10 143d
000000e0: 780a 533c 0995 b5bc f55f b9bc 4507 273d
000000f0: 5daa c7bc 8773 0e3d cc01 28bd 9301 203d
00000100: a2ff 173d 6cb3 dabc 8976 a3bc 53e4 713c
00000110: 06a6 29bd 9dfe 0f3d 9e5b 01bd 58ad debc
00000120: 7f6e 89bc 05de 59bb 60c2 553b 6628 923c
00000130: f733 433c 465d 29bd 9be9 e0bc baf7 af3c
00000140: 1d83 24bd ba68 13bd bb81 1c3a 3da0 973c
00000150: 7266 febc b733 eabc f423 283d 27a8 b83c
00000160: ba6e 46bb 95ed 473c a531 da3c bd77 e03b
00000170: 03fa 903c a261 cd38 d48e 29bd 599d 32bc
00000180: 915f fdbc 72c7 babc cddd 8f3c 7802 58bc
00000190: f47b d0bc 6589 5c3c 62b6 c5bc 6ae4 e8ba
000001a0: f000 ea3c 46c8 27bd 373f be3c af64 d5bc
000001b0: 9dbb 48bc 3345 953c 2d41 11bd 1a9d 02bd
000001c0: 0b21 143d 81cb 953b 20c6 c33c 7a16 febc
000001d0: 7a0a d23b 8437 27bd e7b1 1cbb 4d45 cd3c
000001e0: 5e37 33bd b3c3 553b e25d 21bc cc5d d33c
000001f0: 1630 173d ee79 013d 7570 e23c 8365 2fbd
00000200: 74ab 93bc 4b18 d13c a1b9 803c 67a0 b9bc
00000210: 939d a43c b253 18bd 8252 d7ba 790c f2bc
00000220: e3d7 b53b d6ae 1abd 9704 1f3d 7130 1fbc
00000230: 8dbb 06bd 7598 21bd fa81 e73b 2c9d b8bc
00000240: 67f3 2d3d c5d0 a9bc c531 fbbc a25d 103d
00000250: e571 23bb 8e2d 7e3c 9db8 28bd 9db3 9abc
00000260: 6adc cdbc 839a 333c 29d1 1ebc 013f 5a3c
00000270: bf2c 07bb ae25 d63c 9091 6a3c be0c fc3c
00000280: dd89 70bc a423 be3a 5c96 76bc 4d80 45bc
00000290: b9af 05bc c2b3 89bc 1c78 dd3c 444b 95bc
000002a0: 032a c53c 9d27 2ebc 4450 223d 31c1 e4bc
000002b0: e2b5 10bd 193f 853b 570f c53b 8207 5c3b
000002c0: c703 0fbd c895 24bd 4dae 0dbd cc01 f53c
000002d0: 552a 753c 69a2 07bc 50a9 e0bc 8cd4 68bc
000002e0: dc67 86bc 5c53 83bc 7d5f 983c 570f 563c
000002f0: 132f 163b 0eee f8ba 2d96 313d ee94 f93a
00000300: 19be fd3c a4f6 b2bc 553c 1abd c0c6 2f3d
00000310: 144c 16bd 98ac 47bc 54c8 83bb a0d6 14bc
00000320: d122 d4bc c41e a73c 7d7e 31bd 9c5b 3a3c
00000330: 4e27 0b3d 54e8 893c f917 b1bb fa00 62bb
00000340: d8ea a3bc 948c a9bc 3629 ca3c b5b2 d53c
00000350: 5d8e febc 194b bdbc fdc1 9c3c acde f03c
00000360: d91a 9cb9 09e0 603a 3338 9f3b 9548 2cbd
00000370: ddf6 ba3b f849 2fbc 151f 1c3d ac63 d83b
00000380: c4a5 05bd 3d00 f33c 887d 013d 9890 613c
00000390: f6d7 b63c 4ff2 29bd bc51 9cbb 6b9e b0bc
000003a0: 9f47 2e3d c658 9abc bc6b 72bc dfea 9739
000003b0: f9e3 1cbd af8c 18bd bbc3 9f3c 9b81 8e3c
000003c0: 3ecf 99ba 34b2 843b ea1a 25bd 46d1 7a3c
000003d0: 7e22 b93b b95d 7bbb 748b 023d d0a8 05bd
000003e0: 47fa f9bc 7bb0 2fbd 96f0 693b 831d 823c
000003f0: 15b9 5bbc fd67 d03c edb0 23bd 2503 96bc
0.040269252 0.03850516 -0.024277333 -0.035548106 0.03913904 -0.01635059 -0.036034513 -0.03323891
-0.0023343454 0.022072999 0.0121817505 0.040695623 0.0024789616 -0.018455736 0.015325558 0.030990357
-0.001438435 0.021294974 -0.023782771 -0.009083763 -0.029454272 -0.017756557 0.027342092 0.0429039
0.025146853 -0.006612735 0.007493757 -0.041791897 0.042012148 -0.016200142 -0.02079192 -0.032086596
-0.0428906 -0.030760298 -0.043865338 -0.016325723 -0.024438422 0.0305278 0.0037296799 -0.0036062424
0.019248208 -0.044028975 0.016822703 -0.028984314 -0.011387009 -0.018192772 -0.009166802 -0.023097906
-0.040950466 0.028939154 0.017848268 0.013950201 -0.041137993 0.025146484 -0.015687974 0.036148172
0.012880914 -0.022165792 -0.022628764 0.040778417 -0.024373228 0.034778144 -0.04101734 0.039064
0.037109025 -0.026696883 -0.019953983 0.014763909 -0.041418098 0.035154928 -0.031581514 -0.027182266
-0.016776321 -0.0033243906 0.0032617077 0.01784153 0.011914245 -0.041348718 -0.027455142 0.02148043
-0.040164102 -0.035988547 0.0005970259 0.018509025 -0.03105471 -0.028589113 0.041049913 0.022541119
-0.00302784 0.01220264 0.026635 0.0068502114 0.01769734 9.793347e-05 -0.041395977 -0.010901772
-0.030929359 -0.022800181 0.017561818 -0.013184182 -0.02544973 0.013460492 -0.024134818 -0.0017768268
0.0285649 -0.04096248 0.023223503 -0.026048986 -0.012251762 0.018221473 -0.035462547 -0.031888105
0.036164325 0.0045713787 0.023898184 -0.031016577 0.0064099403 -0.04082443 -0.002390975 0.02505746
-0.043753974 0.0032617867 -0.009849044 0.025801562 0.036911093 0.03161042 0.027641514 -0.04282142
-0.018026091 0.02552428 0.015713515 -0.022659494 0.020094668 -0.037189193 -0.0016427787 -0.029546963
0.0055494173 -0.037764393 0.038822737 -0.009716139 -0.032893706 -0.039452035 0.007065055 -0.022535883
0.042468455 -0.020729432 -0.03066338 0.035245545 -0.0024939713 0.015513791 -0.041191686 -0.018884474
-0.025129516 0.010962131 -0.009693422 0.013320685 -0.0020626036 0.026141014 0.014316931 0.030767795
-0.014681307 0.0014506471 -0.015050497 -0.012054515 -0.008159571 -0.016809348 0.027034812 -0.018224366
0.024067884 -0.010629562 0.03962733 -0.027924152 -0.035329707 0.0040663597 0.0060137915 0.003357381
-0.03491571 -0.040181905 -0.034590054 0.029908083 0.014963706 -0.008278468 -0.027424484 -0.014210831
-0.016406946 -0.01603096 0.01860022 0.013065181 0.0022916242 -0.0018991844 0.04335611 0.0019041577
0.030974435 -0.021846123 -0.037655193 0.042914152 -0.036693648 -0.012187146 -0.0040216837 -0.009084374
-0.025895508 0.020400412 -0.04333352 0.01137438 0.03397303 0.016834415 -0.005404469 -0.0034485445
-0.020009443 -0.020696916 0.024677854 0.02608619 -0.031073743 -0.023107098 0.01913547 0.029403053
-0.00029774642 0.0008578306 0.0048589944 -0.042061407 0.005705698 -0.010698788 0.03811558 0.0066036787
-0.03262879 0.0296632 0.031613857 0.013767384 0.022319775 -0.04149085 -0.0047704857 -0.021559915
0.042548772 -0.018841159 -0.014796194 0.00028975957 -0.03830335 -0.03724354 0.019502511 0.017395785
-0.0011734737 0.004049564 -0.04030887 0.015308684 0.0056498637 -0.0038355424 0.031871274 -0.032631695
-0.03051485 -0.042892914 0.003569638 0.015883213 -0.013410826 0.02544021 -0.03996365 -0.018312046
