dl/poal_dl/modelpara/20230826_175929__epochsbackbone200_epochsmqnet100_lrbackbone0.001_lrmqnet0.001_module.params (torch, 500719 bytes, 9 tensors)

FC1.weight f4 [128, 64]
0	0x3d28cf24	0.04121317
1	0xbd7ad6d4	-0.061240032
2	0xbdc6548a	-0.09684093
3	0x3ddb8bb6	0.10720007
4	0x3c97df78	0.018539175
5	0xbdd7858c	-0.10523519
6	0xbd96f87e	-0.07371615
7	0xbda4848e	-0.08033095
8	0xbdaf2ea0	-0.08553815
9	0xbdca7a30	-0.09886587
10	0x3da98be0	0.08278632
11	0xbdc1798a	-0.0944701
12	0x3cef7688	0.029231325
13	0x3d8594cc	0.065225214
14	0xbda912cc	-0.08255538
15	0x3d590e60	0.052992225
16	0x3b2ba9c0	0.0026193708
17	0xbddd1b4a	-0.107962206
18	0xbd458834	-0.048225597
19	0x3d3136fc	0.043265328
20	0xbdc11fdc	-0.09429905
21	0xbd982f9e	-0.07430957
22	0xbd311e10	-0.04324156
23	0xbd7d5570	-0.061849058
24	0xbd3b852c	-0.0457813
25	0x3d7a6738	0.061133593
26	0x3cdacdb8	0.026709422
27	0x3c82d628	0.015971258
28	0xbc64e1d0	-0.0139698535
29	0xbdddd04e	-0.108307466
30	0x3d80955e	0.062784895
31	0x3c1cd9c0	0.0095734
32	0xbdf21620	-0.11820626
33	0xbdbb1c78	-0.09136289
34	0x3d238b68	0.03992787
35	0x3d12b03c	0.0358126
36	0xbd9de404	-0.07709506
37	0xbc790960	-0.015199989
38	0x3dda52a4	0.10660294
39	0xbd8f1572	-0.06986512
40	0x3c8dae38	0.017294988
41	0xbd3a8608	-0.04553798
42	0xbd9b592c	-0.075853676
43	0x3cab4358	0.020906135
44	0xbd71d330	-0.059039295
45	0xbd1fa3c8	-0.038974553
46	0x3dcdc52a	0.10047372
47	0x3db7d09a	0.089753345
48	0xbde076c2	-0.10960151
49	0xbdfe98cc	-0.124314874
50	0x3d3ed878	0.04659316
51	0xbd082844	-0.033241525
52	0x3dd07ea0	0.10180402
53	0xbd4ca290	-0.04995972
54	0x3d30cf2c	0.043166324
55	0x3c6d80a0	0.014495999
56	0xbc1f20e0	-0.009712428
57	0xbd7726b4	-0.060339645
58	0xbc99fb10	-0.018796474
59	0xbda435e2	-0.0801809
60	0x3d187bdc	0.037227497
61	0x3cd1a080	0.025589228
62	0x3cde9ef8	0.027175412
63	0x3d8cb526	0.06870489
64	0x3d536934	0.051614
65	0x3ca9ce10	0.020728141
66	0xbccb58c8	-0.024822608
67	0x3dea3c34	0.11437264
68	0xbd1be3ac	-0.03805892
69	0xbd88c634	-0.06678429
70	0xbdf02730	-0.117262244
71	0xbb6e1900	-0.003633082
72	0xbdd69164	-0.1047695
73	0x3a852480	0.0010157973
74	0x3dd3f31c	0.10349104
75	0x3dbbf694	0.091778904
76	0x3de36884	0.11103919
77	0x3d6a5908	0.057213813
78	0xbcf503e8	-0.02990909
79	0xbd4e53bc	-0.050372824
80	0xbc05aed0	-0.008159354
81	0xbda84622	-0.08216502
82	0xbd1abf2c	-0.037779972
83	0x3dd114f0	0.10209072
84	0xbdfe06a8	-0.12403613
85	0xbd77e860	-0.060524344
86	0x3dc178a8	0.094468415
87	0xbcff3b30	-0.031156152
88	0x3cb86228	0.022507742
89	0xba352c00	-0.00069111586
90	0xbdd8f884	-0.105942756
91	0xbddf9be2	-0.10918404
92	0xbdca055c	-0.098643035
93	0xbd406ee8	-0.04698077
94	0xbdf7f234	-0.121067435
95	0x3d84b62a	0.064800575
96	0xbda0303c	-0.078217
97	0xbdb86e78	-0.09005445
98	0x3d942e9a	0.07235451
99	0x3db01898	0.08598441
100	0x3dffd0fa	0.12491031
101	0xbaa8eb80	-0.0012887567
102	0xbd1a5ab8	-0.037684172
103	0xbdb426a2	-0.08796431
104	0x3b937440	0.004499942
105	0xbda810ba	-0.08206315
106	0x3d1bda28	0.038049847
107	0xbdbe0e00	-0.09280014
108	0xbdc1de82	-0.09466268
109	0xbd967c8a	-0.07347973
110	0xbd62cb78	-0.055369824
111	0x3ddcf5f4	0.10789099
112	0xbc9969c0	-0.018727183
113	0xbda07bcc	-0.078361124
114	0x3db3bd20	0.08776307
115	0xbd9a36fc	-0.07530019
116	0x3dd25992	0.102709904
117	0xbced0bd0	-0.028936297
118	0x3ce034b8	0.027368888
119	0x3c694a40	0.014238894
120	0xbdacac60	-0.084313154
121	0x3dfebcb0	0.12438333
122	0x3df6ce0e	0.120510206
123	0xbd8e88e6	-0.06959705
124	0xbd23de08	-0.040006667
125	0xbd9b8d78	-0.075953424
126	0xbddde4ac	-0.10834631
127	0xbd4a3f04	-0.049376503
128	0x3d26f328	0.040759236
129	0x3d06efc8	0.032943517
130	0x3d108b78	0.035289258
131	0xbc80ce60	-0.015723407
132	0xbc7f64e0	-0.015588015
133	0x3d5aaefc	0.053389534
134	0x3dea4bd4	0.11440244
135	0xbd938ad4	-0.07204214
136	0xbd9791d8	-0.07400864
137	0x3d315834	0.043297008
138	0x3c6edec0	0.014579475
139	0xbdcc6d46	-0.0998178
140	0xbd671308	-0.056414634
141	0x3deb9d96	0.115046665
142	0x3db43540	0.08799219
143	0x3cdb9490	0.026804239
144	0x3dace970	0.08442962
145	0x3dbffadc	0.093740195
146	0xbd8438c0	-0.06456137
147	0x3d88888a	0.06666668
148	0x3ddbda08	0.107349455
149	0xbd4b45b4	-0.04962702
150	0xbddb49cc	-0.10707435
151	0x3dc2b1bc	0.095065564
152	0x3d4c3158	0.049851745
153	0xbdec1932	-0.11528243
154	0xbc5844e0	-0.013200015
155	0x3d419fc0	0.04727149
156	0x3dc84b44	0.09779981
157	0x3d9cd120	0.07657075
158	0x3de280d4	0.11059728
159	0x3d486fc0	0.048934698
160	0x3bf6f540	0.0075365603
161	0x3d7286fc	0.059210762
162	0xbdb4f15e	-0.088351
163	0xbb84a1c0	-0.0040476024
164	0x3d21ddec	0.03951828
165	0x3c974c70	0.018469065
166	0xbd9e69ce	-0.077350244
167	0xbd874b92	-0.06606211
168	0x3dcf2f86	0.10116486
169	0x3dcdcd04	0.10048869
170	0xbd98718a	-0.07443531
171	0xbd57e9dc	-0.05271326
172	0x3dec2a1c	0.11531469
173	0x3dcaf874	0.0991067
174	0x3d94f206	0.07272725
175	0xbd8e5dcc	-0.06951484
176	0x3def4c18	0.116844356
177	0xbdacf9d0	-0.084460855
178	0xbc9829d0	-0.018574625
179	0x3df2bf60	0.11852908
180	0x3dad135a	0.08450957
181	0xbcb2acc8	-0.021810904
182	0xbd017d14	-0.031613424
183	0xbc413e30	-0.011794612
184	0x3d70f1d4	0.058824375
185	0x3db90e70	0.09035957
186	0xbda04aae	-0.07826744
187	0x3dd4da0c	0.10393152
188	0xbda5029e	-0.0805714
189	0x3dc8b78c	0.09800634
190	0x3d5954dc	0.053059444
191	0xbde45a32	-0.11150016
192	0xbdf02a24	-0.11726788
193	0xbd5da9e0	-0.054117084
194	0xbd03269c	-0.032019243
195	0xbd8b29f4	-0.06795111
196	0xbdd1ff74	-0.10253802
197	0xbc104310	-0.008805051
198	0x3dba4bf6	0.0909652
199	0x3c8c7478	0.01714538
200	0xbdaa2edc	-0.08309719
201	0xbdc3bbc0	-0.09557295
202	0xbd356fdc	-0.04429613
203	0x3dbc274c	0.09187183
204	0xbde6534e	-0.11246358
205	0x3db414fa	0.087930635
206	0xbc5d50d0	-0.013508037
207	0x3d9ac36e	0.075568065
208	0xbdba0bca	-0.0908428
209	0x3d79c624	0.060979977
210	0x3c9528f0	0.018207997
211	0xbcf025e0	-0.029314935
212	0xbd2fad78	-0.042890042
213	0x3c2d6e20	0.010585338
214	0xbdd0cf76	-0.1019582
215	0xbd834bd0	-0.064109445
216	0xbccbaa80	-0.024861574
217	0xbb9200a0	-0.004455641
218	0x3dbd2732	0.092359915
219	0x3a32f700	0.0006826967
220	0xbd0e6d28	-0.03477207
221	0xbd15a32c	-0.036532566
222	0xbcb0a320	-0.021562159
223	0x3d94f26a	0.07272799
224	0x3cf89080	0.03034234
225	0xbcf3d558	-0.029764816
226	0xbd911da6	-0.07085733
227	0x3dbace8c	0.09121427
228	0xbdb02c5e	-0.08602212
229	0xbd27e0bc	-0.040985808
230	0xbdf4f78c	-0.11961278
231	0x3bd932e0	0.006628379
232	0xbd42e0f8	-0.04757783
233	0xbda23784	-0.07920745
234	0x3d853290	0.06503785
235	0xbd30dff8	-0.043182343
236	0xbd83752e	-0.064188346
237	0xbdd2a95c	-0.10286209
238	0x3dc7e3a4	0.09760216
239	0xbc196370	-0.009362087
240	0xbd5301c0	-0.05151534
241	0xba050200	-0.00050738454
242	0xbd8e6cd0	-0.06954348
243	0xbdf5378a	-0.11973484
244	0xbdb1fc5c	-0.08690712
245	0xbdef7250	-0.11691725
246	0xbc0d4c50	-0.008624151
247	0x3dfe3b5a	0.12413664
248	0xbdeec06e	-0.11657797
249	0x3dc43f82	0.09582426
250	0x3dad51f0	0.08462894
251	0x3ba15e00	0.0049245358
252	0xbd13adf8	-0.03605458
253	0xbc0b4400	-0.008500099
254	0xbdff9598	-0.124797046
255	0x3dbbb546	0.091654345

FC1.bias f4 [128]
0	0xbd17f9e0	-0.037103534
1	0x3df8b97e	0.12144755
2	0x3de00c7c	0.10939881
3	0x3cd60e98	0.026130006
4	0x3db3287a	0.08747955
5	0x3d2dfdf8	0.04247853
6	0x3df4d3f2	0.11954488
7	0x3db2b556	0.08725993
8	0xbde359ac	-0.11101088
9	0x3d99c728	0.07508689
10	0x3d829122	0.06375338
11	0xbc0e4360	-0.008683056
12	0x3d3d2270	0.04617542
13	0xbc200530	-0.009766862
14	0xbdb00b32	-0.08595885
15	0x3d7af6dc	0.06127058
16	0x3d880a80	0.06642628
17	0x3d8a6542	0.06757595
18	0x3decfa66	0.11571197
19	0xbdc6bece	-0.09704362
20	0x3cd2fa08	0.02575399
21	0xbde59e24	-0.112118036
22	0x3dc572b0	0.096410155
23	0xbc8a8758	-0.01691024
24	0xbdd86db2	-0.10567798
25	0xbce38da0	-0.027777493
26	0xbdc37472	-0.095436946
27	0xbdeec9ee	-0.11659609
28	0xbd04e340	-0.032443285
29	0xbc50c1a0	-0.012741476
30	0xbdf2956a	-0.11844905
31	0xbdd72af0	-0.105062366
32	0x3d188334	0.0372345
33	0x3d8f7376	0.07004444
34	0x3c6dae50	0.014506891
35	0xbc46ee60	-0.012141794
36	0x3df731ce	0.12070046
37	0xbdf75252	-0.12076248
38	0x3c419d60	0.011817306
39	0x3dab6d6a	0.083704785
40	0x3db722e2	0.089422
41	0x3d9627b2	0.0733179
42	0xbcea4888	-0.028599039
43	0x3d801682	0.06254293
44	0xbd573ab4	-0.052546218
45	0xbdf07e50	-0.11742842
46	0x3df50df2	0.119655505
47	0xbda9234a	-0.08258684
48	0x3de7e7ee	0.11323534
49	0xba84c180	-0.0010128468
50	0x3db3fdf0	0.08788669
51	0xbcc6ad98	-0.024252698
52	0xbc48bc40	-0.012251914
53	0x3dd9f0bc	0.106416196
54	0x3ddecd2e	0.10878979
55	0x3dea5d0c	0.114435285
56	0x3b413e00	0.0029486418
57	0xbced7150	-0.028984696
58	0x3b06be00	0.0020560026
59	0x3cd3b5d8	0.025843546
60	0x3d8399cc	0.06425819
61	0xbdec0168	-0.11523706
62	0x3d790300	0.060793877
63	0xbdd95720	-0.10612321
64	0xbdfeb61c	-0.12437078
65	0x3dd12a58	0.102131546
66	0xbd09bb78	-0.03362605
67	0x3d849a80	0.06474781
68	0x3d268e64	0.040663138
69	0xbbff1240	-0.007784158
70	0xbdda1686	-0.10648827
71	0x3d91edd2	0.07125439
72	0x3dfc9dfa	0.12334819
73	0xbdd7686a	-0.10517962
74	0xbd061064	-0.032730475
75	0x3deac470	0.11463249
76	0x3db39ea8	0.08770496
77	0xbd180ab0	-0.037119567
78	0xbc819760	-0.015819252
79	0xbcef18f8	-0.02918671
80	0xbb0088c0	-0.001961276
81	0xbd669948	-0.056298524
82	0x3cd2ce98	0.025733277
83	0x3c6ba7c0	0.014383256
84	0xbdeadde8	-0.114681065
85	0x3dce7aea	0.10082038
86	0xbdf99636	-0.121868536
87	0xbda885f6	-0.08228676
88	0xbda88102	-0.08227731
89	0xbdada53c	-0.084787816
90	0x3db7f35a	0.089819625
91	0x3d9ce458	0.076607406
92	0xbd907270	-0.07053077
93	0xbd4b3160	-0.049607635
94	0x3dd1a2c8	0.10236126
95	0x3d90a9dc	0.07063648
96	0xbcc52338	-0.024064645
97	0x3cc50eb0	0.024054855
98	0x3d89d8ae	0.067307815
99	0xbd9287c0	-0.071547985
100	0xbb802660	-0.0039108247
101	0xbd89ff70	-0.06738174
102	0xbd3ad288	-0.045610934
103	0xbd96bd40	-0.07360315
104	0xbd21b074	-0.03947492
105	0xbdfa38b4	-0.122178465
106	0xbdb149f0	-0.086566806
107	0xbd82598a	-0.063647345
108	0xbc998ba0	-0.018743336
109	0x3da6e59c	0.08149263
110	0xbdda0a3c	-0.10646483
111	0xbcdff0a0	-0.027336419
112	0xbdc7bdde	-0.09753011
113	0xbcf97b08	-0.030454174
114	0x3c80fcf0	0.01574561
115	0xbde29952	-0.110644
116	0xbd5ee2cc	-0.05441551
117	0x3de876c4	0.11350778
118	0x3bf01500	0.007326722
119	0x3c9bdf78	0.019027457
120	0xbd5ae180	-0.05343771
121	0xbd8fb1e8	-0.07016355
122	0xbdf05e66	-0.11736755
123	0xbdd935e8	-0.10605985
124	0xbda2b28e	-0.07944213
125	0x3cd398e8	0.025829747
126	0xbc621c30	-0.013800666
127	0xbdc37206	-0.095432326

FC2.weight f4 [128, 128]
0	0x3a0ade80	0.00052974373
1	0xbdb47023	-0.08810451
2	0xbd24181f	-0.040062066
3	0x3d3b55f5	0.045736272
4	0xbbaf8e61	-0.005357549
5	0xbba7a633	-0.005116248
6	0xbad13bb1	-0.0015963224
7	0xbda2c8a3	-0.07948425
8	0xbb2087cf	-0.002449501
9	0xbc96f27b	-0.01842617
10	0x3c97879d	0.018497283
11	0xbd074c25	-0.0330316
12	0x3d93a317	0.07208841
13	0x3c88a8af	0.016681997
14	0xbd4b19ea	-0.04958526
15	0xbd5a46ea	-0.053290285
16	0x3ce0cd2b	0.027441582
17	0x3d29b0ce	0.04142838
18	0xbcf75d3c	-0.030195825
19	0x3cdb67f2	0.026782963
20	0xbcea79e5	-0.028622577
21	0xbc1c53f2	-0.0095414985
22	0x3cc4e7d4	0.024036326
23	0x3c2d1cd0	0.0105659515
24	0xbdb413b1	-0.08792818
25	0xbcb03cd6	-0.021513384
26	0x3d116b37	0.03550264
27	0xbd17e6af	-0.03708523
28	0xbd89b5ff	-0.06724166
29	0x3d261bde	0.04055392
30	0xbda8fadc	-0.08250973
31	0xbdad4b45	-0.08461622
32	0xbc75659f	-0.014977842
33	0xbda4c703	-0.08045771
34	0x3d1d6656	0.038427673
35	0xba94f426	-0.0011364266
36	0xbc2134bd	-0.009839234
37	0x3d848b63	0.064718984
38	0xbcef6c64	-0.02922649
39	0x3d009a1b	0.031396966
40	0xbd0b776c	-0.034049436
41	0x3c423710	0.011853948
42	0x3d7cde03	0.061735164
43	0xbd30561b	-0.043050867
44	0xbd6cac5e	-0.05778157
45	0x3d2f4bf5	0.042797048
46	0x3bdf6c5d	0.006818338
47	0xbd3bf1f1	-0.04588503
48	0x3cf4dfbc	0.029891841
49	0x3a2de05f	0.000663286
50	0x3ca0ceeb	0.019629916
51	0x3d90b105	0.07065014
52	0xbdadb0ec	-0.08481011
53	0xbd0d3612	-0.034475394
54	0x3d243d8d	0.040097762
55	0xbcacf0c0	-0.021110892
56	0x3d23b665	0.039968867
57	0x3c8d21cc	0.01722803
58	0xbdb1eb41	-0.08687449
59	0x3d32c62f	0.043646034
60	0xbd97674a	-0.07392748
61	0x3c186468	0.009301282
62	0xbd528a00	-0.05140114
63	0x3cc08e9f	0.023505507
64	0xbd74015c	-0.05957161
65	0xbd9983da	-0.07495852
66	0x3caea262	0.021317665
67	0xbd727d20	-0.05920136
68	0xbafe2cac	-0.0019391975
69	0x3d8850de	0.06656049
70	0xbcba0e1e	-0.02271181
71	0xbc8fc981	-0.01755214
72	0xbd2fd134	-0.04292412
73	0x3da3ecc8	0.08004147
74	0x39a40296	0.00031282444
75	0x3d90f594	0.0707809
76	0x3cbdbaf1	0.02316043
77	0x3d8384d1	0.06421817
78	0xbd9df88d	-0.07713423
79	0x3c4add8c	0.012381922
80	0xbd3d9d8e	-0.046292834
81	0xbbdc381f	-0.0067205573
82	0xbd8f7b7f	-0.07005977
83	0x3d381d24	0.044949666
84	0x3d9d1e32	0.07671775
85	0xbd1840ee	-0.037171297
86	0x3d0719a4	0.032983437
87	0xbca6c3f8	-0.020357117
88	0xbd41f457	-0.04735216
89	0xbcf52e60	-0.02992934
90	0x3da2e473	0.079537295
91	0xbdb220e7	-0.08697682
92	0xbda7c2d3	-0.08191457
93	0x3d10cc18	0.03535089
94	0x3d070364	0.032962218
95	0x3d1707d9	0.03687272
96	0x3d3e2152	0.046418495
97	0xbd9ae06f	-0.075623386
98	0x3d6f6760	0.058448195
99	0x3d433fd5	0.047668297
100	0xbd32b544	-0.0436299
101	0x3d100b96	0.0351673
102	0xbbb722f2	-0.0055888826
103	0xbd05dd52	-0.03268177
104	0x3ca46321	0.0200668
105	0x3d84b9d0	0.064807534
106	0xbd50802d	-0.050903488
107	0xbd61a8d5	-0.05509265
108	0xbcdc291e	-0.026875075
109	0x3d2ab2f2	0.04167456
110	0x3da849c9	0.082171984
111	0xbcc9fbef	-0.024656264
112	0xbd34e8c9	-0.044167314
113	0x3d7f490d	0.062325526
114	0x3da94d5f	0.082667105
115	0xbcb71ecb	-0.02235355
116	0x3ca997df	0.0207023
117	0x3d138d2e	0.03602331
118	0xbd573d70	-0.052548826
119	0x3d79b693	0.060965132
120	0xbd53ebaf	-0.051738437
121	0x3ca447f3	0.02005384
122	0xbd287444	-0.041126505
123	0x3cd33458	0.025781795
124	0x3d16881d	0.0367509
125	0x3d36729a	0.044542886
126	0xbd132a3b	-0.035928946
127	0xbd639d0b	-0.05556969
128	0xbd86c83e	-0.06581162
129	0xbcbbbd4c	-0.022917412
130	0x399fc5e2	0.00030474277
131	0x3da56e4f	0.0807768
132	0x3d935ca6	0.07195406
133	0xbcbc3800	-0.022975922
134	0x3d1df8c6	0.038567327
135	0x3d51cda7	0.051221516
136	0xbd810162	-0.06299092
137	0xbd8d473b	-0.06898352
138	0xbd7a7967	-0.061150935
139	0xbd8750d4	-0.066072136
140	0x3c5ee63c	0.013604697
141	0xbb36e650	-0.0027908273
142	0x3d54156d	0.051778246
143	0xbd50595f	-0.05086648
144	0x3d8dd95e	0.06926225
145	0xbd6d6ca5	-0.05796494
146	0x3d6f4523	0.058415543
147	0x3d8e9fbd	0.069640614
148	0x3d3f2cea	0.046673693
149	0xbda0fa6a	-0.07860263
150	0xbbeb5a18	-0.007182371
151	0xbd7060b5	-0.058685977
152	0xbbfa2bb9	-0.0076346067
153	0x3d1f2896	0.038857065
154	0x3cb072d2	0.021539126
155	0xbc4c55e7	-0.012471653
156	0xbd7595de	-0.059957378
157	0xbd1f1869	-0.03884164
158	0x3daeb214	0.085300595
159	0xbd5e2d9d	-0.05424272
160	0x3d17ca91	0.037058417
161	0x3c8902fe	0.01672506
162	0xbc34ca42	-0.01103455
163	0xbbadb269	-0.005300809
164	0x3d6ef086	0.05833485
165	0xbc4bb9fc	-0.012434479
166	0x3d229f0b	0.039702456
167	0x3dac41fd	0.08411024
168	0xbcff8a29	-0.03119381
169	0x3cffab98	0.031209752
170	0xbd597d88	-0.05309823
171	0xbd1111d0	-0.035417378
172	0xbc417f21	-0.011810095
173	0x3d23c8e7	0.039986517
174	0x3cf8e8af	0.03038439
175	0x3d9f53b8	0.0777964
176	0xbd923776	-0.071394846
177	0xbd585bb5	-0.052821834
178	0xbd4d819b	-0.05017243
179	0x3d8249f6	0.06361763
180	0xbc98358a	-0.018580217
181	0x3da69c81	0.081353195
182	0xbd3fbbc3	-0.046809923
183	0x3d84befa	0.064817384
184	0xbd389f15	-0.045073587
185	0x3d7a029c	0.061037645
186	0x3db254e0	0.08707595
187	0xbb9af9a4	-0.0047294665
188	0xba10c42c	-0.0005522396
189	0x3aa738f3	0.0012758061
190	0xbd9b3027	-0.07577544
191	0xbda745e5	-0.08167628
192	0xbd345643	-0.044027578
193	0x3d09caf0	0.033640802
194	0xbd15fb47	-0.03661659
195	0xbc0d2a04	-0.008615974
196	0x3d3dac9a	0.046307184
197	0xbd5f22a9	-0.054476414
198	0xbd91fdb1	-0.07128466
199	0xbd7e34fb	-0.062062245
200	0x3c135f3d	0.008994875
201	0xbd7ec116	-0.06219586
202	0xbb73b325	-0.0037185636
203	0x3d2402f0	0.040041864
204	0xbd2a807c	-0.04162644
205	0x3d2bc0f8	0.041932076
206	0xbdb14140	-0.086550236
207	0xbd8494ac	-0.064736694
208	0x3ba43443	0.005011113
209	0xbd9e1388	-0.07718569
210	0xbda2866b	-0.079357944
211	0x3d976c4a	0.073937014
212	0x3c3061c3	0.010765496
213	0x3d0593f0	0.032611787
214	0x3b95eb1b	0.004575146
215	0xbd0e4fd2	-0.03474409
216	0x3d038bdc	0.032115802
217	0x3c16d3a7	0.009205735
218	0x3d28472a	0.041083492
219	0x3b2688e2	0.0025411178
220	0xbcd434a0	-0.025904
221	0x3d8a551b	0.06754514
222	0x3dad0820	0.08448815
223	0x3c4e5628	0.012593783
224	0xbd8e249b	-0.06940576
225	0xbd875364	-0.066077024
226	0xbd340429	-0.04394928
227	0x3b69e409	0.0035688898
228	0x3d1ac8a1	0.03778899
229	0x3c6b5dce	0.0143656265
230	0x3d6771a0	0.056504846
231	0x3c791283	0.015202167
232	0x3da79db7	0.081843786
233	0xbd7784ff	-0.06042957
234	0xbd829091	-0.0637523
235	0x3c508fc7	0.012729592
236	0x3d28be4d	0.04119711
237	0xbd8b250b	-0.06794175
238	0x3da577ea	0.080795124
239	0xbd678846	-0.056526445
240	0xbd4b8eee	-0.049696855
241	0x399d3e2d	0.00029991698
242	0x3d02cca2	0.031933434
243	0xbd676916	-0.056496702
244	0x3d897672	0.06712045
245	0xbc3d3070	-0.011547193
246	0xbd376b2f	-0.044779953
247	0xbce6d61b	-0.028178265
248	0xbd9f5282	-0.07779409
249	0xba034e71	-0.0005008942
250	0x3d919150	0.07107794
251	0x3bf3fb5c	0.007445736
252	0xbd1950d6	-0.037430607
253	0xbb3a2858	-0.0028405394
254	0x3c10204d	0.008796764
255	0xbd720bbc	-0.059093222

FC2.bias f4 [128]
0	0x3db12739	0.08650059
1	0xbd37a371	-0.044833604
2	0xbd0b7553	-0.034047436
3	0xbd08b72d	-0.033377815
4	0xbc2c7d2f	-0.010527893
5	0xbd987e88	-0.07446009
6	0xbbdf2f8e	-0.006811089
7	0x3d00e296	0.03146609
8	0x3d7c150d	0.061543513
9	0xbd40ac99	-0.047039602
10	0x3d3e519f	0.04646456
11	0xbd1dd50e	-0.038533263
12	0x3d22b450	0.03972274
13	0x3d647eb0	0.05578488
14	0x3d807a97	0.06273382
15	0xbd9b99d4	-0.075977
16	0xbd043d66	-0.032285117
17	0x3d32e592	0.043675967
18	0x3c1a8717	0.009431622
19	0x3c478c22	0.012179406
20	0xbc0e437d	-0.008683083
21	0xbda09f56	-0.07842891
22	0xbdb3dcfd	-0.087823845
23	0xbd235147	-0.039872434
24	0x3cb174f5	0.021662215
25	0xbd85a105	-0.06524853
26	0x3da76f04	0.081754714
27	0xbcd78ef7	-0.026313288
28	0x3d79bfb6	0.060973845
29	0x3d3239ca	0.043512143
30	0xbd40c50c	-0.04706292
31	0xbd4534cb	-0.04814605
32	0x3d50f8ed	0.051018644
33	0xbd1629f8	-0.03666112
34	0xbd105c02	-0.035243995
35	0x3d3c657d	0.045995224
36	0x3d8f4d34	0.06997147
37	0x3d89510c	0.067049116
38	0xbc84c26d	-0.01620599
39	0xbd6ececb	-0.058302682
40	0xbbd52412	-0.006504544
41	0x3ca04886	0.019565832
42	0xbd3a569e	-0.04549276
43	0xbbcd55b3	-0.0062663197
44	0xbdaa0ff8	-0.08303827
45	0x3cdd6dd5	0.027029911
46	0x3cc9e9d0	0.024647623
47	0xbd7ea21b	-0.062166315
48	0xbdb1e0a6	-0.086854264
49	0x3da5b70c	0.08091554
50	0x3d519488	0.05116704
51	0x3dadf259	0.0849349
52	0x3d03c03e	0.03216576
53	0xbd265546	-0.040608667
54	0x3cfa0dcd	0.030524159
55	0x3d9313ae	0.07181488
56	0x3da765e1	0.08173729
57	0xb8b7842c	-8.750739e-05
58	0xbd89daec	-0.06731209
59	0xbbac19f7	-0.0052521187
60	0xbd8d2f43	-0.0689378
61	0x3d5c2b5f	0.0537523
62	0xbda08b5f	-0.07839083
63	0x3d877fd4	0.06616178
64	0x3d9146a9	0.070935555
65	0xbb915e25	-0.0044362717
66	0x3d1d037c	0.0383334
67	0xbd3589ee	-0.044320993
68	0x3b57dede	0.0032939236
69	0xbc5b3e8e	-0.013381613
70	0xbd0598cf	-0.032616433
71	0xbcf5b038	-0.029991254
72	0x3da74f90	0.08169472
73	0x3d96c749	0.073622294
74	0xbdafffbc	-0.08593699
75	0x3d9ee4f9	0.07758517
76	0xbd907cc3	-0.070550464
77	0xbd7e932e	-0.06215208
78	0x3d02f460	0.031971335
79	0x3da08251	0.07837356
80	0x3c0ac7bd	0.008470473
81	0x3d696089	0.05697683
82	0xbd908d6c	-0.07058224
83	0x3d6bb459	0.05754504
84	0xbd5290ba	-0.051407553
85	0x3d0144e8	0.031559855
86	0x3d8fdc8f	0.0702449
87	0x3d8ada31	0.06779898
88	0xbca4cf3a	-0.020118345
89	0x3d8e7b4f	0.06957113
90	0xbd3ac736	-0.04560014
91	0xbd52fda5	-0.051511426
92	0xbd6e7002	-0.058212288
93	0xba63b52d	-0.000868636
94	0x3da0b1e4	0.0784643
95	0x3d7795d6	0.06044563
96	0x3c8c0dbd	0.017096395
97	0xbb73f7bc	-0.0037226519
98	0xbd2c4465	-0.042057414
99	0xbc998be3	-0.018743461
100	0x3d8a99e1	0.06767631
101	0xbd9eb75f	-0.07749819
102	0x3d924cb6	0.07143538
103	0x3c90cd52	0.01767603
104	0xbd4eaef2	-0.05045981
105	0xbd9a16b5	-0.07523862
106	0x3d67ba67	0.05657425
107	0xbd037c29	-0.03210083
108	0x3daf542d	0.08560977
109	0x3be2c4c2	0.006920428
110	0xbd5a4265	-0.053285975
111	0x3d0f2b30	0.034953296
112	0xbd71f6aa	-0.059073128
113	0xbc86bfd4	-0.016448893
114	0xbcc2df99	-0.02378826
115	0x3d09f0e4	0.033676997
116	0xbd6654af	-0.056233104
117	0xbbc76eca	-0.006086205
118	0x3b88f983	0.0041801347
119	0x3cf41baa	0.029798348
120	0xbd3a2b7e	-0.045451634
121	0x3d8babf3	0.06819906
122	0xbc5e6bdc	-0.01357552
123	0xbccf2e83	-0.025290733
124	0xbc4d5038	-0.012531333
125	0xbd95e0e1	-0.07318283
126	0xbc96b0b2	-0.018394802
127	0xbd7295ad	-0.059224773

FC3.weight f4 [128, 256]
0	0xbd574776	-0.052558385
1	0x3d0b2ed4	0.033980206
2	0x3d174f3c	0.0369408
3	0x3d359412	0.044330664
4	0xbcff57ec	-0.031169854
5	0x3d3bb660	0.045828223
6	0x3c960150	0.018311173
7	0xbd029906	-0.031884216
8	0xbcb0ddec	-0.021590196
9	0xbbff83b0	-0.007797681
10	0x3bb8c020	0.0056381375
11	0xbc0256c0	-0.007955253
12	0x3d27fc90	0.041012347
13	0xbc56d808	-0.013113029
14	0xbd68761e	-0.05675327
15	0x3d43fb50	0.047847092
16	0x3d0eba9c	0.034845933
17	0x3d38b9a6	0.045098923
18	0xbd7f2dc4	-0.062299505
19	0x3d6d0420	0.057865262
20	0x3d537ad0	0.051630795
21	0xbc832a00	-0.016011238
22	0x3d3bc71c	0.045844182
23	0xbd77d63a	-0.060507037
24	0x3cadba40	0.021206975
25	0x3d627b6e	0.055293493
26	0xbd6c8e78	-0.057753056
27	0xbb9485c0	-0.004532546
28	0xbc09cd60	-0.008410782
29	0x3d7c9f44	0.061675325
30	0xbd46efee	-0.04856866
31	0xbd3ad31c	-0.045611486
32	0x3cb5a350	0.0221726
33	0xbd796294	-0.060885027
34	0x3d5e6f88	0.054305583
35	0xbd42c8b6	-0.047554694
36	0xbd72b4c2	-0.059254415
37	0x3d06c60e	0.032903723
38	0xbd74a94e	-0.059731774
39	0x3cef1f74	0.029189803
40	0xbc06d0b8	-0.008228473
41	0x3d5d8930	0.05408591
42	0xbcd63fd4	-0.026153482
43	0xbc2cc540	-0.010545075
44	0xbc09b5b0	-0.008405134
45	0xbc026bc0	-0.00796026
46	0x3c811c00	0.015760422
47	0x3b9a53e0	0.0047097057
48	0x3b9fbf10	0.0048750713
49	0xbd6ced44	-0.05784346
50	0xbc9b3264	-0.018944927
51	0x3c485018	0.012226127
52	0xbd33c9ec	-0.04389374
53	0xba6be200	-0.0008998215
54	0xbd236254	-0.039888695
55	0x3b4f6140	0.003164366
56	0xbc59c208	-0.01329089
57	0xbd7f4b28	-0.062327534
58	0x3d3a8cb2	0.045544334
59	0x3cf6ed80	0.030142546
60	0xbd3a2856	-0.045448624
61	0x3b932470	0.0044904277
62	0xbd6bccd0	-0.05756837
63	0x3d5e4e2a	0.05427376
64	0xbd4a1f4a	-0.049346246
65	0xbb077120	-0.0020666793
66	0xbb309500	-0.002694428
67	0x3c5132b8	0.01276844
68	0x3cc93fac	0.024566494
69	0xbafb3c80	-0.0019167811
70	0xbae8ce00	-0.0017761588
71	0xbb7ee340	-0.0038892776
72	0x3ca32b90	0.019918233
73	0xbc12c380	-0.008957744
74	0xbd78a394	-0.060702875
75	0xbd690cda	-0.05689702
76	0xbd21e91c	-0.03952895
77	0xb9837200	-0.00025071204
78	0x3d0c08b6	0.034187995
79	0xbd185338	-0.03718874
80	0x3d7bb600	0.061452866
81	0x3c9e3a68	0.01931496
82	0xbcbb5ee0	-0.022872388
83	0x3d5f9068	0.054581076
84	0xbc61bc08	-0.01377774
85	0xbcb01b80	-0.021497488
86	0x3d42ddd8	0.047574848
87	0x3d18f3f4	0.037342027
88	0xbd2e6222	-0.042574055
89	0x3cc7ec04	0.024404533
90	0x3d721652	0.059103318
91	0x3c36e898	0.011163853
92	0x3b4f0e60	0.0031594262
93	0x3d575aaa	0.0525767
94	0xbd269556	-0.04066976
95	0xbba8dd80	-0.005153358
96	0xbd42a3b4	-0.0475194
97	0x3d73464e	0.05939322
98	0xbbae1650	-0.0053127185
99	0x3c7326c0	0.014840782
100	0x3caaf96c	0.020870887
101	0x3d0b8010	0.034057677
102	0xbd745e46	-0.05966022
103	0x3c4d45f8	0.012528889
104	0xbceac920	-0.028660357
105	0xbc993bf8	-0.018705353
106	0xbd507346	-0.050891183
107	0x3c437738	0.011930279
108	0xbd740208	-0.05957225
109	0xbd0c3454	-0.03422959
110	0xba915240	-0.0011087134
111	0xbccf5a94	-0.025311746
112	0x3d20e168	0.039277464
113	0x3d19f2fe	0.03758525
114	0xbd4f0810	-0.0505448
115	0xbd117972	-0.03551621
116	0x3d1048c8	0.03522566
117	0x3d4686f8	0.04846856
118	0x3ca42d0c	0.020041011
119	0x3c238020	0.009979278
120	0x3d2e527e	0.04255914
121	0xbd31c5de	-0.04340159
122	0x3cec4bc0	0.028844714
123	0x3d055efe	0.032561295
124	0x3c7e2e18	0.015513919
125	0x3d2ca9d2	0.04215414
126	0x3ce32ba0	0.027730763
127	0xbcb863a4	-0.02250845
128	0xbc544a78	-0.012957208
129	0xbd04ec60	-0.032451987
130	0x3bb38aa0	0.005479172
131	0xbc8e6690	-0.01738289
132	0x3cfb6614	0.030688323
133	0xbc3251a0	-0.010883719
134	0xbd51e916	-0.05124768
135	0x3c4d20d0	0.01252003
136	0x3c4366c0	0.011926353
137	0xbc7dcf30	-0.015491292
138	0x3d3767ae	0.04477661
139	0xbd6d6910	-0.057961524
140	0x3c69bd20	0.014266282
141	0x3cb9be94	0.022673883
142	0x3bf321b0	0.0074197873
143	0xbd66bfb0	-0.05633515
144	0x3d2a34f2	0.0415544
145	0x3ccd18e0	0.025036275
146	0xbd2c85be	-0.042119734
147	0xbcca5b54	-0.024701752
148	0x3d3ba096	0.045807444
149	0x3ca02d48	0.019552842
150	0x3d67b276	0.056566678
151	0x3ccc0174	0.024903037
152	0x3d68ad1e	0.056805722
153	0x3c145a98	0.009054802
154	0x3b33b0e0	0.0027418658
155	0x3d77bba6	0.06048169
156	0xbcc348e8	-0.023838475
157	0xbd440186	-0.047853015
158	0xbc1e9c80	-0.009680867
159	0xbd1bd55a	-0.038045265
160	0x3ce493c8	0.027902499
161	0xbd303fda	-0.043029644
162	0x3c31ea48	0.01085908
163	0x3d555706	0.052084945
164	0xbd5acba0	-0.05341685
165	0x3c9a4fd4	0.018836893
166	0xbc3ea628	-0.011636294
167	0x3d38871e	0.045050733
168	0x3d6a59e6	0.05721464
169	0xbd6af74c	-0.057364747
170	0x3c87b264	0.016564555
171	0x3c375710	0.011190191
172	0x3bd1aa80	0.006398499
173	0xbc838ac0	-0.016057372
174	0x3d023b9a	0.03179512
175	0x3cda198c	0.02662351
176	0xbccf6904	-0.02531863
177	0xbd5986a4	-0.05310692
178	0x3c868c8c	0.01642444
179	0xbd62f476	-0.055408917
180	0x3cfaf104	0.030632503
181	0xbd29f02e	-0.04148882
182	0x3c736808	0.014856346
183	0x3d29f810	0.041496336
184	0x3d1796c8	0.03700903
185	0xbc52e008	-0.012870796
186	0x3cb8a3ac	0.022538982
187	0x3d6d5052	0.057937928
188	0xbd2308ce	-0.03980332
189	0x3bbcdf30	0.0057639107
190	0xbc971690	-0.018443376
191	0x3d1ac956	0.037789665
192	0x3c074ad8	0.00825759
193	0x3cad82a8	0.021180466
194	0xbcce84fc	-0.025209896
195	0xbaff9440	-0.0019499138
196	0xbc91c0d4	-0.017792143
197	0x3d10162a	0.035177387
198	0x3c44e410	0.012017265
199	0xbc062550	-0.008187607
200	0xba85f9c0	-0.0010221526
201	0xbd58bb5c	-0.052913055
202	0xbcfe6988	-0.03105618
203	0xbd24ee48	-0.040266305
204	0xbcdef600	-0.027216911
205	0x3d603138	0.05473444
206	0x3ba39b30	0.004992865
207	0x3d3dd0e0	0.046341777
208	0x3b4bf140	0.0031119138
209	0xbcddbf58	-0.027068779
210	0x3c896f2c	0.016776644
211	0x3d34d6d4	0.04415019
212	0xbc7ed658	-0.015554033
213	0xbca03034	-0.019554235
214	0x3cca0d2c	0.024664484
215	0xbd7db79a	-0.061942674
216	0x3c892544	0.016741402
217	0xbbd16b70	-0.0063909814
218	0x3c55d6e0	0.0130517185
219	0x3c1f0c38	0.009707503
220	0xbd781c02	-0.060573585
221	0x3d39c350	0.04535228
222	0xbd073e3a	-0.03301833
223	0x3cc1d278	0.02365993
224	0x3d3d04ea	0.046147265
225	0xbd1f456a	-0.038884558
226	0xbd3ef2dc	-0.046618327
227	0x3d544fca	0.051833905
228	0xbb22bd60	-0.0024832115
229	0x3c8445d8	0.016146585
230	0x3cd8f9e4	0.026486345
231	0xbc9f0ee4	-0.01941628
232	0xbd3b6b00	-0.04575634
233	0xbd53650c	-0.051610038
234	0xbd772428	-0.060337216
235	0x3d73fe2c	0.05956857
236	0x3b9cae40	0.0047815144
237	0xbd5d5338	-0.05403444
238	0x3a526e00	0.00080272555
239	0xbd5b0c6c	-0.053478643
240	0x3d5fca78	0.05463645
241	0xbc728398	-0.014801882
242	0x3cd77124	0.026299067
243	0xbd490b12	-0.049082823
244	0xbb987790	-0.004652925
245	0x3cbb1c3c	0.022840612
246	0xbd059632	-0.03261394
247	0x3d578262	0.052614577
248	0x3c8758f0	0.0165219
249	0xbd7c7c52	-0.061642
250	0x3d1f21d4	0.03885062
251	0x3ac0e9c0	0.00147181
252	0x3c76f978	0.015074126
253	0x3d3be8b4	0.04587622
254	0x3c8e0d78	0.017340407
255	0x3d24e15e	0.04025399

FC3.bias f4 [128]
0	0x3d55843a	0.052128054
1	0x3d491b50	0.049098313
2	0x3cba2d74	0.022726752
3	0xbd31b04c	-0.04338102
4	0xbcf3b220	-0.029748023
5	0x3d28b3da	0.041187145
6	0x3d06eeec	0.032942697
7	0xbc0fd4e8	-0.008778788
8	0x3d5a841a	0.053348638
9	0xbcd51224	-0.026009627
10	0xbd7b8e88	-0.061415225
11	0xbbdbde30	-0.0067098364
12	0x3d371c68	0.044704825
13	0x3d3aa45e	0.04556691
14	0xbcd8fb48	-0.026487008
15	0xbc1166a8	-0.008874573
16	0xbd65a50c	-0.056065604
17	0xbd1c1758	-0.0381082
18	0x3cb9b920	0.022671282
19	0xbce657f4	-0.028118111
20	0xbc8e7860	-0.017391384
21	0x3c9dd280	0.019265413
22	0xbd518318	-0.05115041
23	0xbd2a2aa8	-0.041544586
24	0x3c48bb28	0.012251653
25	0x3d423a74	0.047419026
26	0xbd188f10	-0.03724581
27	0x3d48f198	0.049058527
28	0x3bc0b810	0.005881317
29	0xbad20580	-0.0016023368
30	0xbd332eba	-0.043745734
31	0x3d79e85e	0.06101262
32	0x3caa6e28	0.02080448
33	0x3d53ea20	0.05173695
34	0x3d750c06	0.05982592
35	0xbd4b6d9e	-0.049665086
36	0xbd446bc0	-0.04795432
37	0x3d0773dc	0.033069476
38	0x3d7ae54c	0.06125383
39	0x398a3200	0.00026358664
40	0xbd42ca0c	-0.04755597
41	0xbbc9c260	-0.0061572045
42	0x3d6cc3fc	0.057804093
43	0xbbe73130	-0.007055424
44	0x3cd8d57c	0.026468985
45	0xbb9004a0	-0.0043950826
46	0xbcfb86b4	-0.03070388
47	0x3d1dce5e	0.038526885
48	0x3c692280	0.014229417
49	0x3d167894	0.036736086
50	0x3d328c4a	0.04359082
51	0xbd27e724	-0.040991917
52	0xbcd09e10	-0.025465995
53	0xbd5c1cea	-0.053738512
54	0xbd015828	-0.031578213
55	0xbc24fce0	-0.010070056
56	0xbd437972	-0.04772324
57	0xbc12e300	-0.008965254
58	0xbb8a4bc0	-0.004220456
59	0xbbd14f60	-0.006387636
60	0x3b09e9e0	0.0021043941
61	0xbc43c2e0	-0.011948317
62	0x3d06a0c0	0.032868147
63	0x3cc81ed8	0.02442877
64	0x3d2f093e	0.042733423
65	0x3d0e3cc4	0.03472592
66	0xbcf58544	-0.029970773
67	0x3cf11ee4	0.029433675
68	0x3cb8a750	0.022540718
69	0xb9acbd00	-0.00032947212
70	0x39892b00	0.00026162714
71	0xbd276a84	-0.040873066
72	0xbd3bceea	-0.045851626
73	0x3d32603a	0.0435488
74	0xbce1703c	-0.027519338
75	0x3d7f3992	0.062310763
76	0x3bb228a0	0.005436972
77	0xbd7cecb2	-0.061749168
78	0x3d2d39ac	0.04229133
79	0x3c959be0	0.018262804
80	0x3cc6c388	0.024263158
81	0x3d7e3034	0.06205769
82	0x3cde9d40	0.027174592
83	0xbcf1c0c0	-0.029510856
84	0x3c4ad1e0	0.01237914
85	0x3bc838f0	0.006110303
86	0x3cb08c2c	0.021551214
87	0x3c885d60	0.016646087
88	0xbd7ad142	-0.06123472
89	0xbc86d788	-0.016460195
90	0x3d5a935e	0.053363197
91	0x3d774072	0.060364194
92	0xbce1dfdc	-0.027572565
93	0xbcc0a494	-0.023515977
94	0x3cf8a7d0	0.030353457
95	0x3c9deaa8	0.019276932
96	0x3d229f7c	0.039702877
97	0xbd75029c	-0.05981694
98	0x3b074e80	0.0020646155
99	0x3ca875d4	0.020563997
100	0xbc369600	-0.011144161
101	0x3d79f9ae	0.06102913
102	0xbd3b27f0	-0.045692384
103	0xbc3a28a0	-0.011362225
104	0x3d0a7b18	0.033808798
105	0xbca3102c	-0.019905172
106	0x3d14b858	0.036308616
107	0x3cf43348	0.029809609
108	0x3d4f4476	0.0506024
109	0x3d63a338	0.05557558
110	0x3ba2ff80	0.0049743056
111	0x3ad38500	0.001613766
112	0xbd73ae1a	-0.059492208
113	0xbb253540	-0.0025208741
114	0xbc38be20	-0.011275798
115	0x3d0d7846	0.03453853
116	0xbd46edac	-0.048566505
117	0x3cd04800	0.025424957
118	0x3d6cc940	0.057809114
119	0xbd136aee	-0.035990648
120	0xbd6cfbb6	-0.057857238
121	0x3b70ec20	0.0036761835
122	0xbcc9b414	-0.024622
123	0x3d235396	0.039874636
124	0xbcdf3818	-0.027248427
125	0xbd36172a	-0.044455685
126	0x3d71be6e	0.0590195
127	0xbd06cede	-0.032912128

FC4.weight f4 [128, 512]
0	0x3c920e1e	0.017828997
1	0xbd2f5ad8	-0.042811245
2	0xbd0e7cc7	-0.034786966
3	0x3d331e09	0.043729816
4	0xbd05bfd3	-0.03265364
5	0x3b8044ef	0.0039144675
6	0xbc4c8547	-0.012482948
7	0xbcf14213	-0.029450452
8	0xbd2e1033	-0.042495918
9	0x3bbb43fc	0.0057148915
10	0xbcc24c4a	-0.023718018
11	0x3bdf2284	0.0068095345
12	0x3c99a2b7	0.018754346
13	0x3c3f8e5d	0.011691657
14	0x3d0c60e2	0.034272082
15	0x3cbc5a7c	0.022992365
16	0xbcb7460f	-0.022372274
17	0xbd303bb0	-0.043025672
18	0x3cb1e103	0.02171374
19	0x3cc1caa5	0.023656199
20	0xbc95069f	-0.018191634
21	0xbbee370e	-0.0072697466
22	0xbc41de3c	-0.01183277
23	0xbd09fb2c	-0.0336868
24	0x3cd14882	0.02554727
25	0xbafbfd87	-0.0019225337
26	0x3a412e57	0.0007369271
27	0x3ccfab4e	0.02535024
28	0xbacfece0	-0.0015863441
29	0xbc4e958e	-0.012608899
30	0x3cce2fc6	0.025169265
31	0x3cb261bb	0.021775117
32	0x3bcd424c	0.0062640067
33	0x3d110e5f	0.035414096
34	0xbcb68198	-0.022278592
35	0xbcc9e135	-0.02464352
36	0x3d0feaa9	0.0351359
37	0xbd091d6a	-0.033475317
38	0xbcea8c4e	-0.028631356
39	0xbb5596fa	-0.003259121
40	0x3ca1e351	0.019761713
41	0xbcd3b288	-0.025841966
42	0x3c297a81	0.010344149
43	0x3cd84331	0.026399227
44	0xbd2ccc53	-0.042187046
45	0x3ca52365	0.020158479
46	0xbca8ba6a	-0.020596702
47	0xbb8c67bd	-0.0042848275
48	0x3d0aae5a	0.03385768
49	0xbcc7a915	-0.024372617
50	0x3c0e4915	0.008684416
51	0xbd311672	-0.043234296
52	0xbcff0723	-0.031131333
53	0xbd0836cd	-0.033255387
54	0xbc17ab2b	-0.009257118
55	0x3d0f62b0	0.035006225
56	0x39ee6cc0	0.00045475923
57	0xbcb63b1d	-0.022244984
58	0xbd32e4bd	-0.043675173
59	0xbd1ebae3	-0.038752448
60	0x3d349ffb	0.04409788
61	0x3cb63f97	0.022247119
62	0x3c844240	0.016144872
63	0x3c8e7bbd	0.017392987
64	0xbd16a210	-0.03677565
65	0xbcf6ae0a	-0.030112285
66	0xbd044cb4	-0.032299712
67	0xbd0ffdb8	-0.035154074
68	0x3d07d435	0.03316136
69	0xbc89ee6a	-0.016837317
70	0x3c85a718	0.016315028
71	0xbc557f06	-0.013030773
72	0xbcf7d708	-0.030253902
73	0x3c8c84f1	0.017153235
74	0xbd1c88fd	-0.03821658
75	0xba52ec16	-0.0008046044
76	0x3cf5fc85	0.030027637
77	0x3d215006	0.039382957
78	0x3b6ec660	0.0036434159
79	0xbba23d55	-0.004951159
80	0xbd0e6ed3	-0.03477366
81	0x3bf33422	0.007421986
82	0xbc8762d9	-0.016526626
83	0x3c999172	0.018746112
84	0xbd01f3e7	-0.031726744
85	0x3c6d5afd	0.014487025
86	0x3d148c5a	0.036266662
87	0x3cc6a910	0.024250537
88	0x3d302531	0.04300422
89	0xbcf5a42d	-0.029985512
90	0x3cb100e2	0.021606866
91	0xbb19fd78	-0.0023497026
92	0x3aab587c	0.0013072635
93	0xbcabfd0d	-0.020994687
94	0xbd04005a	-0.032226898
95	0xbc3ab39a	-0.011395359
96	0x3cfe759a	0.031061936
97	0x3c61a267	0.01377163
98	0x3cf6acfa	0.030111779
99	0xbd25c4c8	-0.04047087
100	0x3c70c718	0.014695905
101	0xbcff93e2	-0.031198446
102	0xbc9ca198	-0.019120023
103	0xbba17c83	-0.004928173
104	0x3d2e6792	0.04257924
105	0xbc64877f	-0.01394832
106	0x3c864473	0.016390061
107	0x3d110863	0.03540839
108	0x3c216f68	0.0098532215
109	0xbc9dfb5f	-0.019284902
110	0xbc2d58ce	-0.010580255
111	0x3c081f21	0.008308203
112	0x3d0751d3	0.033037018
113	0x3cbdbe45	0.023162017
114	0xbc1412cd	-0.009037686
115	0xbd1124f0	-0.035435617
116	0xbceed8fb	-0.029156199
117	0x3c9cbedf	0.019133983
118	0x3ce1a555	0.027544657
119	0x3ccb5b4a	0.024823803
120	0xbc907e6f	-0.017638413
121	0x3cbea022	0.023269717
122	0x3cf1c621	0.02951342
123	0xbc1dda28	-0.009634532
124	0xbcdcc9ce	-0.026951697
125	0xbd134608	-0.03595546
126	0x3cac3764	0.021022506
127	0xbbdfa505	-0.006825092
128	0xba5fc532	-0.00085361593
129	0xbd08e0cc	-0.033417508
130	0xbc57e4d6	-0.013177117
131	0x3d06ea74	0.032938436
132	0x3d24bb8a	0.040217914
133	0xbd2a5bc7	-0.041591432
134	0x3b11c3b4	0.0022241892
135	0x3cc86f67	0.024467183
136	0xbcd87ab8	-0.026425704
137	0x3d109061	0.03529394
138	0xbc8411ec	-0.016121827
139	0x3d19ba64	0.03753127
140	0x3b3fb2fa	0.0029250965
141	0xbc96f1a9	-0.01842578
142	0x3b39d323	0.0028354607
143	0xbb8eb69e	-0.0043552658
144	0xbcb25e86	-0.021773588
145	0xbce36da3	-0.02776224
146	0xbcc965c3	-0.024584657
147	0x3d2b87bd	0.041877497
148	0xbc931f0c	-0.01795914
149	0xbd20a23f	-0.03921723
150	0x3cc34c15	0.02383999
151	0xbcbea7a6	-0.0232733
152	0x3ce9eac6	0.028554332
153	0x3caa2d53	0.020773565
154	0x3d0c33d1	0.034229103
155	0x3c6c88ab	0.014436881
156	0xbd11851c	-0.035527334
157	0x3d05fbef	0.032710966
158	0x3d06603e	0.032806627
159	0xbc157121	-0.00912121
160	0xbbd6905d	-0.006547971
161	0xbc8161a2	-0.015793625
162	0x3cae483d	0.02127468
163	0x3c95ac4e	0.018270638
164	0xbc1d27d0	-0.009592012
165	0xbc6a76fb	-0.014310594
166	0x3c888c77	0.016668541
167	0x3ab9aee6	0.0014166504
168	0xbcb766d7	-0.022387905
169	0x3c47e716	0.012201091
170	0xbcd7d81e	-0.02634817
171	0x3d1227fe	0.03568267
172	0xbd2e1da4	-0.042508736
173	0x3cbe6a38	0.023244008
174	0x3cc4a340	0.024003625
175	0x3c40ff2a	0.011779586
176	0xbc19bb44	-0.0093830265
177	0xbd07a502	-0.033116348
178	0x3c52d746	0.012868708
179	0x3d0ad8b2	0.033898063
180	0x3b657a58	0.003501555
181	0xbc6ac233	-0.014328527
182	0x3bd07d42	0.006362588
183	0xbd024667	-0.031805422
184	0xbd1e652d	-0.038670707
185	0xbb6b019e	-0.0035859118
186	0x3b4ea648	0.0031532217
187	0x3c7afe21	0.015319378
188	0x3d24dea2	0.04025138
189	0x3c8c2bf5	0.017110804
190	0x3d0f325c	0.034960136
191	0x3c820995	0.01587371
192	0x3cc61391	0.024179252
193	0x3cbd035c	0.023072891
194	0xbcfa280b	-0.030536672
195	0xbd1ad14d	-0.03779726
196	0xbcecc55c	-0.028902702
197	0xbba2d2d7	-0.0049689817
198	0x3c865b03	0.01640082
199	0x3a919196	0.001110601
200	0x3c0bab8a	0.008524785
201	0xbd0c9baf	-0.03432816
202	0x3ac3637f	0.0014906971
203	0xbd1dbeff	-0.038512226
204	0x3d08b854	0.033378914
205	0x3cd857f0	0.02640912
206	0xbbe0483b	-0.006844548
207	0x3d009947	0.031396177
208	0x3ca1ec1a	0.019765902
209	0x3d1394c7	0.036030557
210	0xbc61fcf5	-0.01379322
211	0xbccf02ef	-0.025269954
212	0x3c987cd6	0.018614214
213	0x3cf82b36	0.030294042
214	0x3c9ca6c1	0.019122483
215	0x3c715b7a	0.014731282
216	0xbd0bed70	-0.034161985
217	0x3cfc7e0b	0.03082182
218	0x3d091cc3	0.033474695
219	0x3caa960d	0.020823503
220	0x3c8f4ab6	0.01749168
221	0xbcc71b6d	-0.02430507
222	0xbca9cec8	-0.020728484
223	0x3ab04ea0	0.0013451166
224	0x3cba0e48	0.022711888
225	0x3cdf20f8	0.0272374
226	0xbcace595	-0.021105567
227	0x3a5d1d50	0.0008434849
228	0x3d23ea0d	0.04001813
229	0xbc99f3a8	-0.018792942
230	0x3c90b0c6	0.017662417
231	0xbc4ce665	-0.012506102
232	0x3c91b1e2	0.017785016
233	0xbd15fdba	-0.036618926
234	0x3cde26c1	0.027118089
235	0xbc99a270	-0.018754214
236	0xbc81b43e	-0.015833016
237	0xbc971c3b	-0.018446079
238	0xbb3cea91	-0.0028826336
239	0xbd288a94	-0.041147783
240	0xbcacf9fd	-0.021115297
241	0x3d30cbc8	0.04316309
242	0x3cd3fe01	0.025877954
243	0x3884e452	6.3367785e-05
244	0x3c7a041a	0.015259767
245	0xbc008af0	-0.007845625
246	0x3d062b1f	0.032755967
247	0x3d0a73ce	0.033801846
248	0x3d00261d	0.031286348
249	0xbcb3349a	-0.021875668
250	0x3d0f383b	0.034965735
251	0x3d15b504	0.036549583
252	0x3d0bc409	0.0341225
253	0x3c33bd40	0.010970414
254	0xbc36a7d8	-0.0111484155
255	0xbc5c02d2	-0.013428407

FC4.bias f4 [128]
0	0x3d09944f	0.033588704
1	0xbd0f80c8	-0.035034925
2	0x3bbc08bc	0.005738346
3	0xbd21da67	-0.039514925
4	0xbbc28d55	-0.0059372582
5	0x3d311b69	0.04323903
6	0xba4625b8	-0.0007558721
7	0xb95c92b8	-0.00021035492
8	0xbd30f417	-0.043201532
9	0x3c4f9483	0.012669685
10	0xbc7fae5b	-0.015605534
11	0x3c3160c9	0.010826298
12	0xbd0cec47	-0.03440502
13	0x3c0bfad3	0.008543688
14	0x3d06e6a7	0.03293481
15	0x3cf4265c	0.029803447
16	0xbcf16d4f	-0.029471068
17	0x3ce7fcf0	0.028318852
18	0xbc4f8eeb	-0.012668352
19	0x3d2d1607	0.042257335
20	0xbb99d173	-0.0046941577
21	0xbb6dbbf9	-0.003627537
22	0x3c22a3a4	0.00992671
23	0xbd0053cf	-0.031329926
24	0x3d145aaf	0.036219295
25	0xbc0d9481	-0.008641363
26	0xbcc1c765	-0.023654649
27	0x3c736109	0.014854678
28	0x3cfb81c9	0.030701535
29	0xbc57b44a	-0.013165543
30	0x3cadf7e5	0.02123637
31	0x3cc7f773	0.024409985
32	0x3c750c37	0.0149565255
33	0xbd0b096b	-0.03394453
34	0x3d2883e2	0.0411414
35	0x3d32963a	0.0436003
36	0x3be3281b	0.006932271
37	0xbc84eaf6	-0.01622532
38	0xbcae391a	-0.021267463
39	0xbbdfe99c	-0.0068332683
40	0x3d227618	0.039663404
41	0xbba711c0	-0.0050985515
42	0x3d054124	0.032532826
43	0xbaee47a0	-0.0018179305
44	0xbb91f28d	-0.004453963
45	0x3cbfac56	0.023397606
46	0x3c9c7d55	0.019102732
47	0xbc36c2a6	-0.011154806
48	0xbd1c8834	-0.03821583
49	0x3c81c846	0.015842568
50	0x3c5b1de0	0.013373822
51	0xbd14e18a	-0.036347903
52	0x3d28fa55	0.04125436
53	0xbcd7ff9b	-0.026367
54	0x3d1770ad	0.03697269
55	0xbc9246b8	-0.017855987
56	0x3d27cd69	0.04096738
57	0xbc86b1c9	-0.016442196
58	0xba2602e2	-0.0006332827
59	0xbc90f499	-0.017694758
60	0xbd22c129	-0.039734993
61	0xbcec03d5	-0.028810421
62	0x3cfeeb56	0.031118076
63	0xbb385baa	-0.0028130808
64	0x3c8e603a	0.017379869
65	0xbd16d633	-0.03682537
66	0xbcbbb7f3	-0.022914862
67	0x3c055b78	0.008139484
68	0x3cc21fdf	0.023696838
69	0xbd3267b6	-0.043555938
70	0x3ced6212	0.028977428
71	0xbb318b3b	-0.0027091044
72	0x3cf1b136	0.029503446
73	0xbc1e8f2d	-0.00967769
74	0x3b98bb9a	0.0046610357
75	0xbb16bfc4	-0.0023002485
76	0xbba30960	-0.004975483
77	0x3c82d86c	0.015972339
78	0x3c576304	0.013146166
79	0xbca5460b	-0.020175
80	0x3cea070f	0.028567819
81	0x3c30bc6d	0.010787112
82	0x3cd4d2cf	0.025979428
83	0x3ca8d3b4	0.02060876
84	0x3d1c0baf	0.03809708
85	0x3d11aa2e	0.035562687
86	0xbcfe2e40	-0.031027913
87	0x3d1e2847	0.03861263
88	0xbd34f822	-0.04418195
89	0xbc96798d	-0.018368507
90	0xbb7825da	-0.0037864358
91	0x3d020714	0.03174503
92	0xbcd89b83	-0.026441341
93	0x3c916222	0.017746989
94	0xbcbcc432	-0.023042772
95	0xbc6b709c	-0.01437011
96	0xbac75fda	-0.0015211061
97	0x3bd3303c	0.006444959
98	0xbd25b19e	-0.040452592
99	0x3c35e7aa	0.011102596
100	0xba96c15b	-0.0011501716
101	0xbd1ebbad	-0.0387532
102	0xbc497568	-0.012296058
103	0xbd2e6567	-0.042577174
104	0x3cc66c3e	0.024221536
105	0x3a3baa40	0.0007158853
106	0xbc8cb55b	-0.01717632
107	0x3cb6abcf	0.022298722
108	0x3d2ee921	0.042702798
109	0x398881ec	0.0002603674
110	0xbc8a9c4c	-0.016920231
111	0x3ccb439f	0.024812518
112	0xbd307e93	-0.04308946
113	0x3d29048c	0.041264102
114	0x3d3487aa	0.04407469
115	0xbd1757e8	-0.03694907
116	0x3d1668ed	0.03672116
117	0x3c07747e	0.00826752
118	0xbd14397e	-0.03618764
119	0x3c8c84a2	0.017153088
120	0x3c8075b1	0.01568112
121	0x3d08d868	0.033409506
122	0xbcd3e171	-0.025864335
123	0xbcaadef9	-0.020858275
124	0xbccac1e7	-0.024750663
125	0x3c73d91c	0.014883306
126	0xbd0ca21c	-0.034334287
127	0x3b8158e2	0.0039473632

linear.weight f4 [1, 512]
0	0xbc7276d4	-0.014798839
1	0x3cf8d9b4	0.030377246
2	0x3d30e170	0.043183744
3	0xbd0d254b	-0.034459393
4	0x3cc1bb99	0.023649024
5	0xbc23421f	-0.009964495
6	0xbd1c304f	-0.03813201
7	0x3c58d88b	0.013235222
8	0xbd0965e2	-0.03354443
9	0x3ce55878	0.027996287
10	0xbbd4ca94	-0.0064938758
11	0xbc2cf827	-0.010557211
12	0x3d329ab3	0.043604564
13	0x3cf50f2d	0.029914463
14	0x3d10ede0	0.035383105
15	0x3c4b60cd	0.012413216
16	0x3bcc73a5	0.006239372
17	0x3cdf4105	0.027252683
18	0xbc28c8ff	-0.010301827
19	0x3bef2126	0.007297653
20	0xbc4225a1	-0.011849792
21	0x3ce87e31	0.028380485
22	0x3c559a56	0.013037285
23	0x3cfee146	0.031113278
24	0x3d32b627	0.043630745
25	0xbd2b49db	-0.04181848
26	0x3ca4e81c	0.02013021
27	0x3c12526e	0.008930786
28	0xbcdd59b9	-0.027020322
29	0x3c9b1e06	0.018935215
30	0x3cfb2234	0.030655958
31	0xba229289	-0.0006201645
32	0xbc132d6f	-0.008983
33	0xbd24cdf9	-0.040235493
34	0xbced51ff	-0.028969763
35	0xbd0a04e8	-0.033696085
36	0x3d1d12df	0.038348075
37	0x3d111f39	0.035430167
38	0x3ca18bc5	0.019719968
39	0xbc68fc53	-0.014220315
40	0x3cc14785	0.023593673
41	0x3c6cdc27	0.014456785
42	0xbd2d0925	-0.04224505
43	0x3c513406	0.012768751
44	0x3d24fbe0	0.04027927
45	0xbd22fb7b	-0.03979061
46	0x3c854614	0.016268767
47	0xbc80263e	-0.015643235
48	0x3cafc86b	0.021457871
49	0x3c5109e2	0.012758704
50	0xba678e87	-0.0008833189
51	0xbd0b5e51	-0.034025494
52	0x3d344169	0.044007692
53	0xbcdb0556	-0.026735943
54	0xbcaa2397	-0.020768924
55	0x3c87ad8a	0.016562242
56	0xbd03fafa	-0.03222177
57	0x3cc4bcc6	0.024015795
58	0xbbce44bf	-0.0062948163
59	0xbc0a8ce5	-0.008456443
60	0x3ccf0f38	0.025275812
61	0x3d080ea7	0.0332171
62	0x3ca0f1f6	0.019646626
63	0x3c8ca731	0.017169567
64	0xbc4d1a59	-0.012518489
65	0x3ca47b3a	0.02007829
66	0x3ba42416	0.0050091846
67	0x3b175f21	0.0023097473
68	0x3d1bdfbd	0.03805517
69	0xba9c3289	-0.0011916916
70	0x3c4a4df5	0.012347688
71	0x3cd35252	0.02579609
72	0xbba51b9e	-0.0050386926
73	0x3caaa6de	0.020831522
74	0xbb22521a	-0.0024768175
75	0x3d33bedd	0.043883193
76	0x3d2eb606	0.04265406
77	0xbcd032cd	-0.025414849
78	0x3cd40b02	0.025884155
79	0xbcb9e5a5	-0.02269251
80	0x3d2f8cda	0.042858936
81	0x3d307cdc	0.043087825
82	0x3d1a7791	0.037711684
83	0xbc252633	-0.010079908
84	0x3cde807a	0.027160872
85	0xbce06bf9	-0.027395235
86	0x3cad95c0	0.02118957
87	0x3c964d45	0.018347392
88	0x3ca28394	0.019838132
89	0x3d2e580d	0.04256444
90	0x3b4bc1da	0.0031090886
91	0x3cafd2f5	0.021462897
92	0x3c2657c2	0.010152759
93	0xbd15afec	-0.036544725
94	0x3c9394f0	0.018015355
95	0xbd0cd286	-0.03438046
96	0xbb33997f	-0.0027404723
97	0x3c822bbb	0.015889993
98	0x3cf6a5aa	0.030108292
99	0xbd0c25a0	-0.03421557
100	0x3b926df1	0.0044686724
101	0x3d2cfbcf	0.04223233
102	0xbce0c130	-0.027435869
103	0xbc75d75a	-0.015004957
104	0xbba1520a	-0.00492311
105	0xbcf78cb3	-0.030218458
106	0x3ce2ff35	0.027709583
107	0x3d324ef9	0.043532345
108	0x3cf1192c	0.029430948
109	0xbc4bda78	-0.012442224
110	0x3be6a518	0.0070387237
111	0x3d0a6ca5	0.033795018
112	0x3c86ab83	0.016439205
113	0x3c69df21	0.0142743895
114	0x3d0e1524	0.03468813
115	0xbb3c3a69	-0.0028721339
116	0xbc9850b8	-0.018593177
117	0xbba5145e	-0.0050378283
118	0x3b13d9ec	0.0022560311
119	0xbd24f0a9	-0.040268574
120	0xbca3838d	-0.01996019
121	0x3d111d87	0.03542855
122	0x3cd1775a	0.025569607
123	0x3d27ef50	0.04099971
124	0x3c14ba7f	0.009077667
125	0xbc6d92f0	-0.014500365
126	0x3ce057a5	0.027385542
127	0x3cc24455	0.023714224
128	0xbc9d51f3	-0.019204115
129	0xbb4f79b5	-0.0031658236
130	0xbc25e98a	-0.010126481
131	0xbd1eae4d	-0.038740445
132	0x3c932bd5	0.017965237
133	0xbd01e0d8	-0.03170857
134	0xbd2e9907	-0.042626407
135	0xbc0b9171	-0.008518563
136	0x3cb585f4	0.0221586
137	0xbcbf9698	-0.023387238
138	0xbcee593a	-0.02909528
139	0x3d283216	0.04106339
140	0x3c079f2a	0.008277694
141	0x3d17ff70	0.03710884
142	0xbcfd54d4	-0.030924238
143	0xbd25b73f	-0.04045796
144	0x3d0bd967	0.034142878
145	0x3c0bbe96	0.008529326
146	0xbd0f0088	-0.034912616
147	0x3d0e2e62	0.034712203
148	0x3c7c731b	0.015408303
149	0x3ceb8ada	0.028752733
150	0xbd0f525d	-0.034990657
151	0x3c76fe3d	0.015075264
152	0xbca56d82	-0.020193819
153	0xbc0dc666	-0.008653259
154	0xbcab44ee	-0.020906892
155	0x3ca4c25e	0.020112213
156	0x3cba2261	0.022721471
157	0x3d08f271	0.033434335
158	0x3d004e94	0.031324938
159	0xbbf62e9d	-0.007512881
160	0xbca7104b	-0.020393511
161	0x3cae2e2d	0.021262253
162	0x3cd30281	0.02575803
163	0xbc42b38f	-0.01188363
164	0xbbd0c453	-0.00637106
165	0x3c09106e	0.008365734
166	0x3c3dfc54	0.011595804
167	0x3d07004d	0.03295927
168	0xbad8c645	-0.0016538581
169	0x3bc92296	0.006138156
170	0x3cb452dc	0.022012167
171	0x3c849189	0.016182678
172	0xbcdfe53c	-0.027330987
173	0x3b083e38	0.0020789038
174	0xbcb72cd9	-0.022360252
175	0x3caf9c48	0.021436825
176	0xbcb02b07	-0.021504892
177	0x3c0cc410	0.008591667
178	0x3d23d653	0.039999317
179	0x3c9613eb	0.018320045
180	0x3c731494	0.014836449
181	0xbca1319a	-0.019676972
182	0x3d29fe2c	0.041502163
183	0x3d1ba1a9	0.037995968
184	0x3aa6874a	0.0012705114
185	0x3b0dbdcd	0.0021628023
186	0xbc7d57fd	-0.015462873
187	0x3d2f8109	0.042847667
188	0x3cdeaab7	0.027181013
189	0xbac436ec	-0.0014969981
190	0xbd00bdd5	-0.031431038
191	0x3d145263	0.036211383
192	0x3ce46bc6	0.027883422
193	0xbcacba50	-0.021084934
194	0xbc0a46c8	-0.008439727
195	0x3c007d3d	0.007842359
196	0xbc36ff4e	-0.011169268
197	0x3cb30063	0.02185077
198	0x3ccd262e	0.02504262
199	0x3c092cd8	0.008372508
200	0xbc9b8b5f	-0.018987356
201	0xbc6ac6c6	-0.014329618
202	0xbd31a157	-0.043366756
203	0xbb649fc2	-0.0034885262
204	0xbd2e83a4	-0.04260601
205	0xbc292b98	-0.010325335
206	0x3bdafdae	0.006683073
207	0xbd31b4d7	-0.043385353
208	0x3d14d251	0.036333386
209	0xbce7351d	-0.028223569
210	0xbc911d06	-0.017714035
211	0x3c7158de	0.01473066
212	0x3c86c12a	0.01644953
213	0x3d05c304	0.032656685
214	0xbc7d79aa	-0.0154709015
215	0x3c628754	0.01382621
216	0x3d1b0720	0.03784859
217	0xbcbc2373	-0.022966122
218	0xbc8d3897	-0.017238898
219	0x3c45f351	0.012081937
220	0x3cfb3086	0.030662786
221	0x3cc1d053	0.023658907
222	0x3c165e68	0.009177782
223	0x3d1f3c84	0.03887607
224	0xbcccc1e4	-0.024994798
225	0xbc94b093	-0.018150603
226	0xbc62922e	-0.013828797
227	0xbce8819b	-0.028382113
228	0x3cb6926c	0.022286616
229	0xbd29b9b6	-0.041436873
230	0x3cd5b27f	0.02608609
231	0xbccde77c	-0.025134794
232	0xbce5a2c5	-0.028031716
233	0x3cb33705	0.021876821
234	0x3d0f86ed	0.035040785
235	0xbd32a639	-0.043615554
236	0x3d16dd66	0.036832236
237	0x3d342cff	0.043988224
238	0x3c26958b	0.01016749
239	0x3d2db314	0.04240711
240	0x3cce2d8b	0.025168201
241	0xbc4fb602	-0.012677671
242	0x3bfff385	0.007811012
243	0x3c86eccf	0.016470341
244	0xbcf50894	-0.029911317
245	0x3c9f2fe6	0.01943202
246	0xbbd7de1e	-0.0065877577
247	0x3d31d7e9	0.0434188
248	0xbcab8f84	-0.020942457
249	0xbd12bf0b	-0.035826724
250	0x3c1b0c1d	0.009463337
251	0xbd1f71f1	-0.038927022
252	0xbb772e03	-0.0037716634
253	0xbd117890	-0.035515368
254	0xbb7caccd	-0.0038555146
255	0x3cc55fac	0.024093471
