dl/poal_dl/modelpara/20230828_130657__epochsbackbone200_epochsmqnet100_lrbackbone0.1_lrmqnet0.001_module.params (torch, 500695 bytes, 9 tensors)

FC1.weight f4 [128, 64]
000000 74 3f b2 3d 5a c3 a2 3d 12 3c 87 3d 80 86 1f bc
       0.08703509 0.079474166 0.066032544 -0.009736657
000010 36 67 cc 3d 40 15 f7 3c 40 02 2c bc 54 89 68 3d
       0.099806234 0.0301615 -0.010498583 0.05677159
000020 8c 92 8b 3d b0 4a ea bd 80 64 5d 3b 30 b8 99 3c
       0.06815061 -0.11440027 0.0033781826 0.018764585
000030 a4 ad a8 3d 00 e1 66 bb 5a 08 b0 3d e2 25 af bd
       0.08236244 -0.0035229325 0.08595343 -0.085521474
000040 48 81 a1 bc 1e ca ce bd cc 2d 26 bd c8 80 b0 3c
       -0.019714966 -0.100971445 -0.04057102 0.021545783
000050 98 3f 91 3d e4 7f fc 3d 3c 00 3f 3d a4 ab 3b 3d
       0.07092208 0.12329081 0.046631083 0.045817986
000060 ea fb c5 bd 00 cc 95 ba 60 70 85 3c 10 4b 9b 3d
       -0.096671894 -0.0011428595 0.016288936 0.075826764
000070 c0 73 a7 3b d8 8a 83 3d 6a db 8b 3d 20 be a8 bd
       0.005110234 0.06422967 0.06828959 -0.082393885
000080 c0 30 b4 bb 60 7b 70 3d 2c 16 80 bd 78 0c 86 3d
       -0.0054989755 0.05871141 -0.06254229 0.06545347
000090 a4 23 20 bd 58 b6 ef 3d 50 e8 c8 bd a0 d7 57 bc
       -0.03909649 0.11704701 -0.09809935 -0.013173968
0000a0 4a 2e ea 3d 46 d4 cc bd d4 e2 97 3d f8 2b ca 3d
       0.1143461 -0.100014254 0.07416311 0.098716676
0000b0 4c e4 5b bd 28 27 13 bd 5c 8c c7 3d 00 92 ad 3d
       -0.053684518 -0.035926014 0.09743568 0.08475113
0000c0 00 2a 71 3d 2c 5d 4b bd 34 14 35 3d d0 98 6c bc
       0.058877945 -0.049649402 0.04420872 -0.01444073
0000d0 aa 87 ff 3d 76 7c 94 bd 58 51 a6 3d e0 43 90 3b
       0.12477048 -0.072503015 0.08120984 0.0044026226
0000e0 38 9c ed 3c 90 58 fe bc bc 48 fe 3d 94 18 50 3d
       0.029005155 -0.03104809 0.12416217 0.05080469
0000f0 84 2c 3f bd a8 01 15 bd 28 6f 9b bc a4 4c 3c 3d
       -0.046673313 -0.036378533 -0.018973902 0.045971528
000100 6c 17 c7 bd 14 b1 fc bd 60 4e bc 3d fa 2b 94 3d
       -0.09721264 -0.123384625 0.09194636 0.0723495
000110 20 88 3e 3c 5c 82 e6 3d 58 87 0e 3d 7c 70 8d bd
       0.011629134 0.11255333 0.034797043 -0.0690622
000120 c4 0e ad 3d 70 9c 15 3d 1e a1 f4 3d 88 73 86 bc
       0.08450082 0.036526144 0.11944793 -0.016412511
000130 00 5e f7 ba ac 0a 54 bd e0 56 30 3c 00 62 e1 3b
       -0.0018872619 -0.05176799 0.0107629 0.0068781376
000140 68 ea 21 3d 00 4a ef 3d 9a f9 e4 3d 80 69 0e 3d
       0.039530188 0.11684036 0.1118042 0.03476858
000150 86 c0 c6 bd c8 46 db bc bc 49 61 3d 48 67 17 bd
       -0.0970469 -0.02676715 0.05500196 -0.03696373
000160 9e 80 de 3d 9c 20 d7 bd 90 1a be bc 40 0e c8 3d
       0.108643755 -0.105042666 -0.023206025 0.09768343
000170 38 b7 b2 bc 80 a3 a3 3a dc 9b c8 bd 38 0e 1c 3d
       -0.021815881 0.001248464 -0.09795353 0.038099498
000180 c0 9f 21 3c 00 2c a8 3d 88 a0 08 bd dc 93 28 3d
       0.0098647475 0.08211517 -0.03335622 0.041156635
000190 64 90 be 3d 28 65 0d 3d 70 73 7a bd 30 cb ab bc
       0.09304884 0.0345203 -0.061145246 -0.02097091
0001a0 e0 9e a1 bb 54 0a dd 3d d8 e5 ce bc d4 46 33 bd
       -0.0049322695 0.107929856 -0.025256082 -0.04376872
0001b0 58 b4 40 3d 20 a1 dd bc 04 cc 04 bd 00 20 9a b8
       0.04704699 -0.02705437 -0.032421127 -7.349253e-05
0001c0 40 8e da 3b 08 96 f3 bd 7c 38 77 3d e0 d0 23 bd
       0.0066697896 -0.118938506 0.060356602 -0.03999412
0001d0 2a f8 a0 3d fc 36 0a 3d d6 02 86 3d f0 8b 14 3c
       0.078598335 0.033743843 0.0654351 0.009066567
0001e0 06 da f4 bd 0a c6 f7 bd 58 b8 1f 3d 52 77 eb bd
       -0.11955647 -0.1209832 0.038994163 -0.11497368
0001f0 80 ab a9 3b 0c 29 f1 bd 62 54 e2 3d 30 25 18 bd
       0.005177915 -0.11775407 0.11051251 -0.03714484
000200 c0 b5 04 bd b2 64 b9 bd c0 f0 9a bd c0 d9 5c bb
       -0.032399893 -0.09052409 -0.07565451 -0.0033699125
000210 3c b4 87 bd e2 36 a1 3d c0 63 98 3c 00 76 43 3d
       -0.06626174 0.07871796 0.018602252 0.047719955
000220 00 fc 06 3c 10 51 23 3d 46 ba d1 bd b0 9a d2 bd
       0.008238792 0.03987223 -0.10240607 -0.102834105
000230 e4 a4 2c 3d 60 2c e4 bd d8 a3 f6 3d 6e 6b f0 3d
       0.04214944 -0.11141276 0.120429695 0.117392406
000240 d0 95 97 bd ec 7f 0e 3d a4 3f f7 3d 10 dc 49 3c
       -0.07401621 0.034789965 0.12072685 0.012320533
000250 3c 49 3a 3d 24 d5 23 bd 76 63 d2 bd 1c bb a6 3d
       0.045479998 -0.03999819 -0.10272877 0.08141157
000260 74 4f a5 3d 76 e8 ec bd 98 41 d1 3d 48 b7 1a bd
       0.08071795 -0.11567776 0.10217589 -0.037772447
000270 52 fe c4 3d ba 34 ff 3d 46 0f a9 3d 18 cb fb bc
       0.0961882 0.12461229 0.08254866 -0.030736491
000280 40 36 d5 3c 00 ac 2d 39 88 ca 66 3d 66 08 c3 bd
       0.026026845 0.0001656264 0.056345493 -0.09523086
000290 e0 56 99 3b 68 34 c8 bc 8a 21 bf bd f0 95 0a 3d
       0.0046795458 -0.024439052 -0.09332569 0.033834398
0002a0 c0 64 e1 3d ea f8 e8 bd f0 15 8a 3d 42 80 b9 bd
       0.11005545 -0.113756016 0.067424655 -0.09057666
0002b0 04 63 dc bd a8 05 08 3d 30 3d c2 bc 80 0a 57 bd
       -0.10761073 0.03320852 -0.023710817 -0.052500248
0002c0 5a 3a 90 bd c4 fa 4f 3d a0 a3 fc 3d a8 9c b3 3d
       -0.0704238 0.050776258 0.123358965 0.08770114
0002d0 90 0f b7 bc dc 2c de bd 8c 1a 0a bd 9c 8e cf 3d
       -0.022346288 -0.108484 -0.033716723 0.101346225
0002e0 58 03 91 3d 32 ff 93 bd 8c 86 08 3d a8 a0 c3 bd
       0.07080716 -0.07226409 0.03333144 -0.09552127
0002f0 70 00 ac bc be a1 a0 3d 86 1a 81 bd 16 f9 ca 3d
       -0.020996302 0.0784335 -0.06303887 0.099107906
000300 30 b1 72 3d 5c 1e 50 3d 80 4c a6 bd c4 b8 37 3d
       0.05925101 0.050810203 -0.0812006 0.04485394
000310 7c 03 17 3d e0 61 3d bd c0 a8 59 3c 76 fe 8e bd
       0.036868557 -0.04623592 0.013284862 -0.06982128
000320 a0 ef 7d 3d 20 5d fa 3b 80 ab ee 3c e2 c2 e9 bd
       0.061996102 0.007640496 0.029134512 -0.11414124
000330 a8 78 9c 3d 6c 9e ea bd 18 93 a2 bd 40 58 fc bd
       0.07640201 -0.11455998 -0.07938212 -0.1232152
000340 c0 d2 d2 3c 7e 89 ac 3d aa 22 d1 bd 74 c0 9f 3d
       0.025735259 0.08424662 -0.1021169 0.078003794
000350 e0 86 bf bc ce e0 cc 3d 14 1e e1 3d d8 8a 1d 3d
       -0.023379743 0.100038156 0.10992065 0.03846249
000360 be d7 e2 3d 64 a7 91 3d 88 ab c7 bd e2 7f 9f bd
       0.11076306 0.07112005 -0.09749514 -0.077880636
000370 00 bd 1d bd 34 f0 c1 3d f8 60 c6 bd f0 9d ea 3d
       -0.038510323 0.09469643 -0.09686464 0.114559054
000380 70 db 6f 3c a8 ca 1a bd 80 1b 6a bb 40 b2 2f 3d
       0.01463972 -0.037790924 -0.0035721958 0.0428946
000390 88 78 80 3c ac 87 06 3d 60 a3 a4 3d 26 00 a3 bd
       0.015682474 0.03284423 0.08038974 -0.07959013
0003a0 a0 38 d4 bb 90 b5 2d 3d 20 11 c8 bd 10 9f 13 3d
       -0.006476477 0.04240948 -0.09768891 0.036040366
0003b0 1c cf d1 bd e8 6e 80 3d a4 d0 1f bd 0e d1 fe 3d
       -0.10244581 0.06271154 -0.039017335 0.12442218
0003c0 a2 06 a4 bd 00 12 b5 3d f0 08 0b bc 18 24 9b bc
       -0.080090776 0.08841324 -0.008486018 -0.01893811
0003d0 a0 1a 92 3c 3a c3 ad 3d 08 ff fb bc f4 be d8 bd
       0.017834961 0.08484502 -0.030761257 -0.105832964
0003e0 1e 7a bf bd 28 da 7b 3d 7a c5 ca 3d d2 55 91 3d
       -0.09349464 0.061487347 0.09900947 0.07096447
0003f0 68 e2 73 bd 64 75 f4 3d 06 e0 dd bd 74 59 df 3d
       -0.05954209 0.11936453 -0.10833745 0.10905734

FC1.bias f4 [128]
000000 e0 57 e7 bb e8 9e 6c bd e2 c5 e3 3d b2 7e ef 3d
       -0.007060036 -0.057768732 0.111217275 0.11694087
000010 9a d0 e4 3d 5c 07 79 bd 88 2d be bd e8 31 85 3d
       0.111726 -0.060798034 -0.09286028 0.065036595
000020 40 2b 9f 3b 90 1e 19 3d 40 4b 17 bc 70 e9 b8 bd
       0.0048574507 0.037382662 -0.00923425 -0.090289
000030 d0 95 0e 3c b4 a1 a3 bd 30 94 ae 3d 96 d6 b2 bd
       0.00870271 -0.07989827 0.08524358 -0.08732335
000040 88 a9 d6 bd 26 24 83 3d 52 59 bc 3d ee e1 93 bd
       -0.10481554 0.06403379 0.09196724 -0.07220827
000050 40 0a 86 bd f4 5a 1a bd 4e fe 8d 3d 14 2f 38 bd
       -0.06544924 -0.037684396 0.069332704 -0.044966772
000060 06 cf ee 3d d6 22 f5 3d dc bb 31 bd 2c 92 f1 3d
       0.1166058 0.11969535 -0.043392047 0.11795458
000070 dc 08 3a 3d 66 ea c8 3d 16 e6 81 3d 46 9e 89 bd
       0.045418605 0.09810333 0.063427135 -0.067196414
000080 18 10 bf 3c 44 42 70 3d 90 37 3d bc d4 30 91 3d
       0.023323104 0.058656946 -0.011548892 0.07089391
000090 58 64 a7 bd 34 19 b4 3d 10 ae 91 3d 14 4a 1b bd
       -0.08173436 0.087938696 0.07113278 -0.037912443
0000a0 08 11 2d 3d 2a 9c eb bd fc b0 cd bd 40 ea d9 bb
       0.04225257 -0.11504395 -0.10043523 -0.006650239
0000b0 5c c1 b8 bd 2a cf 98 3d 30 cf b2 bd 16 ca e9 3d
       -0.090212554 0.074613884 -0.08730924 0.11415498
0000c0 92 f5 ae bd 38 d1 74 bd a0 d0 71 bd 8c 38 1d 3d
       -0.085429326 -0.05976984 -0.05903685 0.038384005
0000d0 b0 c9 44 3c 18 73 62 3d 6c 5e bd 3d e6 d5 f8 bd
       0.012010977 0.055285543 0.09246525 -0.12150173
0000e0 50 a4 25 3d e8 b6 b9 3d c4 1b f8 3d 00 d3 5d 3a
       0.040439904 0.0906809 0.12114671 0.00084619224
0000f0 e0 71 d7 bc 00 10 8c b9 b6 67 9b bd 9e ab af 3d
       -0.026299417 -0.00026714802 -0.07588141 0.08577655
000100 16 13 b9 3d aa a1 ad 3d 38 31 70 bd a0 49 46 3d
       0.090368435 0.084781006 -0.05864069 0.048410058
000110 f4 44 e8 3d 6c bc 3b 3d 88 cc 12 3d b0 2f cf bc
       0.11341277 0.04583399 0.035839587 -0.025291294
000120 20 63 7a 3d 50 39 2b 3d 58 66 ef bc a4 d6 38 bd
       0.06112969 0.041802704 -0.029223606 -0.045126572
000130 c4 e6 28 3d 1c 24 5e 3d 10 83 90 3c c0 df fb 3d
       0.0412357 0.054233655 0.01764062 0.12298536
000140 3a 4f 9f 3d 82 63 e3 bd f0 9b 87 3c 28 09 da 3c
       0.07778783 -0.11102964 0.016553849 0.026615694
000150 80 cf 95 bb 46 78 8c bd 2a f0 b3 3d ba 68 fa 3d
       -0.004571855 -0.06858878 0.08786042 0.12227006
000160 18 92 a8 3c 88 3e fa 3c 00 04 06 bc 9a 81 e2 bd
       0.020577475 0.030547395 -0.008179665 -0.11059876
000170 aa 3b e3 3d 6e b8 82 3d fa 4e bf bd 2c 3a 62 3d
       0.110953644 0.063828334 -0.093412355 0.05523126
000180 94 a4 de 3d b0 f7 90 3c 8e 4a b3 3d 2e 0b ec 3d
       0.108712345 0.017696232 0.087544546 0.1152557
000190 40 12 fe 3d 5c 7a 1c 3d 6c 20 f7 3d 40 fc 34 bd
       0.12405825 0.03820263 0.12066731 -0.044185877
0001a0 c8 ef de bd 30 c5 09 3c 18 a3 b2 bd c8 59 43 bd
       -0.108855784 0.00840883 -0.08722514 -0.047693044
0001b0 00 52 22 bb 60 fb 72 bc ce d4 ef bd 54 0d 7a 3d
       -0.0024768114 -0.01483044 -0.11710511 0.061047867
0001c0 68 77 4f 3d 30 59 c8 3d 0c c6 de bd f0 a7 2d 3c
       0.050650984 0.09782636 -0.10877618 0.010599121
0001d0 34 72 25 bd 86 2e bb bd 72 28 b3 3d 16 db 8a bd
       -0.040392116 -0.09139733 0.08747949 -0.067800686
0001e0 88 45 d1 3d 40 13 e5 bb dc b4 ee 3d 40 86 db 3c
       0.1021834 -0.00699082 0.1165559 0.026797414
0001f0 c0 86 ed 3d c2 48 a6 bd 7e 4f ab 3d 80 37 96 ba
       0.11597967 -0.08119346 0.08364771 -0.0011460632

FC2.weight f4 [128, 128]
000000 d3 91 36 bd bd f8 a8 3d 46 1e 82 bc a8 12 03 3d
       -0.044572663 0.08250568 -0.015883576 0.032000214
000010 76 0c be bc e6 8b 8f bc 37 ce a3 3c f2 57 0f 3d
       -0.023199301 -0.017522763 0.019995792 0.03499598
000020 ff 43 34 3d 3a 41 a1 bd dc c6 92 3d cb 7d 94 3b
       0.04401016 -0.07873769 0.07166836 0.0045315973
000030 a6 e1 5c bd 31 e6 8c 3d 52 74 f8 bc f7 33 7e bd
       -0.053926133 0.06879843 -0.030328903 -0.062061276
000040 2c 3a 41 3d e3 97 41 3d 29 8d 45 3b a4 c6 b0 bd
       0.047174618 0.04726399 0.0030143952 -0.08631638
000050 9f 89 15 bd 25 ce 28 bd 95 5b aa bd f8 61 4a 3d
       -0.0365082 -0.04121222 -0.08318249 0.049409837
000060 44 70 bb 3c 7e 05 fe 3c 70 71 2a bb c4 2c 05 3d
       0.02288068 0.031008478 -0.0026007555 0.032513395
000070 ac 0f b4 3d 0a 7d 99 bb 5f 7d 71 3c 25 6d 62 bd
       0.08792052 -0.0046840953 0.014739363 -0.05527987
000080 f1 5a a4 3d d9 c5 95 bd e3 1e 51 bd b4 e1 b0 bc
       0.08025158 -0.07313127 -0.051054846 -0.021591999
000090 64 cb 70 3d 1d b0 33 3d a1 ea 65 bd 50 5a 02 3d
       0.05878772 0.043869127 -0.056131963 0.03182441
0000a0 c8 94 f8 ba 74 50 70 3c 79 e4 44 3d 04 25 ac bc
       -0.0018965239 0.014667619 0.04806945 -0.021013744
0000b0 cc a6 b3 bc 7e c6 b4 bd 0e b1 92 bd 18 56 19 3d
       -0.02193012 -0.08826922 -0.07162677 0.03743562
0000c0 09 a7 0a bd 0f 24 a9 bc 63 a1 cc 3c 10 ee 6c bd
       -0.033850703 -0.020647077 0.024979299 -0.05784422
0000d0 97 67 83 3d d1 b7 6d 3d 72 1e 4b 3d 83 66 fc bc
       0.064162426 0.05803663 0.04958958 -0.0308106
0000e0 bc 64 4b bc a4 4c f7 bc 97 2d 9f 3c 5a a6 85 3d
       -0.012414154 -0.030187912 0.019430919 0.0652587
0000f0 58 a6 18 bc fb b1 61 3d b5 a4 ba bc 48 84 99 bd
       -0.009317003 0.055101376 -0.022783617 -0.07495934
000100 e1 84 8a 3d 37 d2 e2 3c f6 75 ff 3c 86 56 52 bd
       0.06763626 0.027688129 0.031184178 -0.051352046
000110 ff 9a 6c bd da df 64 3d 8a 5e 01 bd f4 d3 b1 3c
       -0.057765003 0.055877544 -0.0315843 0.021707512
000120 70 f6 22 bd 7f 54 57 bc 70 30 5f bd 0d 4b 6a bc
       -0.039785802 -0.013142704 -0.054489553 -0.01430012
000130 9b fb 66 bd dd e8 90 bd ef 16 84 bd ee 0d e6 3c
       -0.056392293 -0.07075665 -0.06449687 0.028082814
000140 86 4a e9 bc 6f 96 d3 bc e8 c0 9c bc 54 99 be bc
       -0.028477918 -0.025828568 -0.019134954 -0.023266472
000150 09 de a2 bd 91 67 ec bc 45 0f 78 3d ed 70 a2 bc
       -0.07952506 -0.028857978 0.060561437 -0.019829238
000160 1f 3d e7 bc aa f9 9f 3d c6 8a 7c 3b dc 56 98 3d
       -0.028227387 0.078112915 0.0038534864 0.07438442
000170 e7 63 39 bc 90 4d 84 bd 41 bf 69 3d 0b be 95 3d
       -0.0113153225 -0.064601064 0.05706716 0.073116384
000180 87 c3 a2 3d 27 13 b6 bb f3 ff 99 bd 29 7e 9a bb
       0.0794745 -0.0055564824 -0.075195216 -0.0047147465
000190 38 28 a9 bd ce 71 38 3d 69 ed ec 3c 11 09 4f 3d
       -0.08259624 0.045030408 0.0289218 0.050545756
0001a0 11 b5 88 3d 5c 20 8a 3d 4d a1 ad 3d 3c 56 5b 3d
       0.06675161 0.06744453 0.08478031 0.053549036
0001b0 b9 81 04 3c f9 d1 94 bd eb 0a 1b 3c 41 dc 76 ba
       0.008087569 -0.072666116 0.009463052 -0.00094169757
0001c0 84 87 5a 3d f5 65 74 3c 11 9f 5f 3d c3 46 42 3d
       0.053351894 0.014916887 0.054595057 0.047430765
0001d0 e3 22 75 3c a2 b4 63 bd d4 e6 56 3d 57 ca b0 3d
       0.014961931 -0.055592187 0.05246623 0.08632343
0001e0 e3 16 0a 3d f7 84 0e bd 54 b6 8e bd 7c 4b d2 bc
       0.033713233 -0.034794774 -0.0696837 -0.02567076
0001f0 e5 72 78 bd e1 18 83 3c 14 76 80 bd 46 d9 5a 3d
       -0.060656447 0.016003074 -0.062725216 0.053429864
000200 98 63 63 bd a3 74 82 bd ad 87 a2 3d e8 4c 81 3b
       -0.055514902 -0.06369903 0.07936034 0.0039459355
000210 a3 c5 a4 3d a7 0c a5 3d 99 17 80 bd 08 e1 95 3d
       0.08045509 0.08059054 -0.06254501 0.07318312
000220 62 07 ae 3d 8d 5d 69 3c ea 83 88 bd 55 3f 37 bd
       0.08497502 0.014243496 -0.066657856 -0.044738133
000230 c4 ae 93 3d 09 50 f8 bc a7 20 82 3d c8 33 88 3d
       0.07211068 -0.030311601 0.06353884 0.066505015
000240 6b 65 88 bc 04 64 8c 3d 91 31 ce bc 98 77 5a 3c
       -0.016649922 0.06855014 -0.02517012 0.013334177
000250 7c 66 0d 3d 53 5c e3 bc 53 02 86 bd 89 99 4f 3d
       0.034521565 -0.027753985 -0.06543412 0.050683532
000260 e4 67 6b 3d 39 88 34 3d 28 1f f4 3b 6d 60 75 3d
       0.057472125 0.044075225 0.007450003 0.059906412
000270 3e 06 65 3d 2a c2 7b bd 73 7d 02 bc f7 ae a5 bd
       0.055914156 -0.061464466 -0.00796448 -0.080900125
000280 f4 3a 66 bd 63 4d 15 bd 05 a2 86 bd f1 5a 52 3d
       -0.056208566 -0.036450755 -0.065738715 0.05135626
000290 79 55 67 bd 10 8a 91 3d fd 4d 79 3d 3c 42 89 3c
       -0.056477997 0.071064115 0.06086539 0.016755216
0002a0 a8 9c 5d 3d 89 cc b4 bc 7f 8c 3d 38 a7 2a 5c bd
       0.054104477 -0.022070186 4.519196e-05 -0.053751614
0002b0 47 68 e3 bb c9 82 fa bb 3a 6c b4 3d e3 da 84 3c
       -0.006939921 -0.0076449853 0.08809705 0.016217655
0002c0 aa ed 9e 3d 18 3f 7b bd 8f 68 b3 3d e6 a1 06 bd
       0.077601746 -0.061339468 0.08760177 -0.032869242
0002d0 a7 4f 80 3d 29 05 54 bd 38 31 af 3d 9a 8e 99 3d
       0.062651925 -0.051762734 0.085543096 0.07497902
0002e0 7d 97 d8 bc 0c 30 3c 3d 3a 7a 53 3d 18 c1 2d bd
       -0.026439423 0.04594426 0.051630236 -0.042420477
0002f0 e5 af 82 3d 1f 86 e5 3c b3 cc 7c bd 82 14 a8 3a
       0.063812055 0.028018055 -0.061718654 0.0012823495
000300 c8 70 16 3d fd 82 98 bb 9b f9 51 bd 72 87 22 3d
       0.03672865 -0.004654287 -0.051263433 0.039679952
000310 5f e3 99 bd 31 33 86 bd 21 8b e6 bc fc 27 6e bc
       -0.07514071 -0.06552733 -0.028142514 -0.0145359
000320 15 7d 84 39 13 6e ee 3c 10 d5 b9 bc 3f 8e 87 bd
       0.00025270195 0.029105222 -0.022684604 -0.06618928
000330 71 94 7e bd d7 57 a3 3c c9 49 56 3d c2 b2 56 bd
       -0.062153284 0.019939346 0.05231646 -0.05241657
000340 f0 6f b4 bd 89 13 7c bc 05 cb 04 bd 0f 7d dd 3c
       -0.08810413 -0.015385517 -0.032420177 0.027037172
000350 ba ce 93 3d 97 d7 ee 3c 09 fd 82 3c 57 ac 5a 3d
       0.07217164 0.029155536 0.015989797 0.053387012
000360 8b 7d ea 3c 1e 11 fa bb 2c 43 62 3d 0e c3 5e bd
       0.028624317 -0.007631435 0.05523984 -0.054385237
000370 ca bc 92 bd ad 4e a2 3c 85 ca 0f 3c 8e 22 e4 bc
       -0.07164915 0.019812906 0.008776312 -0.027848508
000380 4f 2c 8a b8 61 52 5f 3c 64 5f 46 3d 49 53 7a 3d
       -6.588606e-05 0.0136304805 0.048430815 0.061114583
000390 9c 97 a4 bd 2a dc d9 3c 10 9b 64 bd b1 d6 a5 bc
       -0.0803673 0.02659424 -0.05581194 -0.020243974
0003a0 bf 95 f5 3b 4a c3 a3 bd 72 21 a9 bd 27 97 81 bd
       0.0074946578 -0.07996233 -0.08258332 -0.06327658
0003b0 5e 5f 77 bd 43 37 9d bd d5 b4 28 bd 8b 86 88 3c
       -0.060393684 -0.07676556 -0.04118808 0.016665718
0003c0 ef 6d 82 bb 11 f5 ea bb 95 c3 a0 3d 7d 4f 62 bd
       -0.0039803903 -0.0071703275 0.07849804 -0.055251587
0003d0 ad 1b 35 bd e0 f0 cf 3c c1 11 59 3d 0d 8c f4 bb
       -0.044215847 0.025383413 0.052995447 -0.0074629844
0003e0 5a 72 48 3d 9f d4 7e 3d 69 58 9d 3d 84 aa d8 ba
       0.04893718 0.06221449 0.076828785 -0.001653031
0003f0 cd 22 72 bd 8f 58 41 3d d3 0c 96 3c 30 e3 96 3c
       -0.05911522 0.047203597 0.018316662 0.018418878

FC2.bias f4 [128]
000000 c3 fa 45 bb 1f 5a 2f bd 3f c8 d2 bc 6c b4 24 bc
       -0.003020928 -0.042810556 -0.02573025 -0.010052782
000010 a0 8d 4f 3d 79 2e 56 bd fd 48 39 bc 82 ed 9c 3d
       0.050672174 -0.052290414 -0.011308906 0.076624885
000020 a6 d9 6d 3d 45 04 64 bd 82 bd 9f 3c 7e ef 84 bd
       0.058068894 -0.055668134 0.019499544 -0.06490992
000030 80 bb d5 bc 67 25 94 bd 68 2f 2b 3d af 1d 2b bd
       -0.026090384 -0.072336964 0.041793257 -0.041776355
000040 25 69 8e bc 14 c5 21 bd 75 8d 85 3d 91 1f b3 bd
       -0.017384121 -0.03949459 0.065211214 -0.08746255
000050 a3 1b 88 bc 79 3f ee 3c 7b 7a ba 3c af 35 22 bc
       -0.01661474 0.029083 0.022763481 -0.0099004945
000060 2d b4 29 bd 60 d1 36 bd b7 30 ab bd c9 74 26 3d
       -0.041431595 -0.04463327 -0.08358901 0.04063872
000070 ec ba 43 3d 2a ee 61 3d e9 26 53 3d d9 d3 b2 bd
       0.047785684 0.05515877 0.05155078 -0.08731813
000080 12 8e ff bc f2 9d a0 3d 39 3e 94 bd 2f 1e 24 bd
       -0.031195674 0.07842626 -0.072384305 -0.040067848
000090 3f fe 82 bd bd 24 9a bd cc 31 b7 3c e3 51 81 bd
       -0.0639615 -0.075265385 0.022362612 -0.06314447
0000a0 24 e5 62 3d 74 e0 81 3d 05 05 c9 3b bb 0b 55 bd
       0.055394307 0.06341639 0.0061346316 -0.05201314
0000b0 8a 2f bc 3c aa 03 03 bb 61 e4 a2 3d b2 73 4d bd
       0.022971887 -0.0019991198 0.07953716 -0.050159164
0000c0 95 3b 59 3d b4 cf 9b 3d ff d8 02 3d 51 8b 9c bd
       0.053035337 0.076079756 0.031945225 -0.0764376
0000d0 f2 c0 21 bd da 57 10 3d 9c 13 40 3d b5 f3 db bb
       -0.039490648 0.03524003 0.0468937 -0.0067124018
0000e0 e3 f4 77 bd b7 40 45 bd 12 b7 84 3d a5 d5 88 3d
       -0.060536277 -0.04815742 0.064802304 0.066813745
0000f0 81 26 50 bc 37 4f 53 3d 4c cc dd 3c db 8f 5c bd
       -0.012704493 0.051589217 0.027074955 -0.05384813
000100 15 a8 bf bc 58 22 86 bc 18 3c 80 3d 71 56 b2 3d
       -0.023395577 -0.016373798 0.06261462 0.08707894
000110 34 b0 7c 3d df 35 53 bd 71 f0 a7 3d a8 f1 19 3d
       0.061691478 -0.051565047 0.082001574 0.037583977
000120 74 c0 20 bd 74 69 0c bd 49 34 94 bd 98 79 e0 bc
       -0.039246038 -0.034280255 -0.07236535 -0.02740173
000130 e7 f6 9e bd 4e e7 3f 3d 40 5d 72 3d f3 96 08 3d
       -0.07761937 0.04685145 0.05917096 0.03334708
000140 97 92 8a bd 8b f0 b4 3d 00 f4 8e bc 6f 3c 5b bd
       -0.06766241 0.088349424 -0.017450333 -0.05352443
000150 dc 45 e1 3b e6 ef 41 bd 45 67 8c 3d 40 e9 e0 3c
       0.006874783 -0.047347926 0.068556346 0.027454972
000160 cf a1 19 3d be bd 3c bd 02 23 38 bc c2 38 2e bb
       0.03750783 -0.04607939 -0.011238815 -0.0026584123
000170 d3 a3 88 bd f2 d4 94 bd cd 59 83 3d ca 9b b0 3b
       -0.06671872 -0.072671786 0.064136125 0.0053896653
000180 4f bc 57 bc 6a b0 91 bd 9f 8b 33 3d ac 2c 6d 3d
       -0.013167455 -0.071137264 0.043834325 0.05790393
000190 45 ec 8f bd 29 49 d7 bc 81 61 1e bd 1e b3 b5 bc
       -0.07027487 -0.026280003 -0.038667206 -0.022180136
0001a0 08 88 3d bd 28 dd 99 bd f5 ee 26 bd 22 7b 86 3d
       -0.046272308 -0.07512885 -0.04075523 0.065664545
0001b0 4a cc f8 bc fe cc 1a bd 48 16 a3 3c d3 11 8b bd
       -0.03037085 -0.037793152 0.019908085 -0.06790509
0001c0 f3 cb 99 bd 8f b1 66 bd f5 45 80 3d 40 7d ae bd
       -0.07509603 -0.056321677 0.06263343 -0.08519983
0001d0 0c 9a fb 3c 16 6e 42 bc c1 79 86 3d b6 b6 65 bc
       0.030713104 -0.011867067 0.065661915 -0.014020612
0001e0 82 c3 34 bd 9d b1 9d 3d 6f 79 4e 3d 1e 15 5e 3d
       -0.044131763 0.07699893 0.050408777 0.054219358
0001f0 df 04 68 3d 05 c9 9b bc 4b 10 9a bb 4a d5 ab 3c
       0.05664527 -0.019016752 -0.0047016493 0.020975728

FC3.weight f4 [128, 256]
000000 60 11 3c bd e0 22 f5 bb 88 bc 83 bc 00 60 3e b7
       -0.045915008 -0.007480964 -0.01608111 -1.1347234e-05
000010 00 f0 fd 38 30 eb 23 bd 9c bb 4c bd 8e b9 60 bd
       0.000121086836 -0.040019214 -0.049983606 -0.05486446
000020 c0 9c 6a bd dc 8f a9 bc 28 d4 1b 3c 78 18 0d bd
       -0.057278395 -0.02069848 0.009511031 -0.034447163
000030 00 14 f0 3a c6 50 12 3d e0 97 bd bc d0 e4 18 bd
       0.0018316507 0.035721563 -0.023143709 -0.037327588
000040 f8 f2 5d bc ea e0 1a 3d bc 5e f1 bc 40 41 1a bd
       -0.013546698 0.03781215 -0.029464118 -0.037659883
000050 c4 8f 58 3d 58 ce 62 bd a0 f6 45 bc 90 d8 22 bd
       0.05287148 -0.055372566 -0.012082726 -0.03975731
000060 5e df 10 3d 90 96 f8 bb 00 88 16 39 06 b7 3b bd
       0.03536927 -0.007586308 0.00014355779 -0.04582884
000070 cc a2 dc bc 54 9b 2b bd 4c e0 43 bd b8 ce 10 3d
       -0.026933096 -0.04189618 -0.047821328 0.035353392
000080 80 01 34 bb d0 67 14 bd f4 2f 50 bd 48 f5 9e 3c
       -0.0027466714 -0.036231816 -0.05082698 0.019404069
000090 6c 84 2a 3d 40 3f e3 bc 24 4b d2 bc 48 ef 4c 3d
       0.041630194 -0.02774012 -0.025670595 0.050032884
0000a0 48 bb 81 3c 54 19 b7 3c 40 06 8d bc b0 04 92 bc
       0.015836373 0.022350945 -0.017214894 -0.0178245
0000b0 58 89 71 3c 32 b5 5d bd 10 8b 85 3b 4e 85 09 3d
       0.014742218 -0.05412788 0.0040754154 0.033574395
0000c0 18 d6 30 3d 70 bd 72 bc 00 5c 2d bc ba ba 41 3d
       0.043172926 -0.014815673 -0.010581017 0.047297217
0000d0 ec f1 09 3d 04 da ae 3c 0c 67 3d bd 2c fc ce bc
       0.03367798 0.021344192 -0.04624085 -0.02526673
0000e0 f0 f5 47 3d ea 5b 26 bd 7a 86 1b bd d8 1a 35 bd
       0.04881853 -0.040615 -0.037970044 -0.044215053
0000f0 38 47 9e bc f8 f9 5f bc 9a 7e 50 3d 40 29 56 bb
       -0.01932107 -0.013670437 0.050901987 -0.0032678396
000100 94 4f b1 bc 00 fc 6c 3b b0 92 62 3d 90 a1 1c 3d
       -0.021644391 0.0036160946 0.055315673 0.038240016
000110 d8 9b 58 3d 70 dd 56 3c b0 a5 9f bb 4a 73 58 3d
       0.052883 0.013114318 -0.0048720464 0.052844323
000120 64 ce 7e 3d 9e d6 3f 3d e8 fc 21 3d 10 90 94 3b
       0.06220855 0.046835534 0.03954783 0.004533775
000130 ac 46 09 bd 00 e6 e4 3c 7e fe 49 3d f0 e7 bd bc
       -0.033514664 0.027941704 0.04931497 -0.023181885
000140 4c 4f 2f bd 40 0d 61 bb 10 45 77 3d 26 c0 2d bd
       -0.042800233 -0.0034340173 0.060368598 -0.042419575
000150 b8 c6 d6 bc 08 1c 94 3c 70 41 1a bc 60 36 0e 3b
       -0.026217803 0.018079773 -0.009415016 0.002169989
000160 5a c8 6b 3d 64 10 13 3d 78 3e 00 3d 30 dc f7 bc
       0.057564117 0.035904303 0.031309575 -0.03025636
000170 dc d5 c8 bc 80 27 7d 3b 80 f5 cc 3a 70 11 2f 3c
       -0.024516039 0.003862828 0.001563713 0.01068531
000180 ec 56 ec 3c 2c 13 f8 3c 60 50 43 3c f0 af ac bb
       0.028850041 0.03028258 0.011921018 -0.005269997
000190 a4 94 7a bd e4 d3 b7 bc a2 9d 17 bd 98 17 c8 3c
       -0.06117691 -0.022439905 -0.037015565 0.024425313
0001a0 4a f7 3f bd fc cb cb bc c8 40 ae bc 10 8a 09 bd
       -0.046866693 -0.02487754 -0.021271124 -0.033578932
0001b0 d8 17 1d bc b4 5e 84 3c f8 6a 31 3c dc 2e 70 3d
       -0.009588204 0.01615844 0.010828726 0.05863844
0001c0 d0 7e 9f bb 7a 34 0a 3d 50 35 21 3d 50 c2 f3 3b
       -0.004867412 0.03374145 0.039357483 0.0074389353
0001d0 c4 40 32 3d 34 4c 2e 3d a0 64 15 3c c8 4f 9e 3c
       0.043518797 0.04255314 0.009118229 0.019325152
0001e0 3c a5 0b 3d 04 a5 c6 bc d0 db 0f bd 64 0a 81 3c
       0.034093127 -0.024248607 -0.03512174 0.015752025
0001f0 f0 39 be 3b d6 69 09 bd 64 91 59 3d d0 e0 84 bb
       0.0058052465 -0.0335482 0.05311717 -0.00405512
000200 20 78 18 bc 00 1a 6e ba e0 94 68 bb 80 5d 30 3d
       -0.009305984 -0.0009082854 -0.0035489127 0.04305792
000210 44 0d ff 3c e0 96 fa bb 82 ca 40 bd 50 a0 4b 3d
       0.031134255 -0.00764738 -0.047068126 0.049713433
000220 40 ef c1 3c ac eb d4 bc b4 d6 2e bd 7e f8 13 bd
       0.023673654 -0.025991283 -0.042685226 -0.036125652
000230 d8 5d c4 3c c6 41 1f bd d4 0b 59 3d c0 c4 85 ba
       0.02397053 -0.038881086 0.052989796 -0.0010205731
000240 1a 86 73 3d 62 22 4a 3d 28 95 0a bc 00 02 5b b9
       0.05945406 0.049349196 -0.008458413 -0.00020886213
000250 5c dd 2a bd 70 58 57 3d a8 a3 c8 3c e0 98 7c 3c
       -0.04171501 0.052574575 0.0244921 0.015417308
000260 e4 3f a4 bc 4a 0e 4d 3d b4 13 fd bc 70 85 09 3d
       -0.020049997 0.050062455 -0.030893184 0.03357452
000270 58 f5 6d bc 98 f7 54 bc 18 fc 73 bd b0 0b 77 bd
       -0.014523827 -0.012998484 -0.059566587 -0.06031388
000280 c8 b7 f0 3c d4 e5 bf bc 56 db 2c 3d 92 d2 2e 3d
       0.029384509 -0.02342502 0.042201363 0.042681284
000290 ec d3 26 bd b0 f5 60 3c aa 53 7b bd 18 b7 56 3d
       -0.04072945 0.013730451 -0.061359085 0.052420706
0002a0 08 f9 9d bc 90 42 63 bc 9c 98 89 3c 18 6b a6 bc
       -0.019283786 -0.01387085 0.016796403 -0.020314738
0002b0 e0 79 e0 3b 1e 08 38 bd b2 ca 51 bd 20 ed 3c 3c
       0.006850466 -0.044929616 -0.051218696 0.011531144
0002c0 40 f7 6f 3c e6 47 61 3d c0 99 4f 3b 10 b7 0e bc
       0.014646351 0.05500021 0.0031677336 -0.008710638
0002d0 40 53 ad 3a b4 29 1f bd 0a 0e 1e bd 48 58 e3 3c
       0.0013223663 -0.03885813 -0.038587607 0.027752057
0002e0 e0 91 2a bc c8 96 6e bd 22 68 32 bd 20 49 02 3d
       -0.010410756 -0.058249265 -0.04355634 0.03180802
0002f0 50 a3 25 3c 18 38 de 3c 4c 72 a1 3c 32 27 2a 3d
       0.0101097375 0.027126357 0.019707821 0.041541286
000300 20 16 67 3b b4 25 f3 bc 88 90 54 3c 60 86 ee 3c
       0.003526099 -0.029681064 0.012973912 0.02911681
000310 5e 4f 44 3d b0 d9 3e bc 98 17 13 3c 8a 6c 76 bd
       0.047927253 -0.01164858 0.008977793 -0.060162105
000320 e6 52 44 3d e8 e0 1f 3c 7c 87 d4 3c da 18 3e bd
       0.04793062 0.009758212 0.02594351 -0.04641042
000330 02 28 62 bd 48 9a b1 bc 80 23 2a bb 80 a3 56 3c
       -0.055213936 -0.021680012 -0.00259611 0.013100505
000340 48 5f 20 3d 42 1c 28 3d e4 ac 47 bd 44 b4 0d 3d
       0.039153367 0.041042574 -0.048748866 0.034595743
000350 f6 c3 00 3d 78 92 33 bd f0 3d cd 3b d0 41 bd bc
       0.031436883 -0.043840855 0.006263487 -0.02310267
000360 02 9f 43 bd 98 f2 f0 3c 5c 19 f5 bc ea 6c 47 bd
       -0.047759064 0.029412553 -0.029919319 -0.048687853
000370 c2 e7 3e 3d b0 c4 51 3d 78 2c 35 bd 70 1e f9 3b
       0.04660774 0.051212966 -0.04423186 0.0076025054
000380 ca 3a 16 3d 70 0b 8f bb 52 39 73 bd 60 96 b6 3b
       0.03667716 -0.004365377 -0.059380837 0.0055721253
000390 88 15 2e bd 04 53 85 3c 58 fe 41 bd 00 44 cd 3a
       -0.042501003 0.016274936 -0.0473617 0.0015660524
0003a0 80 3c 71 bb 06 1e 4f 3d da ad 74 bd c4 ad 68 bd
       -0.0036809742 0.050565742 -0.05973611 -0.05680634
0003b0 b4 84 cd bc 98 43 11 bd 86 8f 33 bd c0 00 0f 3c
       -0.025087692 -0.035464853 -0.043838046 0.008728206
0003c0 60 bf 4f 3b 50 b9 c5 3b da 68 69 bd 84 c2 f8 bc
       0.0031699762 0.006034054 -0.05698476 -0.03036619
0003d0 74 b2 28 3d ac 08 c4 3c 82 aa 26 bd 10 83 e3 3c
       0.04118581 0.023929916 -0.040689953 0.027772456
0003e0 60 56 b8 3b 22 ea 56 3d b0 61 aa bb 9c 40 c4 bc
       0.005625531 0.05246938 -0.0051996335 -0.02395659
0003f0 e4 8a 07 3d 4c b2 f2 3c fa 2c 70 bd 8e 92 64 3d
       0.03309144 0.029626034 -0.058636643 0.055803828

FC3.bias f4 [128]
000000 c0 54 31 bd dc b0 6d bd b0 1d 50 bc 0a e7 60 3d
       -0.043293715 -0.058029994 -0.012702391 0.054907836
000010 50 ff 84 bc a8 f5 1d bd 5e 8e 09 3d a0 b6 31 3b
       -0.016235024 -0.038564354 0.033583038 0.002711691
000020 5a c9 5d bd 14 6a b7 3c 70 14 18 3d 4c 63 13 3d
       -0.054147102 0.02238945 0.037128866 0.03598337
000030 92 2b 40 3d 4e 3c 7a bd 08 0f 41 bd 20 c5 25 3b
       0.046916552 -0.061092667 -0.047133476 0.0025294498
000040 ee aa 49 bd 7c a5 ea bc 80 7a 2d 3d 40 07 cd bb
       -0.049235277 -0.028643362 0.042353153 -0.006256968
000050 6c 12 33 bd f4 e2 62 bd 80 c2 82 3b 2c e1 37 bd
       -0.04371874 -0.05539222 0.0039904714 -0.044892475
000060 60 8c 0d 3b fc 2d 34 3d a0 19 38 3b 8e 83 28 bd
       0.0021598563 0.043989167 0.0028091446 -0.041141085
000070 28 57 df 3c 68 79 aa 3c ca 6e 69 bd ce b9 70 3d
       0.027263239 0.020809844 -0.056990422 0.058770947
000080 66 8f 52 bd 60 ac cf bb 20 09 20 3b 48 c4 53 bd
       -0.051406287 -0.0063376874 0.0024419501 -0.05170086
000090 64 ad d6 bc 30 dc e4 bb fc 38 c5 3c 78 fd c5 bc
       -0.026205726 -0.006984256 0.024075024 -0.024168715
0000a0 c8 0c 48 bd 50 77 1b 3d 24 b9 f1 bc 42 45 39 bd
       -0.048840314 0.037955582 -0.029507227 -0.045232065
0000b0 40 b1 2d bd 78 23 fb 3c 62 f3 5b bd e0 0d 7a 3d
       -0.042405367 0.030656561 -0.053698905 0.06104839
0000c0 10 b5 92 bc 10 c7 96 3c 50 00 1f 3d 44 9f 7a bd
       -0.017908603 0.018405467 0.038818657 -0.061187044
0000d0 18 c3 7a 3d e4 1b 77 3d 10 fd c3 bb f4 a5 d4 3c
       0.061221212 0.060329333 -0.005981095 0.025958039
0000e0 02 9d 43 3d c4 19 90 bc d6 dc 0f bd b8 6e 4b bd
       0.047757156 -0.017590411 -0.035122715 -0.049666137
0000f0 98 f6 21 bc 60 fc 53 bb f4 b7 eb bc a6 50 41 bd
       -0.009885453 -0.0032346472 -0.02877424 -0.047196053
000100 b8 0f 54 3d e4 30 c7 3c 18 29 c0 3c ec 50 12 bd
       0.051772803 0.024315305 0.023457095 -0.035721704
000110 a0 61 bd 3b c0 bf e2 bb 4c 48 4c 3d 48 a8 52 bd
       0.00577946 -0.006919831 0.049873635 -0.051430017
000120 28 72 31 3c 40 c1 ba bb 20 48 69 3d 38 1b 09 bc
       0.01083044 -0.0056993067 0.05695355 -0.008368306
000130 e0 84 75 3b 10 c5 b2 bc 74 06 ec bc dc 0b f6 bc
       0.0037463233 -0.021822482 -0.02881167 -0.030034952
000140 8c 92 2a bd 44 87 e6 bc 4c 83 46 3d c4 75 3b bd
       -0.041643664 -0.028140672 0.04846506 -0.045766607
000150 e4 9a 4c bd 30 a0 c4 3b b4 0e b5 3c 24 15 5b 3d
       -0.049952403 0.006000541 0.022101738 0.05348696
000160 90 d0 e7 3c 0a 83 7d bd 18 db 38 3c bc 16 2d 3d
       0.028297693 -0.061892547 0.011282705 0.04225801
000170 36 c6 6c 3d be 9a 3f 3d 7e 1f 61 bd 78 97 52 3d
       0.057806216 0.046778433 -0.054961674 0.051413983
000180 40 c7 a6 3a 1e f9 66 bd d0 5d 3a 3c c8 0a 13 bc
       0.0012724176 -0.05638992 0.011374906 -0.008974738
000190 6c 2e 64 bd 7e b2 50 bd 00 6e 2b 3b 70 74 12 bc
       -0.055708334 -0.050951473 0.0026158094 -0.008938894
0001a0 ec 4a 6b 3d 18 64 be bc b0 35 37 3c 04 c9 fc 3c
       0.057444498 -0.023241088 0.011182234 0.03085757
0001b0 8c 92 12 3d 28 e4 9b 3c e8 71 25 bd c6 34 1a bd
       0.03578429 0.019029692 -0.040391833 -0.037647985
0001c0 14 c8 91 3c 80 a4 1a ba 50 01 eb bc cc ba a4 3c
       0.0177956 -0.0005899146 -0.02868715 0.020108603
0001d0 3e 49 5f bd 80 44 1e 3b a0 7e f9 3c 80 62 c1 ba
       -0.05451321 0.0024149716 0.030455887 -0.0014754087
0001e0 44 7c 28 3d 2a 5d 30 3d b6 cd 62 3d e2 0d 0b bd
       0.041134134 0.0430576 0.055371962 -0.033948787
0001f0 20 e4 22 3b ec 23 0c 3d 80 b1 77 3b e0 28 bf 3b
       0.0024855211 0.034213945 0.0037795007 0.00583373

FC4.weight f4 [128, 512]
000000 d3 fa 23 3d 14 04 04 3c 3c 54 63 3c 3c 1f fa bc
       0.040034126 0.008057613 0.0138750635 -0.030532472
000010 03 36 26 bd 7d b5 6b bc 80 28 22 3d 6a 8a 5f bb
       -0.040578853 -0.014386532 0.039589405 -0.00341096
000020 f6 d6 b5 3c 4c 9e 9d bb 27 b4 15 bd b1 bd c8 b9
       0.022197228 -0.00481013 -0.03654876 -0.00038288304
000030 5e 85 20 bd e7 79 84 3a b2 ca fd 3c e5 c1 54 3c
       -0.03918969 0.001010713 0.030980442 0.012985681
000040 81 73 2c bd d4 35 e5 3c fa db 01 3d 40 30 e1 bc
       -0.04210234 0.027979769 0.031703927 -0.027488828
000050 d2 92 1a 3c 67 2e 57 bc 4f 94 2d 3d b9 df 13 3d
       0.009434419 -0.013133622 0.042377766 0.03610203
000060 e2 88 02 bd 0c 97 10 bd 38 cd 2a 3d bb 77 9a bc
       -0.031868823 -0.0353003 0.041699618 -0.01885592
000070 c9 55 86 3a 78 c5 0e 3d f5 ff b4 3c c9 d5 e0 ba
       0.0010248955 0.03485629 0.022094706 -0.0017153557
000080 0c 97 2c bd 56 51 31 3b f1 a2 c8 bc 57 cf ae 3c
       -0.042136237 0.0027056537 -0.024491759 0.021339102
000090 83 09 dd 3b 95 f4 ca 3c d7 fd af 3a b5 27 9a bc
       0.0067455187 0.024774829 0.0013427091 -0.018817762
0000a0 90 3b a6 3c 58 bf 23 3c 1f 9c 0a bc a0 46 41 3c
       0.020292073 0.00999435 -0.008460074 0.0117966235
0000b0 b8 09 bc 3c ef 8a 30 3d 15 a3 1c bd 40 80 18 3b
       0.022953853 0.043101247 -0.038241465 0.0023269802
0000c0 5b 16 0a 3d fe 2e 30 bd 1a ac 06 3d ce 6d 2c bd
       0.033712726 -0.043013565 0.032878973 -0.042096905
0000d0 cc e3 9a bc 94 91 e7 3c dd 49 eb 3c 38 fc d6 bc
       -0.01890745 0.02826766 0.028721744 -0.026243314
0000e0 88 05 51 3c fa 3f 66 bc 61 e5 f8 3c c5 c2 f7 bb
       0.012757666 -0.014053339 0.030382814 -0.00756106
0000f0 b4 ca f3 bc bb af c7 3c 41 4d 2c bd f6 f6 5a bc
       -0.029759742 0.024375787 -0.042065863 -0.013364544
000100 ef b5 55 bc 4d 0d 20 bd d8 a0 09 bd f0 be 2c bd
       -0.013043865 -0.039075185 -0.03360066 -0.04217428
000110 87 9b 51 3c 21 ac e7 3c 52 98 24 bd c5 56 28 bd
       0.012793428 0.02828032 -0.040184326 -0.041098375
000120 2e c4 d6 3c f1 99 01 bd d7 1b bc 3c d6 eb 0d bd
       0.026216593 -0.03164095 0.022962494 -0.03464874
000130 f8 e9 f7 bc ea 6f a8 bc 67 26 1c 3c 8a 25 cd 3c
       -0.030262932 -0.020561177 0.00953064 0.025042314
000140 ba 11 9d 3c 8b bd b2 bc 3d 00 b6 3c 46 f8 cc 3a
       0.019173492 -0.021818897 0.02221691 0.0015637956
000150 b4 f0 25 3d eb 07 fb 3c b1 69 ce bc ab 41 26 3d
       0.040512756 0.030643424 -0.025196882 0.04058997
000160 a3 3d fb 3b ea 06 ff 3c e4 3f ee 3c 74 c8 50 bc
       0.00766726 0.031131227 0.0290832 -0.012743104
000170 90 95 22 3d 0c d7 b3 3c d6 64 01 bd 5d 31 ca bb
       0.039693415 0.021953128 -0.031590305 -0.0061704353
000180 a1 1d b1 3a 49 a0 54 3b b7 eb bc bb b4 df 08 3c
       0.0013512858 0.003244417 -0.005765404 0.008354116
000190 f8 07 06 bd 51 40 54 3c 5d b1 7a bb 66 4e ab 3c
       -0.032722443 0.012954787 -0.003825269 0.020911407
0001a0 03 41 06 3d 91 27 50 b9 bf 2d 12 bd 64 b5 15 bd
       0.032776844 -0.00019851165 -0.035688158 -0.03654994
0001b0 b3 fa e8 bc 08 ae 00 3d 6c a0 25 3b f5 18 6e 3b
       -0.028439855 0.03141597 0.002527262 0.0036330794
0001c0 ea 34 d4 3c 29 b1 cd 3c 20 1a 40 bc 05 ad a6 3c
       0.025904138 0.02510889 -0.011724979 0.020346174
0001d0 76 8f a5 bc 29 e0 98 3c 6e 52 14 3d 88 0b 85 3c
       -0.020210009 0.018661575 0.036211424 0.01624085
0001e0 6a 49 28 3d 1e 9d 81 3b a7 4d b2 bc a5 80 c0 3c
       0.041085638 0.0039554974 -0.021765543 0.023498842
0001f0 d4 d8 16 3d 20 5d 12 3d 5a 86 e3 3c 0b 6b a3 bb
       0.036827877 0.035733342 0.027774025 -0.0049871258
000200 3f e2 0c bd 22 81 c6 bc 68 8b 10 3d cb f7 d1 3c
       -0.034395453 -0.024231497 0.0352892 0.025630852
000210 ce 05 dc bc 99 7f ff 3c df f1 04 bd 79 ff 92 3b
       -0.026858237 0.031188773 -0.03245723 0.004486021
000220 d3 79 8a 3c 41 49 b0 3c 46 f6 ac 3b 87 63 da bc
       0.016903793 0.021519305 0.0052783815 -0.026658786
000230 54 23 a9 ba 71 09 2b bd ca 4a 26 bd 2f ac 30 3c
       -0.0012904205 -0.04175705 -0.04059867 0.010783239
000240 32 6e 01 3d d1 ed 23 3b af 31 c8 b9 af 8f 92 bc
       0.03159923 0.0025013576 -0.0003818399 -0.01789078
000250 83 5d 98 bc 47 46 be 3c 6f 3a 72 bb 76 3e 1e bd
       -0.018599277 0.02322687 -0.0036961099 -0.038633786
000260 58 bb f7 3c c4 2c ea bc 90 fe 2e 3d a5 fa d7 bc
       0.0302407 -0.028585799 0.04272324 -0.026364634
000270 32 c1 b3 bc 85 1c 19 bc 3a cb cc bc 47 62 f4 bc
       -0.021942709 -0.0093451785 -0.02499925 -0.029832019
000280 d9 63 54 bc 04 e0 b8 3c 7f 4c cd bc 69 84 b4 3c
       -0.012963259 0.022567756 -0.02506089 0.022035794
000290 2a 26 08 3d 77 de 32 bb e1 30 80 3c e5 ad 2e bd
       0.03323952 -0.0027293244 0.015648307 -0.042646307
0002a0 ec 7a 0e 3d 61 14 07 bd 3a 26 06 bd 9c 1b 05 3c
       0.034785196 -0.03297842 -0.0327513 0.008124258
0002b0 12 16 14 bc 71 70 1e 3d f8 1e c8 3c 31 dd b9 bc
       -0.009038465 0.03868145 0.02442883 -0.02268848
0002c0 39 40 a0 3c 29 f6 83 bc 63 da 23 bd 33 ae 27 bc
       0.019561874 -0.01610859 -0.04000319 -0.010234403
0002d0 7f 94 33 bd b6 05 2e 3d b6 a7 e4 bc ba 55 e1 bc
       -0.04384279 0.042485915 -0.027912002 -0.027506698
0002e0 72 16 ef 3c 98 a1 79 bc 9d 0f e3 bc 9b b5 17 3d
       0.029185507 -0.015236281 -0.027717406 0.037038427
0002f0 0e 48 f7 3c 50 bc 3d 3b 44 b3 aa 3c 7e ec f2 3c
       0.030185726 0.0028951354 0.020837434 0.029653784
000300 03 a0 e6 3b 10 d6 59 bb 99 42 d1 3c c7 9f 90 3c
       0.007038118 -0.0033239163 0.025544452 0.017654313
000310 f2 9d 4f bb 39 04 80 3c 64 34 2b 3d 41 82 88 bc
       -0.0031679836 0.015627014 0.04179801 -0.016663672
000320 5e 17 6e bc 55 ff d0 bc 96 da 29 bd 99 bb 11 bd
       -0.014531938 -0.025512377 -0.041468225 -0.035579298
000330 d9 71 17 3d 39 8a b0 3c 59 2d 10 bd 52 55 0b bd
       0.036973808 0.021550285 -0.035199497 -0.034016915
000340 14 1e d6 3c 72 40 72 bb ce 56 e8 bc 40 c5 dd ba
       0.02613739 -0.0036964682 -0.028361704 -0.0016919747
000350 b1 f8 09 3a b5 33 8b 3c 2d 40 81 bb 4e 0d e7 3c
       0.0005263193 0.01699243 -0.003944418 0.028204586
000360 3f af 8c ba fa 96 b3 bb 53 60 d8 3c eb 72 15 3c
       -0.001073338 -0.0054806443 0.026413118 0.009121637
000370 ad 21 fa bc 78 e8 87 3c 37 6c 34 3b 18 50 04 bd
       -0.030533636 0.016590342 0.0027530321 -0.032302946
000380 37 46 e1 bb 5c dd 37 bb 32 fe 01 3d ae c1 21 bd
       -0.0068748253 -0.0028055524 0.03173656 -0.039491348
000390 41 46 a5 bc 11 f3 18 bc d3 2a d9 bc 6d 4d 16 3d
       -0.020175101 -0.009335295 -0.026509678 0.036694933
0003a0 79 71 06 bd fa b8 a4 3c 20 07 0f bd 86 58 17 bd
       -0.03282306 0.020107735 -0.034918904 -0.036949657
0003b0 e9 97 04 3d 78 41 e0 ba c3 cb c1 3c f4 27 e7 bb
       0.032371435 -0.0017109355 0.023656731 -0.0070543233
0003c0 26 e5 a8 3b df a7 20 bc 1f f6 0e 3c d8 37 f7 3c
       0.0051542697 -0.009805649 0.008725672 0.030177996
0003d0 ae 32 8f 3c 61 eb 2c 3d eb b0 06 3d 11 8c 06 bd
       0.01748022 0.042216662 0.032883566 -0.03284842
0003e0 4f e5 38 3c 8c ab 05 3b 0d 61 28 3d 7c 30 e7 bc
       0.01128514 0.002039644 0.04110818 -0.028221361
0003f0 3b 31 98 ba 7b 03 26 3c 5f 6a 17 3d 13 59 02 3b
       -0.0011611352 0.010132666 0.036966678 0.0019889518

FC4.bias f4 [128]
000000 0a 82 33 3d a1 1d af bc ad 29 80 bc 70 6f 02 bc
       0.043825187 -0.021376433 -0.015644873 -0.007961139
000010 84 aa 0b bd 87 f4 e7 3c 86 98 ea bb c3 91 48 bc
       -0.034098163 0.028314842 -0.0071592955 -0.012241784
000020 01 47 5e 3a 3a 37 cd 3c 48 54 ae 3c 70 43 0b bd
       0.00084792083 0.025050748 0.021280423 -0.03399986
000030 18 cb 26 bd 54 c2 51 bc 48 87 93 3a 58 df 3c 3b
       -0.04072103 -0.012802679 0.0011255527 0.0028819647
000040 6e 00 ce 3c 5f ac 0b 3d 56 05 1a 3c cf e2 2b 3d
       0.02514669 0.034099933 0.009400686 0.04196435
000050 bb cc 2c bd b3 fb 08 3c 2f 9b e2 3c 7d aa fb bb
       -0.042187434 0.008360791 0.027661888 -0.007680236
000060 c7 68 e0 bc c5 3d e4 bc c4 ed a8 3c c9 7c 82 3c
       -0.027393712 -0.027861485 0.020621188 0.015928643
000070 c9 37 17 bd 70 06 b8 3c 4f d9 90 3c 54 48 1c bd
       -0.036918435 0.022464007 0.017681746 -0.038154915
000080 61 c3 2b bd aa f3 e3 bb cf c8 14 3d 97 85 2a 3a
       -0.041934375 -0.0069565373 0.03632432 0.0006504892
000090 1e 2d 00 bd cb 25 ff 3c a8 84 23 bd 3f 1a c7 3c
       -0.031293027 0.03114595 -0.039921433 0.024304507
0000a0 ec 77 d6 3c a1 aa 71 3c 6b 48 0e bc 4c e7 28 bd
       0.02618023 0.014750154 -0.008684258 -0.041236207
0000b0 6c a2 d5 3b d1 e3 b6 bc ab 5e f5 3c 78 72 16 3d
       0.0065196063 -0.022325428 0.029952368 0.03673026
0000c0 47 f8 30 3d 8b 8e 21 3c 06 81 1f 3d 3f f7 07 3d
       0.043205526 0.009860645 0.038941406 0.033194777
0000d0 31 31 34 3d 38 22 10 3d e7 ed 90 bc 25 4d eb bb
       0.043992225 0.035188884 -0.017691566 -0.007180827
0000e0 bf 0d 7c 3c 84 37 24 bd 7c b1 8b bc f2 5b 20 3d
       0.015384137 -0.040092006 -0.017052405 0.039150186
0000f0 00 e5 e6 ba fb c9 d8 bc 35 78 1b bd 5b fc a3 bc
       -0.0017615855 -0.0264635 -0.037956435 -0.020017793
000100 91 3b 1d 3c 68 90 e3 b9 6b 00 4a bc 8b 1c a5 ba
       0.009596721 -0.00043404405 -0.012329201 -0.0012597007
000110 f4 b3 b2 bb 73 e8 c4 bb d8 9d 1c bd fc e3 02 bd
       -0.005453581 -0.0060091554 -0.03823647 -0.031955704
000120 dd 64 e7 bc d4 bb fa bc 22 79 07 3c 00 fa ba 3b
       -0.028246338 -0.030607142 0.008268626 0.005706072
000130 b5 e1 ad bc 36 19 30 bd 11 33 80 3c f4 ea 94 39
       -0.02122579 -0.042992793 0.01564935 0.00028403813
000140 fc 15 db 3c e0 da 30 bc 48 e8 08 bd 33 19 08 3d
       0.026743881 -0.010794371 -0.033424646 0.033227157
000150 0a 7b 56 3c 38 48 5e 3c c6 8e 8e bc 67 43 cb 3c
       0.013090858 0.013567023 -0.017402064 0.024812413
000160 0b 55 04 3c 95 0e 18 3d 7a 24 1e bd 94 ad e4 3c
       0.008076916 0.03712328 -0.038609006 0.0279148
000170 ce 24 2a bd 33 9d 3d 3b ab 47 85 ba 7a 09 07 3b
       -0.041539006 0.002893281 -0.0010168453 0.0020605014
000180 df ba 00 3d 8d 5b 93 3c 5e 7f 35 bc d3 0b 2e 3d
       0.031428214 0.01798799 -0.01107773 0.042491745
000190 2c 62 0c bb 80 73 0f 3d ab 24 e6 3c 9e 04 30 3d
       -0.002142082 0.03502226 0.028093657 0.042973153
0001a0 a9 45 06 3d e0 00 b0 bc e2 3c 28 bd 75 f3 26 bc
       0.032781277 -0.021484792 -0.041073687 -0.010189881
0001b0 34 2c 06 3d 35 e6 78 bc c4 6f df bc 7e 3e f4 bc
       0.032757 -0.015191604 -0.027274974 -0.029814955
0001c0 d3 3e eb bb 5a e7 1e 3d f1 1d 8f 3c b6 66 45 3b
       -0.00717912 0.038794853 0.017470332 0.0030121035
0001d0 4e 48 d8 3c 58 77 31 bb 9a 44 f2 bb a6 6d da ba
       0.026401665 -0.002707919 -0.007393432 -0.0016664758
0001e0 7a 79 7b 3b df 67 b0 bc b6 79 e5 3c 56 90 7d bc
       0.0038371966 -0.021533905 0.028012138 -0.015476307
0001f0 f6 87 1c bc f9 0c df 3c 3e 71 14 bd 0a 33 29 bc
       -0.0095539 0.027227866 -0.03624081 -0.01032711

linear.weight f4 [1, 512]
000000 25 5f f1 3b 5b 7b ea 3a f4 c3 c0 bc fe cc 04 3d
       0.0073660784 0.0017889546 -0.023530938 0.03242206
000010 e4 72 ab bc 75 dc a1 3b c6 bb bd bc 75 01 20 bb
       -0.020928808 0.0049396106 -0.023160826 -0.002441493
000020 a9 84 61 3c c8 ee 67 bc 56 49 e2 3c e7 1b c5 3c
       0.013764539 -0.014156051 0.02762286 0.024061156
000030 d6 df b2 bc a0 38 bd bc 2e 3e c4 3c 2f 00 1a 3d
       -0.021835249 -0.02309829 0.02395543 0.03759783
000040 33 7b 2d 3d c9 da 26 3d 08 b9 12 bd 5d 05 da bc
       0.04235382 0.040735994 -0.03582099 -0.026613886
000050 84 b3 c2 3c 6e 9b 23 3d 36 bd e2 bc 0b 01 e9 bc
       0.02376724 0.03994315 -0.027678113 -0.02844288
000060 ea 9b 9a 3c 83 ba 0d bd 34 62 0e bd 2e f8 25 3d
       0.018873174 -0.0346017 -0.034761623 0.040519886
000070 c6 39 65 3c 11 73 b6 bc 14 8a 4b bb ac 94 b0 bc
       0.013990825 -0.022271665 -0.0031057643 -0.021555267
000080 d2 04 a8 3b 17 64 7e 3c 5a 59 03 3d d2 e5 b3 bb
       0.0051275278 0.015526793 0.032067634 -0.005490043
000090 74 33 e5 3b d5 8d d2 3c ee ae f4 bc 83 df 63 bc
       0.006994659 0.025702396 -0.02986857 -0.01390827
0000a0 a9 1a 15 bc ce ae f7 3c 0e 0a a4 bc 4d b0 0a bd
       -0.009100595 0.03023472 -0.020024326 -0.03385954
0000b0 6d 29 e0 bb bd 09 06 bd 3d 48 17 bb ed 95 1e 3d
       -0.006840876 -0.03272413 -0.002308383 0.0387172
0000c0 3b b2 a5 bc 62 5e 92 3b 69 2e e6 3c 6c 8b dd 3c
       -0.020226588 0.0044668177 0.028098302 0.02704402
0000d0 6b bb 28 bd c3 25 af 3c 86 48 0f 3d a2 ac bb 3c
       -0.04119436 0.02138031 0.034981273 0.022909466
0000e0 7e ec 0e 3d e9 68 1f 3d c1 70 15 bc e1 88 18 bd
       0.034893505 0.03891841 -0.009121121 -0.037239913
0000f0 f2 b3 d1 3c c0 9d 20 bd 9f 7d e3 3c 12 49 21 3d
       0.0255985 -0.039212942 0.027769862 0.039376326
000100 8e ee 0e bd 35 43 34 3d e1 bd 1a 3d 32 40 00 3d
       -0.034895472 0.044009406 0.03777874 0.03131122
000110 c8 ff e6 bb a3 cb 80 3c de b9 ea 3c 01 0c 0f bd
       -0.0070495345 0.015722102 0.028653082 -0.034923557
000120 43 12 2b 3d 12 ea 2c bd 9a 61 34 3d 06 54 87 bc
       0.041765463 -0.042215414 0.044038393 -0.016519558
000130 83 6c ae 3b f0 be ad bc b3 65 05 3d c1 fb 15 3d
       0.005322994 -0.02120921 0.03256769 0.036617044
000140 0c c9 6a bb db f1 14 3d 87 c6 0d 3d 0c c3 15 3d
       -0.00358254 0.036363464 0.03461316 0.036562964
000150 f1 78 73 bc c9 21 33 bd 93 7e ed 3c 4d a5 01 bd
       -0.014860378 -0.043733392 0.02899102 -0.031651784
000160 51 da 0a bd 17 0a 69 3c ed 09 22 bd b4 08 7d 3c
       -0.03389961 0.014223597 -0.039560247 0.0154439695
000170 4e 70 0e bd 3b 8e 32 bc eb 03 e6 3c 32 a3 2f bd
       -0.03477507 -0.010898168 0.02807804 -0.042880245
000180 a5 f7 18 3d ee a7 69 3c 00 f5 30 3d 3c f5 20 3d
       0.037345547 0.014261229 0.0432024 0.039296374
000190 97 e9 25 bd 35 21 0a bd c0 32 a1 3a 5e cd 08 bd
       -0.04050597 -0.033723075 0.001229845 -0.03339898
0001a0 2c 98 bd 3c ea 17 33 bd 1d 24 e8 3c fb b3 db ba
       0.02314385 -0.043723978 0.028337533 -0.0016762012
0001b0 e3 dc f1 bc f5 56 38 3c 50 46 4a bc 13 a2 84 bc
       -0.029524272 0.011251201 -0.012345865 -0.016190564
0001c0 9b 51 27 bd cf 22 49 3c 4b 09 d6 3c a8 c5 3e bc
       -0.04084931 0.012276365 0.026127478 -0.011643805
0001d0 24 90 b9 bc 68 87 11 bd 0e 36 ed bc 9e b4 f3 bc
       -0.02265174 -0.035529524 -0.02895644 -0.02974921
0001e0 60 df 81 3c 34 a4 c6 3c 3c 6f c2 3b b0 5f 7f 3c
       0.015853584 0.02424822 0.0059336703 0.0155867785
0001f0 34 e8 fb 3c dc 8f 40 bb 76 7e 91 3c 04 71 7a bb
       0.030750372 -0.0029382622 0.017760497 -0.0038214335
000200 d7 eb be bb 38 71 ef 3c 18 81 2c 3c 3a 5c 9d 3b
       -0.005826454 0.029228792 0.010528825 0.004802254
000210 be 34 ea 3c e3 46 78 3c f1 d5 b1 bc f1 40 0b 3d
       0.028589603 0.015153619 -0.02170846 0.03399748
000220 7c 72 ec 3c 25 41 b2 bc 13 85 f7 ba 2b 30 fd 3c
       0.028863184 -0.021759579 -0.0018884264 0.030906757
000230 dd 07 42 3c fa 08 23 bb 45 5c 69 3b 3e 39 09 bb
       0.011842695 -0.0024877177 0.0035607975 -0.002093866
000240 a7 6c 41 bc c7 6d 42 bb d8 36 74 bb 54 77 82 bc
       -0.01180569 -0.0029667483 -0.0037264135 -0.01592604
000250 e3 44 ea 3c dc ec 12 3d f3 86 39 ba 59 7a ba 3c
       0.0285973 0.035870418 -0.0007077299 0.022763418
000260 44 5a b7 bc a0 57 c6 bc e4 25 b4 bc 31 22 cb bc
       -0.02238191 -0.024211705 -0.021990724 -0.024796577
000270 f3 2d 48 bc 85 ba 20 3c da 54 cc 3c 26 3d a3 3c
       -0.012217986 0.009810095 0.024942804 0.019926619
000280 bf fa 61 3c 4d 6f d3 3b 34 ba f6 3c c5 40 fe 3c
       0.013792693 0.006452477 0.030118085 0.031036744
000290 b3 ab 34 3c 5b 7c 9d bc 74 f4 0e 3d b7 11 07 bd
       0.011027264 -0.019224336 0.034901097 -0.03297588
0002a0 bd 59 07 bd 1a 92 98 bb 42 8f d2 bc 75 3b d8 3b
       -0.033044565 -0.0046560885 -0.025703076 0.0065988847
0002b0 ed a7 f0 3c 24 da 1a 3d fd db 37 bc bd 3f 72 ba
       0.029376948 0.03780569 -0.011221883 -0.0009241065
0002c0 3c 83 a0 3c b2 d2 9a 3c bf 72 0d 3d 9a 26 0d 3d
       0.019593827 0.018899295 0.03453326 0.03446064
0002d0 fc 5d d1 39 d4 54 d1 3c 91 ef 61 3a 9a 56 33 bd
       0.0003993361 0.025553145 0.0008618767 -0.04378376
0002e0 ce 27 7b ba a7 6d f9 3c 59 61 d7 3c 09 87 9c 3b
       -0.00095808215 0.030447794 0.026291536 0.0047768396
0002f0 a7 17 33 3d 69 9f 52 bc bf b5 07 bd fc 77 15 3d
       0.04372373 -0.012855389 -0.03313231 0.03649138
000300 69 74 da bb c8 0d 84 bc d9 e9 60 bb 48 12 0e 3d
       -0.006666709 -0.016119853 -0.0034319072 0.034685403
000310 f1 a2 1d bd 35 87 09 3d 0d cd 10 bd 02 44 7e 3c
       -0.03848547 0.03357621 -0.0353518 0.015519144
000320 24 b1 91 bc 26 8e 2f 3d 86 85 ed 3a f8 2c 0c 3d
       -0.017784663 0.042860173 0.0018121458 0.034222573
000330 31 2d 26 bd 21 ea 61 bc a8 e8 85 3c 9e 11 de bb
       -0.04057044 -0.013788731 0.01634629 -0.0067770025
000340 cb 71 0e 3d b8 54 1a 3d cd 92 d5 3c 1d 96 fb 3b
       0.03477649 0.03767845 0.026070977 0.007677807
000350 be 62 14 bd e1 47 33 3d c7 61 ab bc f4 43 49 3b
       -0.03622698 0.04376972 -0.020920647 0.003071067
000360 db 4a 43 3c 51 da d5 3c 6c 07 30 3d ff b5 d6 bc
       0.011919702 0.026105078 0.042975828 -0.02620983
000370 4c bc 96 3c 8e 83 f8 bc 8c 41 2c bd 12 be 2c bd
       0.018400334 -0.030336168 -0.042054698 -0.042173453
000380 9e 30 16 bd 04 0a 10 3d 7b db 37 bc 2a 76 6e 3c
       -0.03666746 0.0351658 -0.011221762 0.01455454
000390 4c 6b 2e 3d 5a b3 48 bb b5 5b 9b 3c f0 15 bc bc
       0.042582795 -0.003062448 0.018964628 -0.02295968
0003a0 fe 00 2b bd 88 d8 d6 bb 53 de 8c 3c d2 ff 3d bc
       -0.041748993 -0.0065565743 0.017195856 -0.011596637
0003b0 9e 01 6b 3b de c9 44 3c 05 c3 12 bd df 6f 4b bc
       0.0035859118 0.0120110195 -0.035830516 -0.012416809
0003c0 64 48 4e bc 91 1e 6f bc 47 5d 5a bc e8 b4 0b 3c
       -0.012590501 -0.01459469 -0.013327903 0.008527018
0003d0 53 0f e3 bc d4 c7 24 bd 43 1f a5 3c 72 26 ab bc
       -0.027717268 -0.040229633 0.020156508 -0.020892356
0003e0 03 fb 20 bd 3c a9 32 3d 45 8d eb bb 2d 9c 32 bb
       -0.039301883 0.043618426 -0.0071884715 -0.0027253733
0003f0 52 3d 20 bc ae 10 25 bc 44 1e c9 bc 43 7e 74 bc
       -0.009780245 -0.0100747775 -0.024550565 -0.014922681
