dl/poal_dl/modelpara/20230828_111825__epochsbackbone200_epochsmqnet100_lrbackbone0.1_lrmqnet0.001_mqnet.params (torch, 3489 bytes, 3 tensors)

W1 f4 [2, 64]
0	0x3ea90fff	0.33020017
1	0x3df1148d	0.11771498
2	0x3f207804	0.6268313
3	0x3e6897d3	0.22714166
4	0x3dcf68fc	0.10127446
5	0xb76f8cdf	-1.4278309e-05
6	0x3f30be5d	0.6904047
7	0x3c0b5064	0.008503053
8	0x3f39cc30	0.7257719
9	0x3edd6578	0.43241477
10	0x3e1865f7	0.14882647
11	0x3f3529b1	0.7076674
12	0x3f131060	0.5744686
13	0x3f01310c	0.50465465
14	0x3f52c452	0.8233081
15	0x3f7f03dc	0.99615264
16	0x3eb717c3	0.35760316
17	0x3f102dfc	0.56320167
18	0x3e67d2b5	0.22638972
19	0x3f416412	0.7554332
20	0x3f6d5028	0.92700434
21	0x3e81f36c	0.2538103
22	0x3f20e352	0.62846863
23	0x3e1ee803	0.15518193
24	0x3f260bcf	0.6486177
25	0x3f467c26	0.77533185
26	0x3c3435a6	0.010999119
27	0x3e0f6fcb	0.1400749
28	0x3d1fd3c8	0.03902033
29	0x3e90cd85	0.282818
30	0x3f5a97ce	0.85387886
31	0x3f486e05	0.78292876
32	0x3e4949d8	0.19657075
33	0xb97b6124	-0.00023973413
34	0x3f5c73d7	0.8611426
35	0x3f11cfed	0.56957895
36	0x3f425325	0.7590812
37	0x3f19a0f5	0.60011226
38	0x3f2e997e	0.6820296
39	0x3f268c34	0.65057683
40	0x3d4f8a4c	0.050669
41	0x3f66f86c	0.9022281
42	0x3e22832a	0.15870348
43	0x3ed9d84f	0.42547843
44	0xb80a1175	-3.2918022e-05
45	0x3e814a48	0.25251985
46	0xb900064f	-0.00012209381
47	0x3daed9f7	0.08537667
48	0x3e1d6f08	0.15374386
49	0x3f494d0f	0.7863321
50	0x3eb020ec	0.34400117
51	0x3efb53d8	0.49087405
52	0x3ef087b8	0.46978545
53	0x3f378a8e	0.7169579
54	0x3ee27692	0.44231087
55	0x3e982658	0.29716754
56	0x3eef9f11	0.46801046
57	0x3e659bae	0.22422668
58	0x3f3a6a64	0.7281859
59	0x3f70cb10	0.9405985
60	0x3e92f9d6	0.28706235
61	0x3f69b0a3	0.9128515
62	0x3f68fc71	0.91010195
63	0x3f779740	0.96715164
64	0x3f60f674	0.8787606
65	0x3ebc31b9	0.36756685
66	0x3f5325e0	0.8247967
67	0x3e110acf	0.1416428
68	0x3ea9ed39	0.331888
69	0x3ebdc211	0.37062123
70	0x3f7536f8	0.95787
71	0x3e5ff152	0.218694
72	0x3eaac6bc	0.33354747
73	0x3ee3db57	0.4450328
74	0x3f34528c	0.70438457
75	0x3f566d99	0.8376098
76	0x3e91c86f	0.2847323
77	0x3f6332c5	0.88749343
78	0x3f453e57	0.7704825
79	0x3f7d417a	0.98928034
80	0x3f663a90	0.8993311
81	0x3e4500ce	0.19238588
82	0x3f55779b	0.8338563
83	0x3f0e1968	0.55507517
84	0x3e8dc847	0.27691862
85	0x3f59fec5	0.8515437
86	0x3e2527c8	0.16128457
87	0x3d9a47b5	0.07533208
88	0x3dad5772	0.084639445
89	0x3f7cf9cb	0.98818654
90	0x3edea4f8	0.43485236
91	0x3eeb11f6	0.4591214
92	0x3f1351bb	0.57546586
93	0x3ea7aa01	0.3274689
94	0x3f5d2540	0.86384964
95	0x3f0a1913	0.5394451
96	0x3f1c0b5a	0.6095482
97	0x3e6a2c7c	0.22868532
98	0x3e740205	0.23828895
99	0x3f281296	0.6565336
100	0x3f1bb231	0.60818774
101	0x3f1c8dcb	0.6115386
102	0x3e200ca0	0.15629816
103	0x3e782bcc	0.24235457
104	0x3dbde0c9	0.0927139
105	0x3f232e10	0.6374216
106	0x3e6434a2	0.22285703
107	0x3eca0126	0.39454
108	0x3dd97f6b	0.10620006
109	0x3f12eeaa	0.5739542
110	0x3f4c0261	0.7969113
111	0x3d88e2bd	0.06683872
112	0x3f5342c5	0.8252376
113	0x3a5f428d	0.0008516692
114	0x3edd0e99	0.431752
115	0x3f678f8f	0.9045343
116	0x3f2947d6	0.6612524
117	0x3f3666b5	0.7125047
118	0x3f6de174	0.9292214
119	0x3eb61db3	0.35569534
120	0x3f08bfe2	0.5341779
121	0x3dc4086d	0.095719196
122	0x3f38ff8b	0.7226493
123	0x3ef61ffb	0.48071274
124	0x3ebc67db	0.36797985
125	0x3e55b4b1	0.2086971
126	0x3d4a9819	0.049461458
127	0x3f61f865	0.88269645

W2 f4 [64, 1]
0	0x3ee55846	0.4479391
1	0x3f55de7a	0.835426
2	0x3f727918	0.94716024
3	0x3f2fd884	0.6868975
4	0x3f3ea232	0.7446624
5	0x3f4ef542	0.80842984
6	0x3f2216bd	0.63315946
7	0x3e8f7847	0.28021452
8	0x3e56af22	0.20965245
9	0x3f17508f	0.591073
10	0x3eae23ac	0.3401159
11	0x3f0da8e8	0.55335855
12	0x3f649f6f	0.89305776
13	0x3f4bc9b6	0.7960466
14	0x3ee41ec6	0.44554728
15	0x3e32b31d	0.17451139
16	0x3f2d7ac9	0.6776548
17	0x3f606bee	0.8766469
18	0x3eff3084	0.49841702
19	0x3f5f307b	0.8718335
20	0x3f107953	0.56435126
21	0x3ee06674	0.43828166
22	0x3e9003da	0.28127939
23	0x3ddfb426	0.109230325
24	0x3f27cc6a	0.65546286
25	0x3e97ae9e	0.2962541
26	0x3ecd87a9	0.40142563
27	0x3e2ae1c1	0.16687681
28	0x3f2d3d44	0.6767161
29	0x3ec53273	0.38515052
30	0x3ec364b5	0.3816277
31	0x3ed345ad	0.41264096
32	0x3f161f37	0.5864138
33	0x3f773534	0.96565557
34	0x3ef40a06	0.47663897
35	0x3e75cbcb	0.24003522
36	0x3f03d07c	0.51489997
37	0x3e71420a	0.23560348
38	0x3cacb97c	0.02108454
39	0x3ed2b1cd	0.41151276
40	0x3f0f3b46	0.5594982
41	0x3ef2d8dc	0.47431076
42	0x3f01ca7d	0.506996
43	0x3f5ab815	0.85437137
44	0x3f142fe9	0.57885605
45	0x3f6fa8e1	0.93617064
46	0x3f7311b2	0.94948876
47	0x3ed600e0	0.41797543
48	0x3f1b2e3f	0.6061744
49	0x3eba50ca	0.36389762
50	0x3f2978b2	0.6619979
51	0x3ddff43f	0.10935258
52	0x3f145873	0.5794746
53	0xb82f2589	-4.175821e-05
54	0x3f309290	0.68973637
55	0x3f1a386c	0.6024234
56	0x3eecfc41	0.46286204
57	0x3d105eb1	0.035246555
58	0x3e5eb502	0.21748737
59	0xb7619b79	-1.3447244e-05
60	0x3d5558ce	0.052086644
61	0x3eac49b6	0.33649987
62	0x3e97a034	0.29614413
63	0x3eb07623	0.3446513

b1 f4 [64]
0	0x3f4a364f	0.7898912
1	0x3f03ca6a	0.51480734
2	0x3f0e9775	0.55699855
3	0x3e86114c	0.2618507
4	0x3ebe944f	0.37222525
5	0x3ee882ea	0.4541238
6	0x3ea8ab97	0.32943413
7	0x3f28c821	0.6593037
8	0x3f0c4a27	0.5480065
9	0x3eb569b2	0.35432202
10	0x3f653f83	0.89550036
11	0x3eea3933	0.45746765
12	0x3f6c65b9	0.92342716
13	0x3f20fffc	0.628906
14	0x3d3dfbd7	0.04638275
15	0x3d637f8e	0.055541568
16	0x3ebfa5a3	0.37431058
17	0x3f69cbb1	0.91326433
18	0x3f7ca86f	0.9869451
19	0x3e9749bd	0.29548445
20	0x3f391514	0.7229779
21	0x3eb947d4	0.36187613
22	0x3f69b05d	0.91284734
23	0x3d042372	0.032260366
24	0x3f0cbdab	0.5497691
25	0x3f3a7cea	0.72846854
26	0x3c08bed1	0.008346275
27	0x3ef40d12	0.47666222
28	0x3e82c857	0.25543472
29	0x3d6fe5a1	0.0585686
30	0x3e69b519	0.2282299
31	0x3f781c92	0.96918595
32	0x3e4403df	0.19142102
33	0x3ee31918	0.44355083
34	0x3f0c180c	0.5472419
35	0x3ec4567e	0.38347238
36	0x3eb787f2	0.35845906
37	0x3f1c4545	0.61043197
38	0x3df8f08e	0.12155257
39	0x3f029b80	0.51018524
40	0x3f460ca6	0.7736305
41	0x3f169800	0.58825684
42	0x3f60331e	0.87578
43	0x3e946c88	0.28989053
44	0x3cf5b5dd	0.029993946
45	0x3f230dec	0.6369312
46	0x3f4c816c	0.7988498
47	0x3f1f90f6	0.6233057
48	0x3f06c8c3	0.5265009
49	0x3da912de	0.08255552
50	0x3f773473	0.96564406
51	0x3f1f8f36	0.623279
52	0x3d4f6acd	0.050638963
53	0x3e3b2fa1	0.18279888
54	0x3ea3a54d	0.31962052
55	0x3f0ee820	0.55822945
56	0x3e8ddbaa	0.27706653
57	0x3b83d949	0.004023705
58	0x3f4278e8	0.7596574
59	0x3f4ca09c	0.7993257
60	0x3bf1b80c	0.0073766764
61	0x3f50b4c3	0.8152582
62	0x3f0e01eb	0.55471677
63	0x3f563dfe	0.8368834
