dl/poal_dl/modelpara/20230827_005442__epochsbackbone200_epochsmqnet100_lrbackbone0.1_lrmqnet0.001_module.params (torch, 500695 bytes, 9 tensors)

FC1.weight f4 [128, 64]
00000000: 528f 95bd d89b 763d 2290 afbd fe06 b13d
00000010: b840 86bd d4dd a6bd 36bf a4bd e43c 563d
00000020: 604c dd3d 544b b9bd 2887 ec3c 7cad 0ebd
00000030: 946c 61bd 18f6 853c 52fc de3d 7a73 eebd
00000040: 8c06 773d 98ff 893c fa67 df3d c869 ffbc
00000050: 424f 80bd e4c8 703d 507b cebc 5043 813d
00000060: a8a7 9d3d 9063 95bc a070 8c3b e2ed fabd
00000070: f214 d2bd e0f0 af3d 2e4e f13d c0a5 77bc
00000080: 40cc 3b3c b460 6c3d 3c8e 8c3d 2826 ca3c
00000090: 34ae 933d fee9 e7bd c229 913d 7281 96bd
000000a0: e812 273d d059 f5bd 5c38 96bd a050 f63c
000000b0: 7ee2 f6bd 366f 8b3d 0030 0b39 48a8 c8bc
000000c0: 5273 89bd 4ca9 82bd c0c7 ec3b 40ff 6f3d
000000d0: da67 e73d 1e5a a2bd e07a cf3d e294 84bd
000000e0: 5000 1fbc a833 d9bc d897 6d3d 342f 0ebd
000000f0: 082e d73d 12fa 813d d4f4 16bd e443 ed3d
00000100: 403c de3b 08f5 f93c 389d 34bd 1045 133d
00000110: 2a06 b8bd ec39 1bbd 60ce 263c 282e cdbc
00000120: a8dc 0e3d 7a3d c6bd 189b 0ebd 308d c33c
00000130: 1c1d 14bd f8ad 88bd 1074 953c c864 b23d
00000140: 007b 91bc 9a78 ddbd a2fa b9bd 9817 853d
00000150: 14f1 79bd c04f edbb 105f d93c 44ab ad3d
00000160: be59 a4bd 2046 363d f0de c33c b866 40bd
00000170: a0c8 f83d 0ecb 8f3d 94b9 95bd 2e8c 823d
00000180: 5c25 a33d 46f3 fabd 20db 55bc 3452 a83d
00000190: ec11 bf3d 1c02 a9bd 28f4 e7bd 50f7 553d
000001a0: 44c0 f3bd e660 cbbd 7a35 803d 101e ffbc
000001b0: c0b6 a6bc cc02 653d 7afe b3bd c0fd 9a3d
000001c0: 2810 df3c ec77 31bd e067 de3c 1834 8ebc
000001d0: e076 b7bd ee14 a93d bc9a 243d f678 cbbd
000001e0: f0e1 653d 9c90 693d 3050 6cbd 622d e43d
000001f0: dc63 c0bd 200e d13c 14ba 24bd 7005 093c
00000200: 1c14 713d b0fe c63d f881 913d a825 e6bd
00000210: 0432 ff3d acf5 b0bd 262c 943d 8449 9f3d
00000220: 5c5c c53d b0f2 913d 744a 153d 5884 11bd
00000230: fa4e b1bd 080f 7abd 7cda 8abd 6847 c53d
00000240: cced c7bd b00c ccbd 94bc 89bd 80f3 febb
00000250: 3696 923d 081d 523d 80d3 b73a f604 c93d
00000260: 20f6 983d 48ab b7bc 30e0 e53d 2aad bc3d
00000270: b05b 0fbd 741e 75bd 7010 8ebc d8cd f5bd
00000280: 8060 8e3c 8049 213c b002 ecbc 2400 213d
00000290: 86a8 8abd fe2e b53d 2cde 923d 3604 c03d
000002a0: 0074 483c 3443 1abd 464f 9dbd a0a8 a63c
000002b0: 486d f33d 5020 e93c 4409 71bd bc40 ff3d
000002c0: be00 b8bd a626 b7bd 98e0 ea3d 7073 833d
000002d0: 285d 1ebd d8bb f73c 744c 20bd 28a4 e73d
000002e0: 9c33 0d3d 1ce5 75bd 98f9 fe3c 7028 293d
000002f0: 52c4 ca3d 5a07 8fbd c2bf 84bd 846f 733d
00000300: 8097 30bc eeb0 a9bd 8817 943c a013 d9bc
00000310: 1033 29bd 5c21 06bd b8f8 9e3c 7077 43bc
00000320: 1412 2c3d 5c51 e63d 4064 edbc 5af5 8a3d
00000330: 881f e03d 1a4d b3bd 7c00 983d 4caf f8bd
00000340: 7634 923d 901d d1bd 3cfb 803d e8ad febd
00000350: a0c2 6e3d a02a 303d 625c bc3d d836 fc3d
00000360: d0e0 3b3c be51 fdbd ded4 94bd 24cd 2e3d
00000370: 00f7 383c 60f8 f8bd b83e 8c3d 4067 78bb
00000380: 080c 203d c2b3 f6bd 244b 413d 0039 993c
00000390: b64b 97bd a814 f53c 2492 14bd 9c8f f4bd
000003a0: c683 c23d 0e10 c6bd 6051 1c3d 70f5 563c
000003b0: c874 143d 36a6 fb3d 5aac fdbd e060 913d
000003c0: 4c1e fb3d 68ea 30bd 68b0 2ebd e690 dabd
000003d0: 2cb1 c8bd 44db 003d 608b 903b 60cf 82bc
000003e0: 7eaa f73d d8b7 f5bd 6e10 fb3d 8251 e8bd
000003f0: 269e 9bbd 7eb9 8c3d 0ac2 c1bd b8b9 f73d
-0.07302727 0.060207218 -0.08572413 0.08643912 -0.06555313 -0.08147779 -0.08044283 0.052304164
0.10805583 -0.09047571 0.028873041 -0.034833416 -0.05503519 0.016352698 0.1088797 -0.11643119
0.060308978 0.01684551 0.10908504 -0.03117837 -0.06265117 0.058785334 -0.025205284 0.06311667
0.076979935 -0.018235952 0.004285887 -0.12252404 -0.10257901 0.08590865 0.1178249 -0.0151152015
0.011462271 0.05770941 0.068630666 0.024676397 0.07210961 -0.11323927 0.07088043 -0.073489085
0.040789515 -0.11980021 -0.073349684 0.030067742 -0.12054919 0.06808321 0.00013273954 -0.024494305
-0.06711449 -0.06379947 0.0072259605 0.058593035 0.11299105 -0.07927345 0.101308584 -0.0647371
-0.009704664 -0.02651389 0.058006138 -0.034712985 0.10506827 0.06346525 -0.03685458 0.11585215
0.0067820847 0.030512348 -0.044095248 0.035954535 -0.08985551 -0.037897035 0.01018104 -0.025046423
0.034878403 -0.096796945 -0.034815878 0.023871034 -0.036160573 -0.06673807 0.01824382 0.08710629
-0.017758846 -0.108140185 -0.090810075 0.06498641 -0.061020926 -0.007242173 0.026534587 0.08479932
-0.080249295 0.04450047 0.023910016 -0.04697296 0.12147641 0.070211515 -0.07310787 0.063743934
0.0796611 -0.12253432 -0.013052732 0.08218804 0.0932959 -0.082523555 -0.11325866 0.05223781
-0.11901906 -0.09930591 0.062602 -0.031142265 -0.020350814 0.05591087 -0.08788772 0.0756793
0.027229384 -0.043327257 0.02714914 -0.017358825 -0.089582205 0.08255945 0.04018663 -0.09935181
0.056123674 0.057022676 -0.05769366 0.111414686 -0.09394047 0.02551943 -0.04021652 0.008363113
0.05885707 0.097165465 0.07104868 -0.11237651 0.124607116 -0.08640608 0.07234983 0.07777694
0.09636757 0.07126367 0.036447957 -0.035526603 -0.08657642 -0.06104949 -0.06779954 0.0963276
-0.09762153 -0.099633574 -0.067254215 -0.0077804923 0.07157557 0.051297218 0.0014024824 0.09815399
0.074688196 -0.02242054 0.11224401 0.09212716 -0.03499955 -0.059843495 -0.017341822 -0.12002152
0.01738 0.009844184 -0.028809875 0.039306775 -0.067704245 0.08846854 0.07171282 0.09375803
0.012234688 -0.037661746 -0.07681136 0.020344079 0.11886078 0.02845779 -0.058846727 0.12463519
-0.089845166 -0.089429185 0.11468619 0.06418502 -0.03866306 0.030240938 -0.03913541 0.11310607
0.034473047 -0.06003295 0.031124875 0.04129833 0.099007264 -0.06983824 -0.064818874 0.05943252
-0.010778308 -0.082857 0.018077627 -0.026498616 -0.041308463 -0.032746658 0.019405708 -0.011930332
0.04200943 0.11245987 -0.028978467 0.06785078 0.10943514 -0.0875494 0.074219674 -0.1214281
0.071389124 -0.10210717 0.06297919 -0.12435514 0.058291078 0.0430094 0.09197308 0.12315148
0.011467174 -0.12369107 -0.07267164 0.042676106 0.011289358 -0.12156749 0.068479 -0.0037903339
0.039073974 -0.12046005 0.0471908 0.018703938 -0.073874876 0.029917076 -0.036272183 -0.11941454
0.0949779 -0.09671031 0.038163543 0.01312004 0.036244184 0.122875616 -0.12386389 0.070985556
0.12261638 -0.043192297 -0.042648703 -0.106721684 -0.09799418 0.031459108 0.004411146 -0.015968025
0.12093066 -0.11997956 0.12258993 -0.113436714 -0.07598524 0.06871317 -0.09460838 0.1209597

FC1.bias f4 [128]
00000000: b077 243d d433 8e3d 9e00 8abd e099 493c
00000010: 3c07 eb3d caef d4bd d86c ff3c c888 a23c
00000020: b222 debd 8ec4 dbbd 9666 ccbd c063 903c
00000030: ace8 21bd 0c27 e3bd aa96 df3d 0cd1 e9bd
00000040: b026 d13c 5878 013d a8c1 b73d 904f ad3d
00000050: 7898 e23c dc23 c13d 1ac8 c5bd 6003 b5bb
00000060: 70ae 86bc a40e b6bd 50f8 3fbc a888 db3c
00000070: 7002 6ebc a8b6 d83c 3869 b5bc 06dd d0bd
00000080: 349a f23d 4010 0c3c 9aa9 9dbd 80d4 0d3d
00000090: d2d1 b6bd 7491 f8bd 02b6 b43d 5a3b b0bd
000000a0: 8077 043c 2c5b 013d 86cd d93d 20a3 ffbc
000000b0: 0276 b8bd 0024 edb9 8c15 1f3d 3467 c5bd
000000c0: 42c9 db3d de7d ee3d 2421 04bd 0074 08bc
000000d0: 28ed 86bd 1881 b4bc 30f3 5f3d f4ee 1a3d
000000e0: 3e4c c53d 8ed1 c33d 2819 4e3d e0d6 94bc
000000f0: e89e fc3c e07b a33d 3ead ec3d 8c49 b8bd
00000100: b8f7 bb3c 6813 9e3d 34d3 23bd 80cc aa3a
00000110: 8a0a ca3d 0ce0 ab3d b230 a9bd 44fb d6bd
00000120: 78a0 51bd c0d2 1f3d f0e0 59bd 8ea9 afbd
00000130: 285e aa3c 1017 06bd c429 28bd f0e0 3dbc
00000140: 3c95 873d 7621 8f3d 4c31 d83d c0fd 923c
00000150: bcc5 113d 0278 ed3d 00f2 c5bb 8cb7 88bd
00000160: 580f e7bd 007c 913a c621 f2bd b07b 5f3c
00000170: cacd bebd 00a3 f1bc dc0f 8bbd feeb bdbd
00000180: 245b e4bd 8815 93bc 9658 cb3d 5cc1 e2bd
00000190: 88b9 c0bc 80ee 163d 905f c23c 5c23 5a3d
000001a0: c66b ebbd 1818 9c3c 782f 863d e0e1 8ebb
000001b0: 0a34 e43d dc07 d93d 64ad 5a3d b66c 99bd
000001c0: 6ace b6bd 5417 22bd 2452 b43d f468 6bbd
000001d0: f241 d93d d053 003c 4c26 bd3d 405f 223d
000001e0: 4475 793d c46c 293d 4c8e 153d 4029 a3bd
000001f0: 704b c13c 66f7 e5bd e84a 1b3d 4001 b3bb
0.040153205 0.06943479 -0.06738399 0.012304753 0.11475989 -0.10397299 0.03117983 0.019840613
-0.10846461 -0.10730849 -0.09980504 0.01762569 -0.039528534 -0.11091432 0.10917409 -0.11416826
0.025531143 0.03160891 0.08972484 0.08462441 0.027660593 0.09430668 -0.09657307 -0.005524084
-0.0164406 -0.08889511 -0.011716917 0.026798561 -0.014526948 0.026454285 -0.022144899 -0.10198407
0.11845818 0.008548796 -0.076983646 0.034626484 -0.08926739 -0.12137118 0.08823778 -0.086050704
0.008085132 0.03158109 0.106349036 -0.031205714 -0.09006883 -0.00045230985 0.038838908 -0.09638825
0.10731746 0.11645101 -0.032258168 -0.008328438 -0.06588203 -0.022034213 0.05467528 0.03782554
0.09633683 0.09561454 0.05031696 -0.018168867 0.030837491 0.07982612 0.11556481 -0.08998403
0.02294527 0.07718545 -0.03999634 0.0013030916 0.098652914 0.08392343 -0.08261241 -0.10497144
-0.051178426 0.039019346 -0.053193033 -0.08577262 0.02079685 -0.032736838 -0.041055456 -0.011589274
0.06620261 0.06988804 0.10556278 0.017943263 0.035588965 0.11595155 -0.0060408115 -0.06675634
-0.112822235 0.0011099577 -0.11822848 0.013640329 -0.09316595 -0.02949667 -0.06790134 -0.092735276
-0.11150196 -0.017954603 0.09929006 -0.110720366 -0.023525968 0.036848545 0.023727208 0.053256378
-0.114951655 0.019054458 0.06552023 -0.0043604225 0.11142738 0.10597202 0.053388014 -0.07491438
-0.08926089 -0.03957303 0.088047296 -0.057473138 0.10608281 0.007832482 0.0923582 0.03964162
0.06090285 0.041363493 0.036512658 -0.07966852 0.023595542 -0.11228828 0.037913233 -0.0054627955

FC2.weight f4 [128, 128]
00000000: 8c4d fbbb ca06 b3bd 6725 323d 8b29 893d
00000010: 7e9c 8fbc 899b 9a3d bdc3 6bbd ee71 57bd
00000020: aca1 ea3c c2ad a03d 215a 3e3d 596f ab3d
00000030: 47d7 9cbd 1a38 acbd 280c 47bd de6f 263d
00000040: 414f c3bb 1418 343d cf41 da3b 867f ac3d
00000050: 6e09 4bbc a27c b13d 8dd8 c23b b9ac 48ba
00000060: b54e 8b3d eeaf 15bc 039c 97bd 4fd1 a73d
00000070: 8c0f bb3c f9a3 7ebd a047 27bb 333e 793d
00000080: 6e5c a9bb e4f7 8a3d 6997 923d 6122 10bc
00000090: 27f9 e63b 962f f63c 8634 b23d 740e 52bc
000000a0: faaa fa3c dea4 a0bc 03e7 b4bd 2e7b 72bc
000000b0: 60b8 983d baa9 8fbc 83aa 11bb 8095 3f3d
000000c0: 40d5 7abb 20b3 913d cabb 093d 9774 64bd
000000d0: 40c4 8a3b eb0b 84bd c0cb 8cbd d61f 0cbd
000000e0: a9d5 b43b 04ec 87bd 15d1 a4bd c355 023c
000000f0: aeb1 98bc e5ed b4bd df82 803c ec95 0cbd
00000100: 7560 acbc b387 3b3d 85f8 9d3c b6e4 0abd
00000110: e7b1 ac3d 7260 843a cca8 463c e1e0 aabd
00000120: 97fa 1e3c 78be 6f3d 9c6f 7d3d 660d 1c3d
00000130: 192f b23d 7237 5a3d 9338 d13c d917 5ebc
00000140: 31da 493d e0ea 3c3c 4e0c 9cbc 1cc0 013d
00000150: c2fa 0d3d a332 413d 052c 7c38 5f28 09bd
00000160: 1247 ef3b 2ce3 983d e5cf 0ebd f9ef 373d
00000170: 1d0d 72bd f133 a93d 4d3d e73b f3dd ab3b
00000180: 32b7 8a3d dde3 163d 74d5 cb3c f246 acbd
00000190: 0684 8f3d ff93 bb3c b7cc 273d 1c57 acbd
000001a0: 42a2 dfbc 4507 dfbc d11c 283b b143 64bd
000001b0: 1e06 7f3d 6326 8dbd 1d52 3d3d 0532 aa3c
000001c0: e41f b0bc 4f6d 58bd 7585 a7bd 0295 933d
000001d0: 35b8 953d ae89 ad3d fd95 aebc f91d 9d3d
000001e0: 62ec f63c 8303 9a3d bae8 df3c 6a7a f9bc
000001f0: 12a3 4d3d 8d4e 933d 3533 44ba 709d 38bd
00000200: 1bf3 5c3c 2d2b 333d 0c42 e8bb 5e98 40bd
00000210: ecc4 adbd 4a88 143d b473 503d 6633 133c
00000220: 92da 953d adff c3bc 4a5b a73c 97ca 583d
00000230: edaf 0bbd 7829 ad3d 41ee 02bd 68c1 aabd
00000240: 967f 42bd 5946 003c def2 f03b d0fe 63bd
00000250: c42e ff3b 0114 253d b7b9 b4bd df8b a73d
00000260: a93e e93b 6b8c a7bd a08d 883d b7d6 70bc
00000270: eafc 803d 4945 373d 6781 acbd bc4c ab3d
00000280: 140a 503d 038f 783d 6c19 5fbd 81f4 4ebd
00000290: bace 953d 5d8f 6abd 003c 7bbd ef08 8ebb
000002a0: 81ac ac3d 3629 4ebc e508 7abc fdf1 433d
000002b0: 171f 0fbc 93e9 6abc 212f e43c 8c24 993d
000002c0: bdbf 373d 5ca1 cd3c 6f3a 973d 52b5 08bd
000002d0: 7c9d 16bd 52e3 b03d 0bf4 7cbd 892f 73bc
000002e0: 16c7 67bd 0bfe 0c3d a942 69bd bb30 9f3c
000002f0: 9e41 6ebd 9d7e 3abb 6ab8 c7bb a665 06bd
00000300: b914 90bd 722d 04bd 7f69 623d ff6a 83bd
00000310: 5104 a93d 4b2d a3bd ea61 63bc 4b41 01bd
00000320: 65e7 3abc 0f72 7e3d 1812 293d 06dd 403d
00000330: d478 41bd 65a3 403d fb4b 1ebd 8781 4d3d
00000340: e0e2 8abc 5fbe 343c 5014 47bd 6f7d 913d
00000350: d090 31bd ad27 ccba 6fab 6f3d f800 953d
00000360: 31db 89bc a45e f03b 0f4f 8abd 0f82 643b
00000370: 71bb 7a3d 40de 833b b5d6 3d3d 09c6 74bb
00000380: 8930 333d 089c 343d 9b5f b23d 6d85 ab3d
00000390: 449f 82bd 82a6 8bbd 3db4 bfbc c832 133c
000003a0: 400d a6bd 02a1 873d 97f5 a6bd 5a73 303d
000003b0: 9ec2 af38 e86a 673d fde3 bfbc 6238 883d
000003c0: 8595 d9bc 5f4b 55bd 3599 4d3d befd 263d
000003d0: 6207 113d bdac 753d 86ea 273c 841e 483d
000003e0: 7f76 80bd 23fa a13d 74ee 86bd a843 a5bd
000003f0: b168 18bd a824 46bc 2484 20bd 2cb5 f03b
-0.0076691564 -0.08741529 0.0434927 0.06697377 -0.017530676 0.07549197 -0.057559717 -0.052598886
0.028641544 0.07845642 0.046472672 0.08370847 -0.076582484 -0.08409138 -0.048595577 0.04063403
-0.0059603755 0.043968275 0.006660677 0.08422761 -0.012392385 0.0866635 0.005946225 -0.0007655132
0.068021215 -0.009136183 -0.07402804 0.08194219 0.022834562 -0.062168095 -0.002552487 0.060850333
-0.005168489 0.06785563 0.071577854 -0.008797259 0.0070487442 0.030051988 0.08701424 -0.012820829
0.030599106 -0.019609865 -0.088331245 -0.014799876 0.07457042 -0.017536987 -0.0022226877 0.046773434
-0.003827408 0.071142435 0.033626355 -0.05577525 0.0042348206 -0.06447586 -0.068748 -0.03421005
0.0055186343 -0.06636813 -0.08047692 0.0079550175 -0.018639412 -0.08834437 0.015687404 -0.034322664
-0.021042088 0.04578371 0.019283542 -0.033909522 0.0843237 0.0010099544 0.012125205 -0.083436735
0.0097033 0.058531255 0.061874017 0.038098715 0.087003894 0.053275533 0.025539672 -0.01355549
0.04928035 0.011530608 -0.019048836 0.03167735 0.03466297 0.04716743 6.012248e-05 -0.033485767
0.0073021734 0.074652046 -0.034866232 0.04490659 -0.059094537 0.0826186 0.007056868 0.0052449643
0.06773223 0.0368384 0.024882056 -0.08411969 0.07007603 0.022897718 0.040966716 -0.08415052
-0.02729905 -0.027225146 0.0025651942 -0.055728618 0.062261693 -0.06892087 0.046220887 0.020775804
-0.021499582 -0.05283862 -0.08179752 0.07206155 0.07310525 0.08473526 -0.021311754 0.076717325
0.030142013 0.07520201 0.027332652 -0.03045388 0.050204344 0.07192717 -0.0007484437 -0.04507202
0.013485695 0.043742348 -0.0070879515 -0.04702031 -0.084848255 0.036262788 0.050891593 0.008984422
0.073170796 -0.023925627 0.020429272 0.05292758 -0.034103323 0.08455175 -0.031965498 -0.083376706
-0.047484957 0.007829272 0.007353171 -0.05566293 0.0077875573 0.04030228 -0.08824485 0.08180975
0.0071180654 -0.081810795 0.06667638 -0.0146996295 0.062982395 0.04474381 -0.08423119 0.08364245
0.05079086 0.06068326 -0.054467604 -0.050526146 0.073148206 -0.057265628 -0.061336517 -0.004334561
0.0843134 -0.012583068 -0.01526091 0.0478382 -0.00873544 -0.014337915 0.027854504 0.07477674
0.04486059 0.025101356 0.07384192 -0.033376046 -0.036771283 0.08637108 -0.061756175 -0.014842876
-0.056586348 0.03442196 -0.056948338 0.019432416 -0.058168046 -0.0028456815 -0.006094982 -0.032811783
-0.070352025 -0.032269903 0.05527639 -0.06416892 0.082527764 -0.07967623 -0.013878325 -0.03155641
-0.011407708 0.062120494 0.04127702 0.047085784 -0.04723437 0.047030825 -0.03864668 0.050172355
-0.016953886 0.011031716 -0.048603356 0.07104003 -0.043350995 -0.0015575789 0.0585131 0.072755754
-0.016828151 0.007335501 -0.067533605 0.003486756 0.061213914 0.004024297 0.04634734 -0.0037349483
0.04374746 0.044094115 0.087096415 0.08375058 -0.06378034 -0.06818868 -0.023401374 0.008984275
-0.08107996 0.06622507 -0.08152311 0.043078758 8.3809005e-05 0.056498438 -0.023424143 0.06651379
-0.026560554 -0.052073833 0.050194938 0.04076933 0.03540743 0.05997919 0.010248786 0.048857227
-0.06272601 0.07909038 -0.0658845 -0.08069545 -0.037209217 -0.0120937005 -0.03918852 0.007345816

FC2.bias f4 [128]
00000000: d0d6 27bd 5bd6 9d3d 19a1 b03d d7ec acbc
00000010: 2a67 363d 5f9f 8fbd 33e3 2dbc a427 d33c
00000020: b2a9 5f3d 291c ff3c b8b7 b1bd ac9c 493d
00000030: 8a23 143d 073b 16bd a4aa 163d f67a 043d
00000040: fbc9 a63d fedb 903d f027 1a3d c480 1dbd
00000050: ad94 553b e93f 8ebc 54e3 8b3d 39c8 2c3d
00000060: 3991 0bbb c36d 9cbd 0445 3cbd ef61 b5ba
00000070: 65c5 d2bc 9182 8cbd 592a 6e3d 1abb 513c
00000080: 9162 87bd 0670 d83c c453 f5bc 0256 4b3d
00000090: a25d ff3c c2ea 6c3c d929 8f3d ee5d 7bbd
000000a0: 58a9 47bd 5af8 b23d 67fb 1fbc 7c45 95bc
000000b0: 31c6 1bbd 5290 a23d 0c02 d0bc c53e ad3d
000000c0: bd3e 303d 86fa ac3d 30f8 8c3c 47bc a2bd
000000d0: 63b3 99bd 7458 a43c 60e9 14bd 2f39 adbc
000000e0: ad34 143d 3293 813c f2e4 98bc 4a8a e23c
000000f0: b994 ff3c 3d15 283d 22e7 573d e862 8abd
00000100: 861d 903d f79c 853d a3db 3f3c 9f0b 803d
00000110: 01d0 34bd 45c0 0a3b e803 cb3b d822 b13b
00000120: 58de e73b 98df 43bc 29e1 673d c68d a33d
00000130: 83e4 8aba b28c efbc c9cd 643d 1643 5b3d
00000140: 8db6 803d f283 a93d 0ce3 11bd 906e ccbb
00000150: 35bc 7d3d 9a05 a93d 86c4 083d 580b 293d
00000160: 98a9 1ebd 4e8e 50bd 8fb9 42bd a10d a13b
00000170: b0d3 86bd 8af5 2d3c 21ef 4d3d 3dc3 86bd
00000180: 50de a13c 6847 8b3d e17b 803d d743 3b3d
00000190: f89b 4dbd 2eef 223d 63f6 1f3d 6e4d 86bc
000001a0: 3d9a 4abc a8ce 32bd d1f6 9ebd ddc0 923d
000001b0: 9750 af3d 26b2 ce3c f3bc 03bd 35c9 13bd
000001c0: 1d18 1f3b 9695 fa3c 5234 5c3d 161c 9e3d
000001d0: d037 e83c 7d80 5c3d 3775 84bc 5fed 2ebd
000001e0: fce0 b43d a605 153d ec2a 403c 4ff9 6ebd
000001f0: 8c40 61bd f7b2 b9bb 1457 a03d 3322 0c3d
-0.040976346 0.07706901 0.08624477 -0.021109028 0.04453198 -0.070128195 -0.010613251 0.025775738
0.054605193 0.031141357 -0.0867762 0.04922168 0.036166705 -0.036677387 0.03678383 0.032343827
0.081439935 0.0707321 0.037635744 -0.03845288 0.0032589838 -0.01736446 0.06830469 0.042183135
-0.0021296276 -0.07638123 -0.045964256 -0.0013838391 -0.02572889 -0.06860841 0.058145855 0.012800956
-0.06610597 0.026420604 -0.02994717 0.04964257 0.031172577 0.0144602675 0.06990404 -0.061368875
-0.048745483 0.087387756 -0.009764529 -0.01822161 -0.038030807 0.07937683 -0.025391601 0.08459238
0.043028582 0.08446221 0.017208189 -0.07946067 -0.075049184 0.020061709 -0.036355376 -0.021145431
0.036183048 0.015817259 -0.018663857 0.027653832 0.031198846 0.04103588 0.05271066 -0.06757146
0.07036881 0.06524079 0.01171008 0.062522165 -0.04414368 0.002117173 0.006195534 0.005405765
0.007076066 -0.011955164 0.056611214 0.079860255 -0.0010596666 -0.029241893 0.055860315 0.053530775
0.06284819 0.0827712 -0.03561692 -0.006238766 0.061947066 0.082530215 0.033390544 0.041270584
-0.038735956 -0.050916962 -0.047540244 0.004914955 -0.06583345 0.010617623 0.05027688 -0.065802075
0.019759327 0.06800729 0.06273628 0.045718994 -0.05019757 0.03977888 0.039053332 -0.016394343
-0.012365875 -0.043654114 -0.0776192 0.07165692 0.08560293 0.025231432 -0.032162618 -0.036080558
0.0024275847 0.030588906 0.053760834 0.07720201 0.028346926 0.053833473 -0.016169174 -0.042706843
0.08831975 0.03638234 0.011728983 -0.058343228 -0.054993197 -0.005667086 0.07829109 0.034212302

FC3.weight f4 [128, 256]
00000000: 6ab1 5dbd 02ee 6e3d 188e 7b3c 50fb 8c3c
00000010: 1c41 bb3c 2025 463d 8645 3f3d 90ee 6a3d
00000020: 1c8a de3c a4c6 db3c 102a 6f3c 96b5 0abd
00000030: d01a e53c 92c3 39bd d0e3 693c 4056 b63b
00000040: c45d de3c f00a 2dbc 60f8 7f3c b8c1 f43c
00000050: d6c2 583d 2cd0 a93c 54fc 83bc b808 343c
00000060: d0e8 41bd b4bc a8bc 144a 0dbd f023 38bd
00000070: 5cf4 3dbd 582f 053d 706d 32bd 8426 68bd
00000080: 74d0 02bd 5cf2 69bd aad6 20bd c0cd 62bc
00000090: 283d 7d3c 4e41 523d 9251 5b3d 2ead 59bd
000000a0: a8ed bfbc b84f 7c3c 9065 ea3c f811 703d
000000b0: 4004 f1bb 8068 a93c bc9a 5f3d de72 243d
000000c0: c47e 293d 30d0 ea3c c03a 0f3d 9c1d 7d3d
000000d0: 3cdf c03c 96c6 10bd 48bf 1cbd 663b 4b3d
000000e0: 5473 cdbc 004d 57ba f0f5 203d d8bd 09bc
000000f0: 1a82 36bd fca5 fe3c 50c9 21bc 9816 8f3c
00000100: 3e2e 04bd c46f 12bd fcaf 943c a8f2 c0bc
00000110: 68ce f13c a4e6 70bd 1081 843c e46d 55bd
00000120: fca5 24bd e4b8 a73c 6605 5bbd 44be ecbc
00000130: d0a4 b4bb 206e 18bc e00f 7d3c 40e0 183d
00000140: 0859 933c faf6 64bd 228c 4e3d ec80 d7bc
00000150: b627 54bd 8c3b 343d 80ed 8cba 82d9 27bd
00000160: 2640 6d3d 00c9 febb d662 75bd bc70 663d
00000170: 10ae d9bc a0ff 9abc 8017 3b3a 6e58 77bd
00000180: 70f4 7ebc 48e5 b5bc e886 89bc b821 afbc
00000190: d05c 91bb 5645 1fbd 0050 2c3c d489 edbc
000001a0: 0c4b 63bd 30d7 693d a0d5 80bb 6072 f6bc
000001b0: 383c d33c 2ecd 483d 946c 143d 109e e83b
000001c0: a841 e5bc 00c8 e039 a656 4b3d f422 81bc
000001d0: a086 04bb 404a d63b d401 f83c 840b 7bbd
000001e0: 6435 7e3d a261 32bd 3475 cd3c f8a4 353c
000001f0: 6c11 253d 28ba 443d c0b9 5dbc 34b5 703d
00000200: 649a 1f3d 8415 6dbd d67b 253d 2013 a03c
00000210: e8d9 443c 1846 05bd 3009 2dbd 04d6 3dbd
00000220: 6c33 e4bc 1cf5 4d3d ca41 7c3d 34bb 46bd
00000230: b8e7 d0bc cc7d 683d 4815 2dbd b449 b63c
00000240: 9c32 703d b087 adbb 7c07 e73c f05f 01bd
00000250: 507d 04bc e4b8 623d f4db b73c ae5d 55bd
00000260: 88d0 203d be92 643d 704b 20bc f241 17bd
00000270: 2aba 363d 2a9d 363d 4c8d 75bd 849b 63bd
00000280: 9cb7 86bc 7e5d 2fbd 34eb 4e3d 4c5b e1bc
00000290: 8029 6fbd 244e 013d 4ad0 67bd 98ce 88bc
000002a0: f43b 323d 74da 41bd 8045 1b3a e045 92bb
000002b0: 4040 14bd a017 98bb da65 08bd 50f6 cabb
000002c0: b63e 4c3d a8f9 f6bc e04e 303d 42ac 5d3d
000002d0: 4882 bebc 780e 45bd 2aa6 2cbd 40d0 6b3b
000002e0: b089 1a3c 40db 7e3d c23b 71bd 8844 5d3d
000002f0: 508c 25bd 026c 3fbd a8a3 1d3d 4409 583d
00000300: ee76 58bd acaf 9dbc 6052 6a3d 7269 763d
00000310: 380f e4bc 8003 403c 1c24 78bd f8c8 09bc
00000320: 3e67 183d 2c9f debc cc2a 4a3d 2a09 78bd
00000330: 5698 773d bc7f d23c cccf 09bd 0a6f 7ebd
00000340: 6abb 47bd 18fd 453c 1cf5 3d3d 6ca7 4d3d
00000350: c0ec 80bc e240 033d d0b9 9e3c 404c cb3a
00000360: b2e0 3d3d a4b7 053d a072 0cbc 3c39 80bc
00000370: 22f2 76bd 4ea3 32bd 0014 8638 1aa7 13bd
00000380: 3ae4 4cbd bef4 443d 6a28 16bd 14c8 1ebd
00000390: 9c2a 66bd 8829 b93c 58b7 97bc 60e5 24bb
000003a0: fa6d 72bd b806 523d c09a 123d a6ec 723d
000003b0: cc8d 7cbd a493 923c 1a6d 153d d836 693c
000003c0: 2011 aabc dc95 82bc 42eb 12bd 6010 6fbb
000003d0: 821e 643d 341a 59bd 149a a13c c434 633d
000003e0: 0833 683d 2ec4 2bbd 827d 6a3d debb 73bd
000003f0: 3075 73bd 7e74 763d 46ce 41bd 88c0 1ebc
-0.054124273 0.05833245 0.015353702 0.017209679 0.022858195 0.04837525 0.046697162 0.057356417
0.027165465 0.026828118 0.014597431 -0.03386458 0.027966887 -0.045352526 0.014275506 0.005564481
0.02714432 -0.01056169 0.015623182 0.029877529 0.052920185 0.020729147 -0.01611153 0.010988407
-0.047341168 -0.020597793 -0.034494475 -0.044956148 -0.046375617 0.032515854 -0.0435614 -0.056677356
-0.031937078 -0.057115898 -0.03926722 -0.013843 0.015456475 0.05133181 0.05354459 -0.053143673
-0.023428753 0.015399866 0.028612882 0.058610886 -0.007355243 0.020679712 0.054590926 0.04014861
0.04138066 0.028663725 0.034968138 0.061795816 0.023543946 -0.035345636 -0.038268358 0.049617194
-0.025079407 -0.0008213073 0.039297044 -0.008407079 -0.04455767 0.031085007 -0.009874657 0.017466828
-0.032270662 -0.03575112 0.018150322 -0.023553208 0.029517367 -0.058813706 0.016174823 -0.052106753
-0.040197358 0.020473905 -0.053471945 -0.02889932 -0.0055128112 -0.0093036 0.015445679 0.037323236
0.01798679 -0.055899598 0.05042661 -0.026306592 -0.051795684 0.0440021 -0.0010751933 -0.040978916
0.057922505 -0.007775426 -0.05990871 0.056259856 -0.026572257 -0.01892072 0.00071369857 -0.060387067
-0.015561208 -0.022204056 -0.016787961 -0.021378383 -0.004436113 -0.038884483 0.01051712 -0.028996386
-0.055491492 0.057089984 -0.003931716 -0.030083835 0.02578555 0.0490238 0.03623636 0.0070989206
-0.027985409 0.0004287362 0.04964318 -0.015763737 -0.0020221844 0.006539613 0.03027431 -0.06129028
0.062062636 -0.04355014 0.0250803 0.011086695 0.040299818 0.048029095 -0.013533056 0.05876656
0.038965598 -0.057881847 0.040401302 0.01954037 0.0120148435 -0.03253755 -0.04224509 -0.04634668
-0.027856551 0.050282583 0.06158618 -0.048518375 -0.025501117 0.056760594 -0.042256624 0.022251941
0.058642015 -0.005295716 0.028201811 -0.031585634 -0.008086517 0.055352107 0.022443749 -0.052091293
0.03926137 0.055804007 -0.009783611 -0.036928125 0.044611134 0.044583477 -0.059949204 -0.055568233
-0.016444974 -0.04281377 0.050517276 -0.027509354 -0.058389187 0.03156866 -0.056595124 -0.016700074
0.043514207 -0.047327474 0.0005923137 -0.004463896 -0.036194086 -0.004641488 -0.03330026 -0.0061939135
0.049864493 -0.030148342 0.04304397 0.054119356 -0.023255482 -0.0481095 -0.042150654 0.003598228
0.009432241 0.06222081 -0.05889488 0.054020435 -0.040417016 -0.046733864 0.038486153 0.05274321
-0.052847795 -0.019248806 0.057207465 0.060159154 -0.027839288 0.011719584 -0.06058131 -0.008409731
0.037207834 -0.027175508 0.04935722 -0.060555615 0.060448013 0.025695674 -0.033645436 -0.062117614
-0.048762716 0.012084268 0.046376333 0.050208494 -0.015737891 0.0320443 0.019375712 0.0015510395
0.046356864 0.032645836 -0.008572251 -0.015652291 -0.06028951 -0.04361277 6.393343e-05 -0.036048032
-0.05002234 0.048084967 -0.036659636 -0.038765028 -0.05619298 0.022602811 -0.018520042 -0.0025161132
-0.059186913 0.05127594 0.035792112 0.059307717 -0.061658666 0.017892666 0.036481 0.014234267
-0.020760119 -0.0159406 -0.03586889 -0.0036478266 0.055693157 -0.053003505 0.01972679 0.055470243
0.056689292 -0.04193514 0.0572486 -0.059505336 -0.05943793 0.06016969 -0.04731586 -0.009689458

FC3.bias f4 [128]
00000000: 6a9f 6c3d 3a77 78bd dabe 30bd f4e5 cd3c
00000010: e023 393c 808e cf3b 908f 5abc 20e6 24bc
00000020: 46ff 6f3d e8e6 0e3c 9c61 dabc c076 35bd
00000030: 16e7 5d3d 5c04 163d b82e 113c 087a e4bc
00000040: 20d2 2b3d ce49 65bd 6463 d2bc dcb2 5dbd
00000050: 58d2 ef3c 4429 b5bc 8695 013d faff 523d
00000060: 2e04 45bd 8468 c03c 30e0 9e3c 4c38 683d
00000070: a6e3 75bd 32bb 013d 84e0 853c a22a 15bd
00000080: 8aff 4cbd c08a a0bc f8f4 073d f414 fb3c
00000090: c27d 79bd a0ef 993c b872 b1bc ec1f 2d3d
000000a0: 58ae 893c 0c8f f63c 0cb5 663d 54e2 c23c
000000b0: 7824 7bbd bc94 82bc 683e 41bc 764d 553d
000000c0: a843 a9bc 4883 33bc f494 4bbd 2cf1 883c
000000d0: 2c1d da3c d09f b53b 702e 73bc d00f 583c
000000e0: 6ce7 acbc f0ec 42bc 60a1 1a3b aaff 78bd
000000f0: 28ff 113d 8261 2ebd dccd 9d3c 9073 50bd
00000100: 2044 debc dec5 5c3d 80f1 3eba 10b3 793c
00000110: 463f 7f3d 203c ccbc a01f 193c a498 703d
00000120: 84d6 0fbd 2294 6abd 20d4 bd3b 483e 113d
00000130: d012 033c 16b8 6b3d 1ef4 34bd 186b 79bd
00000140: 9030 f0bb b0ae f93c 60f0 5cbd 8c79 763d
00000150: d2c3 14bd 90a3 153c b098 973b a089 733d
00000160: 8c11 5cbd b8c5 3c3d 7c54 7f3d 666d 613d
00000170: d84b 01bd 32e0 103d bcd0 0a3d c0c1 833b
00000180: d2c1 4fbd ecd8 adbc 249b 09bd c023 223d
00000190: 0e40 663d e05f 97bb fce8 f5bc d056 653c
000001a0: 385b 1f3c f073 233c e46d 22bd e0e2 cf3c
000001b0: ac96 d03c 3c6c 6d3d dcb3 60bd b820 ce3c
000001c0: b8e0 43bc e4a2 f73c c880 6b3c c480 f73c
000001d0: d00f ecbc cae0 13bd 7eed 6b3d 44a9 6ebd
000001e0: 546d 903c 5cc1 12bd 4c12 79bd f0ac 1ebc
000001f0: 60f6 ef3c babc 3e3d ae1c 77bd 200d 413c
0.057769217 -0.06066058 -0.04315076 0.025134064 0.011300057 0.006334126 -0.013339892 -0.010064632
0.058593057 0.0087220445 -0.026657872 -0.044302702 0.05417546 0.03662525 0.008861236 -0.02789022
0.041948438 -0.05597859 -0.025682159 -0.05412565 0.029275104 -0.022114404 0.031636737 0.05151365
-0.04809969 0.023487337 0.01939401 0.056694314 -0.060031556 0.031672664 0.016342409 -0.03641761
-0.05004839 -0.019597411 0.033192605 0.03064964 -0.060910948 0.01879102 -0.021661147 0.04226677
0.016806766 0.030097507 0.056325004 0.023789562 -0.061314076 -0.015940063 -0.011794664 0.052075826
-0.020662144 -0.010956593 -0.0497026 0.016716562 0.026625238 0.005542733 -0.0148426145 0.013187364
-0.021106444 -0.011897311 0.0023594722 -0.060790695 0.035643727 -0.04257346 0.0192632 -0.05089146
-0.027132094 0.05389964 -0.0007283911 0.015240446 0.0623162 -0.024931014 0.009345919 0.05873932
-0.035116687 -0.057270177 0.0057931095 0.035459787 0.008000091 0.057548605 -0.04417812 -0.06089315
-0.007330008 0.030478805 -0.053940177 0.06017451 -0.03631956 0.009133235 0.004626356 0.05945742
-0.05372767 0.046086997 0.06233643 0.05503597 -0.03156647 0.03537006 0.03389047 0.0040208995
-0.05072195 -0.0212216 -0.03359522 0.039584875 0.05621343 -0.0046195835 -0.030018322 0.0139977485
0.009726338 0.009976372 -0.03965558 0.025376737 0.025462471 0.05796455 -0.054859027 0.025162086
-0.011955433 0.03022904 0.014373966 0.030212767 -0.028816134 -0.036103047 0.057599537 -0.058266893
0.017630257 -0.035828933 -0.060808465 -0.009684786 0.029292285 0.046566702 -0.060330085 0.011782914

FC4.weight f4 [128, 512]
00000000: 0872 ea3c 40c6 263d e271 edbc 2681 163d
00000010: 0206 b33c 06b8 b1bc 156c 34bd fdc7 eabc
00000020: d503 55bc 0dc2 c5bc 7f3a c93a effd 093d
00000030: 6718 963b ba05 56bc ea52 62b9 2850 053a
00000040: 730e 2c3d 5b3c bcbc d11c d43c bfb2 f83c
00000050: c224 c43c 4133 e5bc 6ea8 5ebc 7efd 88ba
00000060: 46c0 203d 200b 1d3d 18e0 023d 61c5 283d
00000070: c184 323b e306 15ba 0184 153d 57c0 38bc
00000080: dd64 a6bc e20a 00bc e8ae 093c 4535 993b
00000090: e560 ce39 c5bb f4bc f211 06bc c9ca 28bc
000000a0: 740a f83b 68d9 433b a3f0 133c a94f 313d
000000b0: 9426 64bc f202 e6bb e97b a6bc d8a0 d73c
000000c0: 3457 c23c d2ec f93c aafa f93c 4e52 d83b
000000d0: 0cbc 353c 6dc3 b5bb 6b45 cc3c aeb6 aabc
000000e0: 9c2f 84bc 999a eabb bf49 ad3c 95ff a3bc
000000f0: 34dc 0b3d 5f08 94bb e7b2 233c d35c 07bd
00000100: 8238 093d 3139 1c3d 8060 aebc dab0 9a3b
00000110: 8f8f 0b3d 1627 813c 91dc 8cbc 8ebf b8bc
00000120: 0e02 873b 642e d13b 11a8 d7ba 9a8d 0d3d
00000130: 1f3a f73c 98c0 7d3c 1e36 4abc 7c02 c0bc
00000140: 4f1b 68bc 0dbf e1bc 0513 8c3c c78c d1bc
00000150: b62c 9abc 7eea b53b 36bf 113d ace6 953c
00000160: 1bd9 183d d6b1 cc3c 10ae de3a 1e32 8bbb
00000170: 324c a53c 6270 853c c2d3 d6ba e295 0dbd
00000180: 7649 0d3c 4017 9d3c 82c1 8a3b 73cc 7f3c
00000190: faa4 933c bab0 a5bb 6615 043d 4b30 cabc
000001a0: 1209 31bd ef26 1c3d 0d21 b03c 45df 253d
000001b0: 9724 ea3c 1e20 b3bc 0898 2b3d 886a f8bb
000001c0: 341b 043d ef38 91bb a7b5 0d3d a8c4 6dbc
000001d0: 7cb6 e03c 7a3c eebc 48bd e4bb a80f e5bb
000001e0: ffe0 bdbc c465 fdbc 3c32 1abb efcb 073d
000001f0: e279 3e3c 1fea bdbc ef5e b23c 8d18 a6bc
00000200: f269 29bd f63c a93c 6118 49bb 3af9 2ebc
00000210: f1ef 8dbc 9620 2d3d e37f 59bb afd4 b13c
00000220: 8e66 d6bc b9e5 febc 3e8e 9f3b bb83 a43c
00000230: 3497 08bd 935d 23bd 7ba2 b7bc 5972 b8bc
00000240: d9c7 053d 5022 a93b 9fc8 0f3c 2562 6e39
00000250: 3f95 17bd 2626 333d f624 04bb d315 69bb
00000260: 97a5 343d 742c 43bc 7334 54bb 41ef e63b
00000270: 6fe3 1abd f310 f63c c3c5 e9bb 572b 12bd
00000280: 2450 90bc 99f6 f9bc b20f fdbc 8bee 123b
00000290: 975b 123d 4ddc b03c 9564 6cbb 2b40 d73c
000002a0: 2c21 323d ecd0 58bc 805f 01bd 708c 323d
000002b0: 03dc 01bd 3673 e43a effc 22bd d949 f2bc
000002c0: aa3b 56bc 8318 bcbb 7c6c ec3c d161 e7bc
000002d0: 4b03 67bc 0fe3 a63c 3d21 04bd cd61 a0ba
000002e0: 5090 87bb d3d8 1b3d 743a cfbc b92b 84bc
000002f0: 26bc e33c fdc2 dabc 664f b63c 04e1 783c
00000300: d53e b3bc a0af 6cbb 714e d7bb 79ae b6bc
00000310: c386 263a 3d0a 133d 4871 c83c 91dc aebc
00000320: f25a 263d 9109 573c 1666 983a fd51 1b3d
00000330: d6ff ea3c 469b 043d 1c58 1fbd 3299 013d
00000340: 27ef 8cbb 60fc cbbc b352 a6bc f116 1d3d
00000350: 72fb 5a3c 1046 1e3d 6409 d73c 8fb8 e73b
00000360: 7f6b 11bd 919b 28bc edd8 e8bb 8dfe da3c
00000370: 694d d43c 633f 18bd c36b 1f3d 7f79 a3bc
00000380: 66cd 27bd 7f21 5bbc fbf8 4cb7 9739 45bc
00000390: fb31 2c3d 4dcd a5bc 1197 103d 988e 17bb
000003a0: b634 e83c 47a4 113d 9c3d 1b3b 63bc 323d
000003b0: ea8d f53c 0899 b13c 02d3 2c3d f289 6d3b
000003c0: b2ef e43c 344d 6439 4321 5e3c 8684 17bd
000003d0: d905 6dbc f42b 933c c29b a93c 247f 233d
000003e0: 1a7c 0f3d 986d 0c3d 0049 08bd b955 dbbc
000003f0: 1f1f 1ebb b521 fb3b 3c76 1bbd 818c a4bc
0.028618827 0.04071641 -0.028984968 0.03674426 0.02185345 -0.021694195 -0.044048388 -0.028659815
-0.013001402 -0.024140382 0.0015352516 0.033689436 0.0045805457 -0.013062889 -0.00021583927 0.00050854916
0.042005967 -0.022977998 0.025892647 0.03035867 0.023943309 -0.027978541 -0.013589961 -0.0010451523
0.039245866 0.038340688 0.031951994 0.04120386 0.0027239772 -0.0005684925 0.03650284 -0.011276326
-0.020311767 -0.007815095 0.008403517 0.0046755397 0.00039363574 -0.029874692 -0.008182989 -0.010302254
0.0075696055 0.0029884223 0.00902954 0.04328886 -0.013925213 -0.007019394 -0.020322757 0.026321813
0.023723222 0.030508433 0.030515034 0.0066016084 0.011092197 -0.005546978 0.024935445 -0.020839062
-0.016135983 -0.0071595428 0.021153329 -0.020019332 0.03414555 -0.0045175995 0.009991384 -0.03304751
0.033501156 0.03814048 -0.02128625 0.0047207894 0.034072455 0.015765708 -0.017195018 -0.022552278
0.004120118 0.006383704 -0.0016453286 0.03455887 0.030179081 0.015487812 -0.012342004 -0.023438685
-0.014166667 -0.02755692 0.017098913 -0.025579823 -0.018820148 0.0055516353 0.035582744 0.01829847
0.037316423 0.024987143 0.001698913 -0.004247918 0.020177934 0.01628894 -0.0016390013 -0.034566768
0.0086234715 0.019176126 0.0042344937 0.015612709 0.018023003 -0.005056468 0.03224697 -0.024681231
-0.04322154 0.038123067 0.021500135 0.04049613 0.0285819 -0.0218659 0.041893035 -0.007581059
0.032252505 -0.004431836 0.034597065 -0.014512219 0.027430765 -0.029081572 -0.006980572 -0.0069903918
-0.023178576 -0.030932315 -0.0023528477 0.03315347 0.011625739 -0.023182927 0.021773783 -0.020275379
-0.041360803 0.020658951 -0.0030684697 -0.010679537 -0.017326327 0.042267404 -0.0033187799 0.02170786
-0.026171949 -0.0311154 0.0048692515 0.020082345 -0.033347324 -0.03988416 -0.022416344 -0.022515463
0.032661293 0.005161561 0.008775859 0.0002273401 -0.037007567 0.043737553 -0.0020163632 -0.0035565987
0.04410323 -0.011912454 -0.0032379895 0.0070475643 -0.037814554 0.030037379 -0.0071341707 -0.035685863
-0.017616339 -0.030513095 -0.030891273 0.0022420015 0.035731878 0.021589423 -0.0036070694 0.026275715
0.043488666 -0.013233405 -0.031585217 0.043590963 -0.03170396 0.0017429355 -0.039791998 -0.029576229
-0.013075748 -0.0057402267 0.028860323 -0.028244885 -0.014099906 0.020371942 -0.03225826 -0.0012236178
-0.0041370764 0.038048577 -0.025296427 -0.01613413 0.027799677 -0.026704306 0.022254657 0.015190367
-0.021880547 -0.0036115423 -0.0065706302 -0.022299992 0.00063524785 0.035898436 0.02446808 -0.021345409
0.040614076 0.013124839 0.0011627104 0.037919987 0.028686445 0.032374643 -0.038902387 0.03164024
-0.00430097 -0.024900615 -0.020303106 0.038351957 0.013365613 0.038641036 0.026249595 0.0070715616
-0.035502907 -0.010290996 -0.0071059377 0.026732707 0.025915818 -0.037169825 0.03892113 -0.019955395
-0.040967368 -0.013374685 -1.2217318e-05 -0.012037656 0.042039853 -0.020239497 0.03530032 -0.0023125764
0.028345447 0.035557058 0.0023687845 0.04363669 0.029974896 0.021679416 0.04219342 0.0036245552
0.027946327 0.00021772535 0.013557735 -0.03699162 -0.014466726 0.017965294 0.020704154 0.039916173
0.03503046 0.034284204 -0.033272743 -0.026774274 -0.0024127436 0.0076639303 -0.037954554 -0.020086529

FC4.bias f4 [128]
00000000: e1b4 d43c 202c f93c b305 4a3c a2b6 263d
00000010: eec5 27bd 7791 f8bb cb46 0ebd b435 e23b
00000020: 51d0 fdbc 9d96 b53b ced9 ae3b 3c69 eabb
00000030: 5bb9 45bb 5cb9 2f3d feb9 2dbd 33e0 a8bb
00000040: d1bd 1d3d 16c0 143b 7d79 6cbc 08a5 a6bc
00000050: 04ed 05bd 61f2 e03c 8976 a1bc da0a 233d
00000060: 93f4 303c bdb8 62ba b143 f9bc abf3 1bbc
00000070: 46d1 aebb d0a2 d0bc 2416 9e3c 7493 b1bb
00000080: 4022 30bd ccfb 39bc fe60 85bc 581c 843c
00000090: f934 e4bc 64b8 143d 61d0 493c f5ae 2ab9
000000a0: ccf1 10bd f231 babc 957c ec3c c060 b33b
000000b0: 6c32 57bb 6a11 843c 8c80 333d df61 fcbc
000000c0: 32f7 15bd dd67 27bd ca73 5fbc f2c0 053d
000000d0: ba4d a23b 7126 edbc f5a7 14bd e8ad e1bc
000000e0: d94e 303c fcba 573c 447a bbbc d96c bebc
000000f0: 4c37 11bc d542 593c 1b80 9e3c 793e ebbc
00000100: 1d62 c53b 5f8a 21bd 6757 3c3b e3b4 093d
00000110: 6b42 9d3c 7975 d63c 2b04 04bd fd98 a23b
00000120: 3651 1b3c 85a2 0e3d edec 933a 1416 b0bc
00000130: c85d 12bd f6f0 163d 1dc7 b83c 380d 12bd
00000140: 1334 043c b918 4f3c 9255 9a3c b11a f0bc
00000150: 5202 d9bc 4d3e 033d c386 2abc beab 6f3c
00000160: 9944 08bd d28a f93c 3b8d a5bc 4ebe b43c
00000170: 9074 e33c a3de e63b bd0d f1bc 7601 86ba
00000180: 498f 1bbd b268 b3bc 204b 123d 0277 54bc
00000190: 9de4 10bd 47e4 013d 1a2e f7bb 5946 043d
000001a0: c1e8 62bc 9879 43ba 59df 0fbd 25f3 09bc
000001b0: e1e9 5e3c 92b0 16bd c468 1737 75d1 dd3c
000001c0: fc19 1bbd 9fd5 1bbd 2217 ab3c cce4 01bd
000001d0: 35a5 c4bc 6db2 503b eef4 1d3d f8d8 fdbc
000001e0: 4f3d 1dbd 7fe6 2cbd 6273 27bd fe00 9abc
000001f0: b1f3 1abd 9d3e 29bd a4a4 fd3c 68c2 e4bb
0.025965156 0.030416548 0.01233046 0.040701516 -0.040960245 -0.0075857 -0.034735482 0.0069033746
-0.030983122 0.005541636 0.005336023 -0.007153658 -0.0030170295 0.04290138 -0.042413704 -0.0051536798
0.0385111 0.00226975 -0.014433262 -0.020342365 -0.03269674 0.027459325 -0.019709842 0.03980527
0.010800499 -0.0008648744 -0.030427786 -0.009518544 -0.005335006 -0.02546826 0.019297667 -0.005419189
-0.043001413 -0.011351537 -0.016281601 0.016126797 -0.02785729 0.03630866 0.012317748 -0.0001627764
-0.035386845 -0.022728894 0.028868 0.00547418 -0.003283645 0.016121585 0.043823764 -0.030808387
-0.036612697 -0.040870536 -0.013638446 0.03265471 0.0049531134 -0.028948994 -0.03629299 -0.027548745
0.010760986 0.013167139 -0.02288545 -0.023245262 -0.008863281 0.013260563 0.019348195 -0.028716313
0.006023659 -0.0394386 0.002873862 0.033619773 0.01919671 0.026179062 -0.032230537 0.0049620853
0.009479811 0.03482296 0.0011285819 -0.021494903 -0.035733968 0.036850892 0.022555882 -0.035657138
0.008069056 0.012640172 0.018839631 -0.029309602 -0.026490364 0.032041837 -0.010408106 0.014628349
-0.033268545 0.030461702 -0.020208945 0.0220634 0.027765542 0.0070455833 -0.029425496 -0.0010223824
-0.037978444 -0.021900509 0.035716176 -0.012967827 -0.035374273 0.031711843 -0.0075433375 0.03229365
-0.013849438 -0.00074567785 -0.03512511 -0.008419787 0.013605566 -0.036789484 9.024694e-06 0.027077416
-0.037866578 -0.03804552 0.020885054 -0.03171234 -0.024004558 0.0031844631 0.03856366 -0.030987248
-0.038388547 -0.042212006 -0.040881522 -0.018799301 -0.03783006 -0.04131948 0.030962296 -0.006981183

linear.weight f4 [1, 512]
00000000: a74a 9ebb af01 35bd 9019 cdbc b57b b13c
00000010: e7dd 9b3b fbd1 5c3c 03c0 48bc aaab dabc
00000020: 377c 16bc 3c58 16bd 43d3 cebc ffa2 2fbc
00000030: ce00 21bd 79d2 0b3c 7ae7 83bc dd31 11bb
00000040: 34ac a43b 7e33 a33b 6349 09bd 0eae 123d
00000050: 970c 103d 83fe 313c b6c4 56bc b404 f9bc
00000060: 5c83 aeba 7b83 2c3d ab2f aebc 0a92 0a3d
00000070: 16a2 733c dc68 05bc 893f 0abd 032e cd3b
00000080: aabf 88bb b9ea b8bc 5037 0a3d 1776 fe3c
00000090: 7509 6cbb d99d 9a3c e769 e93c f739 d83c
000000a0: 6b2a 653c 8a43 0ebd c48d ce3c 40ee a63c
000000b0: d4ad f23c 14e4 b4bc cb9d be3a a686 8d3b
000000c0: 23f1 9bbc f144 68bc 430a 7f3c 8231 f0bc
000000d0: a22b 01bd d8d3 70bb db25 1ebd c836 c53c
000000e0: 6b57 143d cb2e 29bd 710c 8fbb 70c8 b63a
000000f0: 6277 1dbd bb3d a6bc ba9d c4bc b735 cf3c
00000100: 037c 1c3d bb3d 2ebc b231 4e3c cc44 01bc
00000110: f111 e13c 7cf2 2a3a 6e03 23bc 8288 0c3d
00000120: 514a 0a3c e15f 4e3c 4554 d0bc 4218 e23c
00000130: e6b9 753b cbd3 1f3d 9a61 303d 367c 2cbd
00000140: cdac 973c 8d77 45bc e561 f13c 299f f93c
00000150: d11d eabc dbe7 00bc 98f5 cd3a b430 10bd
00000160: 0b0d 49bc 3a5f f6bb 1a75 ddbc 1b00 343d
00000170: 3eae fd3c f764 803c 2e06 31bd d010 babc
00000180: 466f 993c 21a8 0abd 062d 11bd 83fe 9c3c
00000190: c251 2f3d 3abf ee3c f9dc bdbc 9ed1 313d
000001a0: 2bf8 a3bc d264 c13c 28fa e8bb d315 21bd
000001b0: 1760 8fbc 6b51 b93c 62a2 04bb 2789 96bc
000001c0: f502 d33c 8b7f 8f3c 9a35 b6bc ca58 fc3b
000001d0: abea 07bd 45c7 2f3d d0ee 1ebc c0e7 42bb
000001e0: 146e fc3c a00e 02bd 0c1c f33c 7486 99bc
000001f0: 9cf6 283d 93b3 993b c692 1abd ba52 b23b
00000200: 3468 08bb 331c acbc 9880 00bd cbf0 41bb
00000210: c406 fe3c f166 d4bc 056b 7cbc 1955 d6bb
00000220: 1d01 d5bb 6f8a 713c dda9 313d 24a2 bfbc
00000230: d085 84bc d5a2 0dbd 1b6c 233d 8aee d4bc
00000240: ccfa 243d fe5d 2d3d 6c8f 243d fa1d 233d
00000250: 3257 93bc 8922 9cbc 97cd ecbb 44a7 d2bc
00000260: b763 11bb fd79 653b eb30 a93c 4dc5 fdbb
00000270: 9970 2abd 6f49 eb3b bf6d 183d 247a afbb
00000280: 733b 9e3b 7800 b23c 1664 40bc fe08 39bb
00000290: a875 3f3c d932 243c f6b7 1bbc 9322 3fbc
000002a0: ea01 19bd 95df a3bc d110 26bd d4a5 0dbd
000002b0: 8278 54bb f74d 553a 55b3 99bc a3d8 2abd
000002c0: 6187 e33c 7d91 f43b 74ff 1d3d dc36 a1bb
000002d0: b457 0a3d b2a3 bb3c 91b3 23bc 69a5 3bbc
000002e0: 539d 2cbd 6e5b 2abd 3612 7c3c 68ca 92bc
000002f0: 3857 8dbc 2585 22bc 78e4 11bd 0751 bebb
00000300: 81d1 12bd 1adb 1fbd 63cd 07bd f587 753c
00000310: d0f8 24bd f6b2 093d 8cef 883c cb97 163c
00000320: 9e89 ad3c f0c8 f0bc b121 8cbc 6a36 1f3d
00000330: 3431 fe3c 5ef9 e1bc fa77 373b 3dcb 093d
00000340: 92ef 0ebd c1ea f13c 5984 053c 4be3 30bd
00000350: 5ecb a53c 8985 86bc be1e bc3c 5df6 a63c
00000360: da95 cebc de6a 0bbd fe2c 17bc 65e3 0e3d
00000370: 4fc9 f3bc 4540 0a3d ab31 2f3d f955 a3bc
00000380: c766 e73c 1785 703a acb2 e0bc 44c2 24bd
00000390: 308a 2a39 5f18 e8bb acdc d7bc 8e94 36bc
000003a0: 1e2e 4e3c b7ab 8fbc 28ac 07bd ba9b ab3c
000003b0: be2b d6bc 414b 15bc 5c1b efbb 1b45 183d
000003c0: df1d e43b 8931 1ebd 1d62 bdbb 5931 923b
000003d0: ae61 b9bc b9aa f4bb 629e 4c3c ee34 66bb
000003e0: 39b6 723c 5597 f0bc 69fe 103d 825b 0b3d
000003f0: 7d27 b9bc dafb cebc 6049 7e3c d467 cb3b
-0.0048306766 -0.04419106 -0.025036603 0.021665433 0.0047566774 0.013477798 -0.01225281 -0.026693184
-0.009184889 -0.03670524 -0.025247222 -0.010720014 -0.039307408 0.008534067 -0.016101588 -0.0022154965
0.005025411 0.0049805036 -0.033517253 0.035810523 0.035168257 0.010863903 -0.013108423 -0.03039775
-0.0013314295 0.042117577 -0.021262964 0.03383068 0.014870187 -0.008142676 -0.033751998 0.0062615885
-0.0041732388 -0.022572862 0.033744156 0.031062169 -0.003601638 0.018874096 0.028492881 0.026394827
0.013987164 -0.03473238 0.025214083 0.020377278 0.029623903 -0.022081412 0.0014542876 0.00431903
-0.019035881 -0.014176593 0.015566411 -0.029320482 -0.031535752 -0.0036747362 -0.03861032 0.024073973
0.03621618 -0.04130439 -0.004365497 0.0013945233 -0.03844393 -0.020293107 -0.024000991 0.025294168
0.038204204 -0.010634835 0.0125850905 -0.007889938 0.027474375 0.00065211183 -0.009949548 0.03430987
0.00844057 0.0125961015 -0.025430808 0.027599458 0.0037494837 0.03902034 0.04306183 -0.042110644
0.018515015 -0.012052429 0.029465625 0.030471401 -0.02857867 -0.007867779 0.0015713451 -0.035202697
-0.012271176 -0.007518676 -0.027033377 0.043945413 0.030966874 0.015673144 -0.043218784 -0.022713095
0.018729817 -0.033851746 -0.03544333 0.01916433 0.04280258 0.029143918 -0.023176657 0.043412797
-0.020015797 0.023607645 -0.007109899 -0.039327454 -0.017501874 0.02262183 -0.002023839 -0.018375946
0.025758246 0.017516872 -0.022242356 0.007701014 -0.03318278 0.042914648 -0.009700492 -0.0029740185
0.030814208 -0.03175223 0.02967646 -0.01874087 0.04125081 0.0046905964 -0.03773763 0.0054419907
-0.0020814063 -0.02100954 -0.031372637 -0.0029592987 0.031009085 -0.025927993 -0.015406375 -0.006540906
-0.006500377 0.014742478 0.043374885 -0.023392744 -0.016177088 -0.034579117 0.03989802 -0.02599265
0.04027824 0.042325966 0.04017584 0.03982351 -0.017985914 -0.019059436 -0.0072266567 -0.025714524
-0.0022184679 0.0035015338 0.020653209 -0.0077444674 -0.041611288 0.007180385 0.037214037 -0.0053551365
0.0048288642 0.02172874 -0.011742612 -0.002823412 0.011685766 0.010021889 -0.009504309 -0.011665958
-0.03735534 -0.020004073 -0.04054338 -0.034581974 -0.003242046 0.0008136923 -0.01876227 -0.041710507
0.027774515 0.0074636326 0.038573697 -0.00491987 0.033775046 0.022905204 -0.009991542 -0.011453011
-0.042142224 -0.0415911 0.015385201 -0.01791878 -0.017253503 -0.009919439 -0.035618275 -0.005807999
-0.03584433 -0.03902731 -0.033154856 0.014986028 -0.04027635 0.033617936 0.016715787 0.009191464
0.021183785 -0.02939269 -0.017105909 0.038870253 0.031029321 -0.027584728 0.0027995096 0.03364109
-0.03489644 0.029530885 0.00814923 -0.043185513 0.020238575 -0.016421096 0.022963878 0.020381147
-0.02521794 -0.034037463 -0.009227036 0.03488483 -0.029759077 0.0337527 0.042771976 -0.019938456
0.02824725 0.00091751054 -0.027428947 -0.04022433 0.00016263942 -0.0070829834 -0.026350342 -0.011143817
0.012584237 -0.017537935 -0.033123165 0.02094828 -0.026143905 -0.00911218 -0.0072969627 0.03717528
0.0069615687 -0.03862146 -0.0057795183 0.004461449 -0.022629585 -0.007466641 0.012488933 -0.0035126763
0.014813953 -0.029369036 0.035398874 0.034022816 -0.022601837 -0.025266577 0.015520424 0.0062074456
