dl/poal_dl/modelpara/20230826_123617__epochsbackbone200_epochsmqnet100_lrbackbone0.1_lrmqnet0.001_module.params (torch, 500695 bytes, 9 tensors)

FC1.weight f4 [128, 64]
0.048300326 -0.11036323 0.040080726 -0.03611298 0.060416594 0.095397934 -0.08217262 -0.009076446
0.040080458 0.05504851 -0.08787438 -0.00856261 -0.051281184 0.05769497 -0.037438467 -0.024034068
0.0394506 0.109300986 -0.11670764 -0.10502094 -0.098251164 -0.029007643 -0.059502974 0.09259775
-0.073544025 0.107516974 0.005984664 -0.021625146 0.08640081 -0.104520544 -0.0075095147 -0.05845976
-0.115230784 0.1030782 0.040991202 -0.05069004 -0.110699 0.069345474 -0.08423273 -0.10359673
0.06714575 -0.0020240694 0.061888814 0.11396012 0.08838074 0.09294738 -0.093208045 0.08672972
-0.11143762 -0.008421689 0.056771383 0.062834695 -0.053088725 0.10221605 0.08338769 0.09474471
-0.09942441 0.023566306 0.09030871 0.08770543 -0.085687995 0.06875415 0.06963569 0.040672526
0.12268983 0.052998766 -0.08708197 -0.11554392 -0.09648201 0.11813183 0.038979188 -0.11590183
-0.013924241 0.050682113 -0.11031571 0.12044045 -0.002139151 -0.061686873 -0.093868986 -0.08186719
0.059949443 0.0584338 -0.04359211 0.0143939555 0.0764896 -0.101153 -0.00242804 -0.11103383
-0.08828254 0.024512708 0.021913543 0.06568991 -0.03703165 -0.05377449 -0.07179269 0.11579609
0.0406117 0.12226248 -0.107257575 -0.04946454 -0.0015246421 0.01765798 0.09084882 -0.08625606
-0.05328679 0.05838266 0.07619515 0.09983775 -0.037421197 0.08812511 -0.036463335 -0.10123889
-0.07438053 -0.09814145 0.05312325 0.10928209 -0.084824756 0.026959017 0.038374946 -0.0008030236
0.054291278 0.047958314 -0.0056962967 -0.023256525 -0.07616913 0.050584257 0.11301528 -0.060825124
0.025539279 -0.10258794 0.05772844 -0.0042744577 0.007285714 -0.026495755 -0.10354547 0.012139544
-0.067250535 0.07404667 -0.071899906 -0.03746879 -0.02321446 -0.01772365 0.080970764 -0.024660066
0.112522766 -0.0020564497 -0.015671358 -0.09737185 -0.122032136 -0.08419964 0.0048380494 0.011654541
-0.051669866 -0.052297175 -0.10699941 0.111671835 0.062192872 -0.027806595 -0.114528745 -0.09143932
0.018866494 -0.08320455 0.06373753 -0.00060501695 0.10904367 -0.015877292 0.11751652 -0.11508711
-0.0711866 -0.09488188 -0.10270183 0.02796875 0.08124615 0.0770244 -0.04760194 -0.07117769
0.024681166 0.041681245 0.0533686 -0.09338996 -0.08301048 0.118594795 0.08651951 -0.06090212
0.022099927 -0.014934972 -0.08622922 0.03353691 -0.07335779 -0.08446813 -0.017166704 0.09363899
-0.039061427 -0.06356746 -0.088795215 0.10354023 0.015268028 0.035496816 -0.044614434 -0.070481196
-0.112127274 -0.08681086 0.09651604 -0.09696035 0.10745193 0.0041648746 0.071116105 -0.09349106
-0.027520582 -0.092727974 -0.06094952 -0.11852966 0.058055535 0.11526969 0.123394996 -0.11857292
0.05710207 -0.0052873194 -0.06085612 0.037276953 -0.1156133 -0.09088735 0.06489925 -0.0929845
0.055273324 0.10414444 0.042487696 -0.12302998 0.022436187 0.07419968 0.011148378 -0.06560694
0.03279984 0.05046767 0.036671087 -0.07329965 0.0026218146 -0.026330799 -0.00062921643 0.032620057
-0.11537902 -0.076967284 -0.039370075 0.035932273 0.11780308 0.10684499 -0.09142998 0.00023043156
0.11946 0.032430276 0.051383868 -0.078094274 0.033913106 0.059100956 -0.013863817 0.06186557
00000000: 90d6 453d 1e06 e2bd b02b 243d 34eb 13bd
00000010: 6477 773d fe5f c33d 1e4a a8bd 60b5 14bc
00000020: 682b 243d 8c7a 613d 7cf7 b3bd 304a 0cbc
00000030: 380c 52bd 9051 6c3d 1459 19bd 18e3 c4bc
00000040: f496 213d 32d9 df3d 6a04 efbd 3815 d7bd
00000050: e837 c9bd 70a1 edbc 64b9 73bd e4a3 bd3d
00000060: 409e 96bd dc31 dc3d 001b c43b 3827 b1bc
00000070: e8f2 b03d de0e d6bd 6012 f6bb 8073 6fbd
00000080: 1efe ebbd aa1a d33d 64e6 273d 5ca0 4fbd
00000090: 28b6 e2bd 0005 8e3d 3682 acbd 862a d4bd
000000a0: b683 893d 40a6 04bb 207f 7d3d ec63 e93d
000000b0: f600 b53d 325b be3d dce3 bebd 5a9f b13d
000000c0: 6839 e4bd 20fb 09bc 1c89 683d 7aaf 803d
000000d0: 9073 59bd a656 d13d 2ac7 aa3d 8409 c23d
000000e0: 069f cbbd 200e c13c c6f3 b83d e89e b33d
000000f0: 307d afbd face 8c3d 289d 8e3d 3c98 263d
00000100: ce44 fb3d 3c15 593d 0858 b2bd 4aa2 ecbd
00000110: 5c98 c5bd 1aef f13d a4a8 1f3d f05d edbd
00000120: 8022 64bc 0c98 4f3d 34ed e1bd 7ca9 f63d
00000130: 0031 0cbb 60ab 7cbd 623e c0bd fca9 a7bd
00000140: 8c8d 753d 4858 6f3d a48d 32bd a0d4 6b3c
00000150: 94a6 9c3d 4e29 cfbd c01f 1fbb b465 e3bd
00000160: 7acd b4bd e0ce c83c 0884 b33c 6e88 863d
00000170: 80ae 17bd a442 5cbd 0c08 93bd 8026 ed3d
00000180: 7458 263d c064 fa3d dca9 dbbd 549b 4abd
00000190: 80d6 c7ba 78a7 903c f20e ba3d 04a7 b0bd
000001a0: 4043 5abd a822 6f3d 340c 9c3d bc77 cc3d
000001b0: f846 19bd f07a b43d 945a 15bd 5656 cfbd
000001c0: d254 98bd 62fe c8bd c497 593d 4acf df3d
000001d0: 9ab8 adbd 28d9 dc3c 0c2f 1d3d 0082 52ba
000001e0: 8860 5e3d f06f 443d 00a8 babb 7884 bebc
000001f0: 90fe 9bbd 7031 4f3d 8e74 e73d c423 79bd
00000200: c037 d13c a019 d2bd a874 6c3d c010 8cbb
00000210: 00bd ee3b a00d d9bc a60f d4bd f0e4 463c
00000220: a6ba 89bd c8a5 973d 4240 93bd e078 19bd
00000230: 402c bebc 3031 91bc 00d4 a53d e803 cabc
00000240: 5672 e63d 80c5 06bb 3861 80bc e46a c7bd
00000250: fceb f9bd dc70 acbd 8088 9e3b b0f2 3e3c
00000260: c8a3 53bd 9035 56bd 8222 dbbd 34b4 e43d
00000270: f4bd 7e3d a8ca e3bc 0c8e eabd 8a44 bbbd
00000280: e88d 9a3c 2667 aabd d288 823d 009a 1eba
00000290: 4a52 df3d 1811 82bc 80ac f03d cab2 ebbd
000002a0: 48ca 91bd 6e51 c2bd 5655 d2bd b81e e53c
000002b0: 6264 a63d f8be 9d3d 40fa 42bd 9cc5 91bd
000002c0: 2830 ca3c f4b9 2a3d 0899 5a3d 3c43 bfbd
000002d0: 6601 aabd d4e1 f23d 2431 b13d 8074 79bd
000002e0: e80a b53c d0b1 74bc f298 b0bd 005e 093d
000002f0: 9c3c 96bd a0fd acbd 30a1 8cbc ccc5 bf3d
00000300: e0fe 1fbd a82f 82bd 44da b5bd e60c d43d
00000310: c026 7a3c 1c65 113d a0bd 36bd 7258 90bd
00000320: fca2 e5bd e4c9 b1bd 34aa c53d 2693 c6bd
00000330: c20f dc3d 8079 883b 52a5 913d 3e78 bfbd
00000340: d872 e1bc 2ae8 bdbd 34a6 79bd aebf f2bd
00000350: a4cb 6d3d 8412 ec3d 84b6 fc3d 5cd6 f2bd
00000360: dce3 693d 4041 adbb 4444 79bd b8af 183d
00000370: aac6 ecbd 2623 babd e6e9 843d a86e bebd
00000380: 4866 623d ae49 d53d 9407 2e3d 24f7 fbbd
00000390: 18cc b73c 00f6 973d b0a7 363c ee5c 86bd
000003a0: 2059 063d 30b7 4e3d 6c34 163d 201e 96bd
000003b0: c0d2 2b3b b0b3 d7bc 00f2 24ba 9c9c 053d
000003c0: d64b ecbd 06a1 9dbd 8442 21bd b82d 133d
000003d0: be42 f13d 8cd1 da3d a43f bbbd 00a0 7139
000003e0: 72a7 f43d 9cd5 043d e477 523d e4ef 9fbd
000003f0: 78e8 0a3d d813 723d 1025 63bc c066 7d3d

FC1.bias f4 [128]
0.05352494 -0.015803352 -0.030301705 -0.06373401 -0.08711955 -0.009200901 -0.01505208 0.026345998
0.04497908 0.10237625 -0.03615886 0.08360797 -0.10702945 -0.075510904 -0.10925418 0.09026587
0.005754113 -0.08303657 0.09733489 -0.027645305 -0.012174636 0.055441752 -0.108884975 0.0957104
0.004102543 -0.074073225 0.023441851 -0.11374278 0.044914335 -0.08901355 -0.0064243227 -0.026866004
0.1120597 0.043869525 -0.020388275 -0.07755354 0.10066874 -0.022964135 0.07622114 -0.073921114
-0.0053276867 0.04935728 0.06237705 0.024540648 0.062287614 -0.089780584 -0.09468041 0.014097333
0.09818439 0.0062092543 0.0024510026 0.1224578 -0.07598795 0.11003992 0.12318441 -0.08860825
0.03972116 -0.039504886 0.100345895 -0.029758349 -0.039490357 -0.03485222 -0.09144083 0.08204229
0.09154096 -0.00088872015 0.124727905 -0.012015671 -0.04513687 -0.07263748 0.07797876 0.031849608
-0.025059298 -0.016947523 0.06445587 -0.072580546 0.09296398 0.067251414 -0.09086488 -0.07830106
0.07681897 0.107230544 0.006777093 0.089555115 0.04518421 -0.037309498 -0.10082637 0.018306777
-0.11263697 0.016440317 -0.071069315 0.11631028 -0.027279437 0.10699311 -0.038366392 0.019550845
0.12131323 -0.097515166 -0.058221504 0.0046702623 -0.025875613 0.09469031 0.007419035 0.11009899
0.06558907 0.054858267 -0.052149475 0.050475433 -0.075586796 -0.09558241 0.061405256 -0.013940662
-0.100573495 -0.10943638 0.08613409 -0.08407205 0.005854428 0.0067994148 0.031450108 0.05549796
0.057795227 -0.08214411 0.09475714 0.08616364 -0.041980743 0.00011368096 0.07714899 -0.11927652
00000000: f83c 5b3d 0876 81bc 483b f8bc fa86 82bd
00000010: bc6b b2bd 60bf 16bc 009d 76bc 90d3 d73c
00000020: fc3b 383d a4aa d13d 501b 14bd a83a ab3d
00000030: 4232 dbbd 76a5 9abd a8c0 dfbd 50dd b83d
00000040: 008d bc3b 140f aabd 8457 c73d 6878 e2bc
00000050: 2078 47bc e416 633d 16ff debd d003 c43d
00000060: a06e 863b b4b3 97bd 2009 c03c faf1 e8bd
00000070: 18f8 373d bc4c b6bd 2083 d2bb 1816 dcbc
00000080: 8e7f e53d 88b0 333d 5005 a7bc 64d4 9ebd
00000090: 6a2b ce3d 481f bcbc d419 9c3d f463 97bd
000000a0: e093 aebb dc2a 4a3d 147f 7f3d 7809 c93c
000000b0: 4c21 7f3d e2de b7bd cee7 c1bd 80f8 663c
000000c0: e614 c93d 0077 cb3b 00a1 203b 28cb fa3d
000000d0: 929f 9bbd 9c5c e13d 1c48 fc3d 3e78 b5bd
000000e0: a8b2 223d e0cf 21bd 2682 cd3d c8c7 f3bc
000000f0: a4c0 21bd 34c1 0ebd 5445 bbbd ca05 a83d
00000100: d479 bb3d 00f9 68ba 5871 ff3d 60dd 44bc
00000110: 70e1 38bd f6c2 94bd 54b3 9f3d bc74 023d
00000120: 2849 cdbc 88d5 8abc 7001 843d 1ca5 94bd
00000130: e663 be3d 1cbb 893d 5e17 babd 4e5c a0bd
00000140: 4453 9d3d b09b db3d 6012 de3b ac68 b73d
00000150: 1413 393d d8d1 18bd 0e7e cebd 18f8 953c
00000160: 36ae e6bd d8ad 863c ca8c 91bd 1634 ee3d
00000170: 2079 dfbc 341f db3d 1426 1dbd 1829 a03c
00000180: 1273 f83d 08b6 c7bd ac79 6ebd 0009 993b
00000190: 18f9 d3bc feec c13d 601b f33b 947b e13d
000001a0: 9053 863d 10b3 603d b09a 55bd 54bf 4e3d
000001b0: 40cd 9abd b6c0 c3bd 1484 7b3d 6067 64bc
000001c0: 7af9 cdbd 2e20 e0bd 1267 b03d f82d acbd
000001d0: 80d6 bf3b a0cd de3b d4d1 003d d451 633d
000001e0: b0ba 6c3d 2c3b a8bd 0810 c23d 9076 b03d
000001f0: 00f4 2bbd 0068 ee38 4a00 9e3d 4047 f4bd

FC2.weight f4 [128, 128]
-0.06287146 -0.03734604 -0.07552635 -0.05220045 -0.050744638 -0.0355323 -0.087573424 0.036907624
0.0342409 0.05714607 -0.01566258 -0.020878315 -0.040064067 -0.08392853 -0.042180207 -0.010415066
0.049079876 -0.017023407 0.071810976 -0.05043721 0.044601407 -0.012232828 -0.074536756 -0.060048837
0.046225682 -0.027813084 0.008335772 -0.019695938 -0.05703894 -0.034477524 0.064152874 0.06516375
0.039712403 -0.0040383004 0.0865389 -0.0399426 0.0079921065 -0.0024945033 -0.0799637 0.08020664
0.04580823 -0.009574342 -0.032174133 -0.056614775 -0.013165168 0.06734716 0.03242201 0.026895864
-0.015642297 -0.0672297 0.024078399 0.02120116 -0.009361363 -0.07639983 -0.004197373 0.05174398
0.0007216278 0.009821195 0.01888576 -0.051864088 0.045966405 -0.059040707 0.030940328 0.07661994
-0.08281491 -0.017086333 0.051679853 0.0076248706 0.07117186 0.023188079 0.03830378 -0.034125533
0.043383446 -0.048507303 -0.082916565 -0.038196918 -0.086857885 0.06773182 0.014369767 0.031179858
0.06365197 -0.06654593 0.001618439 0.06357998 0.0529645 0.058795083 0.037751805 -0.042305563
-0.011549501 0.040589858 0.08480931 0.027588315 -0.018721966 -0.019057708 0.032148626 -0.035049982
-0.06363331 0.032284252 0.042804603 -0.050340787 0.05965115 -0.062315673 -0.040548936 0.036425773
-0.051378924 -0.028475674 -0.08662413 -0.06130871 -0.012074608 -0.03655214 0.07179084 0.029544814
-0.03863162 0.022262018 0.068776794 0.06506227 0.008109781 -0.043846842 0.08278504 -0.031645432
0.08782672 -0.08486683 -0.06876961 -0.06326969 -0.056977395 0.082298055 -0.039013345 -0.026884673
-0.0056468137 0.049995854 -0.03581148 -0.043148626 -0.02184686 0.04485373 -0.04823125 -0.025826557
-0.049756873 -0.07174333 0.027964866 0.04955466 0.029649876 0.051559683 -0.05834955 -0.07369643
0.051204678 0.03917005 -0.038952485 -0.06209161 0.049880795 0.033405613 -0.08379653 -0.019272795
-0.038852744 -0.06024367 -0.052483592 0.0019218436 0.00609474 0.04083154 -0.018942162 0.07553079
0.0740364 0.07082433 0.04774235 -0.051634 0.07673081 -0.019026214 -0.073472165 0.05354716
0.050177604 -0.079396546 -0.0017659318 -0.02602394 -0.027574312 -0.04552495 0.023032999 -0.010680307
0.00094157114 0.030785112 -0.05866635 0.00050492975 0.0145057645 0.06262888 -0.008523083 0.067003645
-0.009502713 0.052508693 0.031362873 0.08717484 0.06226178 0.017476423 -0.04543461 0.08178788
0.03997425 -0.02171611 -0.026461698 0.075635985 -0.02998172 -0.010241084 -0.072987035 0.06516611
-0.07338919 0.07649026 0.075501904 0.055855617 -0.00053689815 0.04113251 0.06301429 0.08750988
0.011709184 0.046931915 -0.026371177 -0.044563252 -0.07403019 0.03122248 0.081569776 0.015995804
0.085993886 0.08678783 0.01648907 0.06394075 -0.02824666 0.028438428 -0.014820876 0.0096682655
0.052265357 0.008189618 0.054240517 -0.050843123 -0.055447854 -0.044717174 -0.078080185 0.058812827
-0.04081623 0.06529463 -0.021573834 -0.02930622 0.02947639 0.071151696 0.060644984 0.015545053
0.009358813 -0.0068463655 -0.018946884 -0.057199184 0.058982987 -0.03738866 0.035976887 0.041314006
0.053159725 -0.015484857 -0.054053564 -0.035093594 -0.034861553 -0.069414414 0.041352317 0.019795543
00000000: c1c2 80bd 29f8 18bd 8fad 9abd 24d0 55bd
00000010: 9cd9 4fbd 518a 11bd b259 b3bd 732c 173d
00000020: 3040 0c3d ff11 6a3d d04e 80bc 0009 abbc
00000030: 381a 24bd b9e2 abbd 27c5 2cbd f4a3 2abc
00000040: fb07 493d ac74 8bbc a211 933d 3f97 4ebd
00000050: f7af 363d 336c 48bc baa6 98bd c5f5 75bd
00000060: 2457 3d3d 44d8 e3bc c392 083c 6059 a1bc
00000070: aaa1 69bd 4e38 0dbd 9562 833d 9274 853d
00000080: 79a9 223d b853 84bb 4f3b b13d da9a 23bd
00000090: 53f1 023c d27a 23bb 02c4 a3bd 6143 a43d
000000a0: 69a1 3b3d b3dd 1cbc 06c9 03bd e5e4 67bd
000000b0: b8b2 57bc 4fed 893d f1cc 043d b754 dc3c
000000c0: 4624 80bc baaf 89bd 1040 c53c 0eae ad3c
000000d0: 6760 19bc 8477 9cbd 1e8a 89bb 7ff1 533d
000000e0: 9f2b 3d3a 14e9 203c 4fb6 9a3c 706f 54bd
000000f0: 4547 3c3d abd4 71bd 9276 fd3c eaea 9c3d
00000100: dd9a a9bd a3f8 8bbc 41ae 533d 0dda f93b
00000110: 8dc2 913d edf4 bd3c 6de4 1c3d 37c7 0bbd
00000120: d7b2 313d 98af 46bd 29d0 a9bd 5f74 1cbd
00000130: 8ce2 b1bd fbb6 8a3d 2c6f 6b3c e76c ff3c
00000140: f75b 823d 3c49 88bd cd21 d43a 3836 823d
00000150: 4ef1 583d 1dd3 703d a3a1 1a3d 9948 2dbd
00000160: 1e3a 3dbc 8d41 263d 81b0 ad3d e400 e23c
00000170: cf5e 99bc e91e 9cbc 47ae 033d 9290 0fbd
00000180: 2e52 82bd 7e3c 043d e153 2f3d 2432 4ebd
00000190: c454 743d b83e 7fbd a416 26bd 3133 153d
000001a0: b572 52bd d145 e9bc fe67 b1bd d81e 7bbd
000001b0: 94d4 45bc b2b7 15bd 1307 933d f707 f23c
000001c0: 313c 1ebd d65e b63c d9da 8c3d 5e3f 853d
000001d0: e3de 043c bf98 33bd 348b a93d a49e 01bd
000001e0: 7fde b33d a9ce adbd 15d7 8cbd 8a93 81bd
000001f0: 2161 69bd e28b a83d 75cc 1fbd 3f3d dcbc
00000200: e808 b9bb 74c8 4c3d 0faf 12bd 9dbc 30bd
00000210: 30f8 b2bc 8bb8 373d 228e 45bd 3792 d3bc
00000220: ddcd 4bbd 2bee 92bd 9316 e53c d4f9 4a3d
00000230: 4ce4 f23c 3f30 533d f0ff 6ebd 27ee 96bd
00000240: ffbb 513d c670 203d a48c 1fbd c653 7ebd
00000250: ce4f 4c3d 53d4 083d 849d abbd fbe1 9dbc
00000260: 0e24 1fbd 11c2 76bd 09f9 56bd 5fe6 fb3a
00000270: 62b6 c73b f93e 273d 982c 9bbc e3af 9a3d
00000280: 65a0 973d 590c 913d 7b8d 433d 2c7e 53bd
00000290: 0b25 9d3d dddc 9bbc 9378 96bd 4454 5b3d
000002a0: 0887 4d3d a89a a2bd d776 e7ba 2830 d5bc
000002b0: 86e3 e1bc 5f78 3abd b3af bc3c 74fc 2ebc
000002c0: c5d3 763a 0f31 fc3c 204c 70bd 435d 043a
000002d0: 96a9 6d3c 9243 803d 67a4 0bbc 3539 893d
000002e0: 44b1 1bbc 5b13 573d 5b76 003d b988 b23d
000002f0: 3506 7f3d b72a 8f3c a419 3abd 6780 a73d
00000300: 0abc 233d fce5 b1bc 34c6 d8bc 0ae7 9a3d
00000310: 399c f5bc 38ca 27bc 3a7a 95bd cf75 853d
00000320: 124d 96bd eda6 9c3d bea0 9a3d dcc8 643d
00000330: a0be 0cba 907a 283d a30d 813d 6138 b33d
00000340: e1d7 3f3c ae3b 403d 5e08 d8bc f587 36bd
00000350: 249d 97bd 49c6 ff3c 0e0e a73d a209 833c
00000360: 901d b03d d1bd b13d 1614 873c 5ef3 823d
00000370: 8a65 e7bc b5f7 e83c 42d3 72bc a567 1e3c
00000380: 3314 563d bf2d 063c 4e2b 5e3d e140 50bd
00000390: 4a1d 63bd 5b29 37bd 81e8 9fbd b8e5 703d
000003a0: eb2e 27bd 31b9 853d 9cbb b0bc 9913 f0bc
000003b0: 7878 f13c fbb7 913d e066 783d aeb0 7e3c
000003c0: b555 193c 7a57 e0bb 7f36 9bbc b149 6abd
000003d0: 2598 713d da24 19bd 805c 133d e038 293d
000003e0: 03be 593d 33b4 7dbc 4567 5dbd 4dbe 0fbd
000003f0: fdca 0ebd 2529 8ebd 0c61 293d 432a a23c

FC2.bias f4 [128]
-0.070851475 -0.06493478 -0.08504978 0.062709965 0.044774283 -0.08562518 -0.052166313 0.033335164
0.06344715 -0.021191455 -0.07847218 -0.05222749 -0.03268234 0.08039368 0.054996148 -0.07181737
-0.051130585 -0.06871678 0.01202282 -0.020457342 -0.05859458 -0.07196497 -0.03640161 0.046877705
0.039188243 -0.0033804511 0.029774556 -0.049083114 -0.034328997 0.05392921 0.029774766 -0.04504593
-0.016073396 0.086213306 0.020107165 -0.054615527 -0.056557845 0.084552415 -0.062459365 -0.066648014
-0.051269796 0.08184173 -0.061341714 -0.032704774 0.02092239 0.012251035 0.008960072 -0.08377709
0.0136118615 -0.083696134 0.063410334 -0.06580582 0.011459212 0.039031923 0.07152715 0.013902033
-0.07233404 0.019237991 0.036581695 0.018369904 -0.07226704 -0.075937875 -0.074474365 0.05107372
-0.04836471 0.0822476 -0.086830325 0.023988206 0.06931637 0.06710813 -0.04934575 0.032327898
-0.026062189 0.042670447 0.046693943 -0.0133168865 0.02392722 0.0032600798 -0.08660561 -0.059802435
0.0490391 0.011175247 0.085695386 -0.035583466 0.04294846 0.06864536 -0.0076303286 -0.04935692
0.030965826 0.033489317 -0.05342246 -0.081531614 0.08114199 -0.052068215 0.02346099 -0.053376224
0.040885363 -0.06275905 0.01886593 -0.043477707 0.049459126 0.039802723 -0.060539838 -0.013945433
0.019954415 -0.072120704 -0.06536986 -0.03498805 0.006612714 0.06442218 0.07607778 0.03288296
0.016662102 0.037470527 -0.050406683 -0.08837708 0.051137593 0.036506314 -0.07879605 0.070287265
0.063080035 0.019804236 0.08114176 0.04341921 -0.010982046 -0.06869269 -0.038166363 0.010590618
00000000: 941a 91bd 87fc 84bd 942e aebd 156e 803d
00000010: 3d65 373d 415c afbd 58ac 55bd 748a 083d
00000020: 94f0 813d b499 adbc 06b6 a0bd 7eec 55bd
00000030: ebdd 05bd 71a5 a43d a443 613d fc14 93bd
00000040: 4e6e 51bd 62bb 8cbd 5dfb 443c 2896 a7bc
00000050: df00 70bd 5f62 93bd db19 15bd d602 403d
00000060: da83 203d 8f8a 5dbb c5e9 f33c 600b 49bd
00000070: 909c 0cbd e0e4 5c3d 36ea f33c 1582 38bd
00000080: 5bac 83bc 9a90 b03d c8b7 a43c 88b4 5fbd
00000090: 33a9 67bd d129 ad3d 64d5 7fbd c17e 88bd
000000a0: 4700 52bd a39c a73d 7341 7bbd 71f5 05bd
000000b0: 6f65 ab3c 91b8 483c 44cd 123c 5393 abbd
000000c0: 4904 5f3c e168 abbd 47dd 813d 34c5 86bd
000000d0: 6bbf 3b3c f0df 1f3d d47c 923d 5ac5 633c
000000e0: df23 94bd fe98 9d3c b0d6 153d 7b7c 963c
000000f0: be00 94bd 5185 9bbd 0486 98bd ad32 513d
00000100: 131a 46bd 6e71 a83d 19d4 b1bd ea82 c43c
00000110: bef5 8d3d fd6f 893d c51e 4abd 426a 043d
00000120: 5f80 d5bc 35c7 2e3d 2642 3f3d 122f 5abc
00000130: 0403 c43c 10a7 553b 485e b1bd 66f3 74bd
00000140: 39dd 483d 6218 373c 1081 af3d f8bf 11bd
00000150: b9ea 2f3d f095 8c3d d607 fabb 7b2a 4abd
00000160: 0bac fd3c 182c 093d 82d1 5abd 0cfa a6bd
00000170: c62d a63d 7b45 55bd 4331 c03c 07a1 5abd
00000180: 6977 273d d187 80bd b98c 9a3c ae15 32bd
00000190: a795 4a3d 2e08 233d 9ff8 77bd 637b 64bc
000001a0: 7177 a33c 05b4 93bd a2e0 85bd a14f 0fbd
000001b0: 77af d83b c7ef 833d abce 9b3d 48b0 063d
000001c0: f67e 883c b27a 193d 3d77 4ebd 0bff b4bd
000001d0: a775 513d a587 153d d35f a1bd c5f2 8f3d
000001e0: 1b30 813d 7e3c a23c a72d a63d 57d8 313d
000001f0: 0aee 33bc c1ae 8cbd 5554 1cbd 4584 2d3c

FC3.weight f4 [128, 256]
-0.03537166 -0.0031448528 -0.046899915 -0.044529088 -0.03126905 -0.052610263 0.026348643 -0.04403235
-0.031086184 0.013669595 -0.057888143 -0.038787723 -0.004525885 0.0017932206 0.021412447 0.04186733
-0.017163955 0.06159755 0.038035825 0.0047615245 0.00048867613 0.026585557 -0.05237729 0.03778424
0.020649768 0.03140547 0.058369167 -0.004003063 -0.054606423 0.00786791 -0.04763163 0.05870565
0.027971208 -0.05728265 -0.04083725 0.020197771 0.044814542 0.027795948 0.0005114898 0.014319472
-0.05641035 0.0019052178 -0.029562235 -0.026504777 0.03049191 0.045914367 0.034809604 0.018982992
0.016991735 -0.04238133 0.045410268 0.058035903 0.04222635 -0.040005386 0.04594075 -0.04084269
-0.056249693 -0.054118924 0.04286985 0.06021726 0.0012500659 0.028001815 0.049385175 0.028232992
0.04011082 0.055263706 -0.05074717 -0.03151878 0.013368554 0.046618134 0.054232992 -0.05443345
0.044550814 -0.052344836 0.03848186 0.03612034 0.037400052 0.045529075 0.033816755 -0.019126683
0.0056823716 -0.01318159 0.059827022 0.012632385 0.053468823 0.043654397 0.041770197 0.048189305
-0.050593413 0.013429418 -0.047302835 -0.062443353 0.0021772534 0.02630701 -0.010916293 0.0066001043
-0.017086565 -0.050593033 -0.0119038075 -0.025506027 -0.011426695 0.052701116 -0.01645106 -0.02558428
0.038609885 -0.013399564 0.0010806769 -0.05203002 -0.028047375 -0.030071072 0.014926411 0.0153138265
0.00738737 -0.016591847 -0.04375673 0.017924465 0.049894445 -0.05760757 -0.03174208 0.025417954
-0.062014706 -0.03021776 -0.055432856 0.057437077 -0.033421464 0.0042774305 -0.007194698 -0.05928374
0.044298552 -0.05477219 0.03850781 0.0071465 -0.046931796 -0.04222689 -0.0036830008 0.037484474
-0.053996906 0.0016949922 0.059417114 0.04621186 -0.0095752925 -0.029443495 -0.0012931749 0.028872669
0.041551717 -0.03151463 -0.060887523 0.0004144758 0.039229922 0.04818789 0.017896853 -0.059580475
0.007988453 -0.055911563 -0.014359996 0.013750613 -0.013338707 -0.058237776 0.029932745 0.0025643632
0.040010527 0.03723789 0.058548234 0.008456953 0.0017147958 0.032880746 -0.02415312 0.0018473938
0.016328193 -0.0052039027 0.061530113 0.029392518 -0.010310635 0.055938534 -0.033377215 -0.0037597418
-0.055355713 0.011807457 0.023392074 -0.022714853 -0.037239544 0.057573795 0.006305665 0.039526746
0.0045805946 0.007866405 -0.02605132 -0.00603234 -0.006512776 0.0130319595 -0.047816955 0.047412433
-0.004709646 0.024132691 0.019851275 0.0416729 -0.0026435703 0.0015850663 0.05591049 0.012204252
0.024128899 0.052719742 -0.026591852 0.050382294 -0.038970433 0.009034693 0.0015233159 0.016583242
0.05294957 0.059150837 -0.054858103 0.04016117 0.027282625 0.021381125 -0.04364051 -0.047077432
-0.03866168 0.033650793 0.05743461 -0.058379322 0.059349954 0.012354553 -0.0032919794 0.060219668
-0.037086166 0.043474317 0.03460548 0.013334386 0.0564958 0.03309784 0.047526866 0.02441264
-0.029642232 0.0046775043 0.02576124 0.060167067 -0.05918751 0.046712525 -0.024838932 0.025853768
-0.03329791 0.056388937 0.0022905022 -0.0026592761 -0.0039236546 -0.030071251 -0.011849947 0.0094387755
-0.033439666 0.012037039 -0.050314724 0.02227161 -0.019289248 0.013273828 -0.0064015463 -0.04337369
00000000: e0e1 10bd e019 4ebb 201a 40bd 2264 36bd
00000010: fa13 00bd dc7d 57bd 1cd9 d73c 445b 34bd
00000020: 74a8 febc 70f6 5f3c 1e1c 6dbd e0df 1ebd
00000030: e04d 94bb 800a eb3a 2869 af3c 147d 2b3d
00000040: 6c9b 8cbc b64d 7c3d 74cb 1b3d 9006 9c3b
00000050: 801a 003a f4c9 d93c 9289 56bd a6c3 1a3d
00000060: b429 a93c 06a3 003d 8214 6f3d 202c 83bb
00000070: fcaa 5fbd 68e8 003c 6219 43bd 5675 703d
00000080: e023 e53c 36a1 6abd f644 27bd cc75 a53c
00000090: 748f 373d 54b4 e33c 8015 063a 389c 6a3c
000000a0: 8a0e 67bd 80b8 f93a 802c f2bc 8c20 d9bc
000000b0: 2cca f93c b410 3c3d 8494 0e3d 3882 9b3c
000000c0: 4032 8b3c 0c98 2dbd 1e00 3a3d 0eb7 6d3d
000000d0: 8af5 2c3d b0dc 23bd 5e2c 3c3d aa4a 27bd
000000e0: 1466 66bd ceab 5dbd 4c98 2f3d 60a6 763d
000000f0: 40d9 a33a 1064 e53c 1c48 4a3d e048 e73c
00000100: 3e4b 243d 325c 623d 44dc 4fbd d619 01bd
00000110: c807 5b3c a8f2 3e3d 6a23 5e3d 9cf5 5ebd
00000120: ea7a 363d 8a67 56bd 289f 1d3d ecf2 133d
00000130: cc30 193d b27c 3a3d 7083 0a3d 90af 9cbc
00000140: 3033 ba3b 98f7 57bc 2e0d 753d 10f8 4e3c
00000150: 2002 5b3d f4ce 323d 3a17 2b3d 2662 453d
00000160: 0a3b 4fbd 1007 5c3c 9ec0 41bd 9ac4 7fbd
00000170: 40b0 0e3b cc81 d73c 40da 32bc b045 d83b
00000180: 20f9 8bbc a43a 4fbd 3008 43bc 04f2 d0bc
00000190: 0837 3bbc 20dd 573d 60c4 86bc 2096 d1bc
000001a0: 6625 1e3d d889 5bbc 80a5 8d3a 6e1d 55bd
000001b0: 9cc3 e5bc 9c57 f6bc e88d 743c d8e6 7a3c
000001c0: c011 f23b a0eb 87bc 423a 33bd 54d6 923c
000001d0: 1e5e 4c3d eaf5 6bbd fc03 02bd 5039 d03c
000001e0: 2203 7ebd 3c8b f7bc 900d 63bd 2443 6b3d
000001f0: f2e4 08bd b029 8c3b 80c1 ebbb 82d3 72bd
00000200: 6672 353d ce58 60bd 5eba 1d3d 302d ea3b
00000210: 8e3b 40bd 1af6 2cbd 805e 71bb 5289 193d
00000220: dc2b 5dbd 802a de3a 5c5f 733d a648 3d3d
00000230: b0e1 1cbc 7c33 f1bc c07f a9ba 6086 ec3c
00000240: 2232 2a3d 7c15 01bd 3265 79bd 004e d939
00000250: 8eaf 203d aa60 453d 6c9c 923c a80a 74bd
00000260: 00e2 023c 8603 65bd 3046 6bbc 404a 613c
00000270: 988a 5abc bc8a 6ebd 8435 f53c e00e 283b
00000280: 14e2 233d c286 183d 46d0 6f3d 088f 0a3c
00000290: 00c3 e03a f6ad 063d c4dc c5bc 4024 f23a
000002a0: b4c2 853c 8085 aabb 0007 7c3d 94c8 f03c
000002b0: f0ed 28bc ce1f 653d 8cb6 08bd 0066 76bb
000002c0: acbc 62bd 1074 413c bca0 bf3c 8014 babc
000002d0: 7e88 18bd 80d2 6b3d c09f ce3b cce6 213d
000002e0: d018 963b 18e2 003c 9469 d5bc f0aa c5bb
000002f0: 2069 d5bb 0084 553c b6db 43bd 8a33 423d
00000300: 6053 9abb ecb1 c53c 249f a23c 34b1 2a3d
00000310: c03f 2dbb 00c2 cf3a 6602 653d 58f4 473c
00000320: f8a9 c53c a8f0 573d 28d7 d9bc aa5d 4e3d
00000330: 769f 1fbd 4006 143c 00aa c73a 94d9 873c
00000340: a6e1 583d 2648 723d e4b2 60bd 0a80 243d
00000350: d07f df3c 7827 af3c 64c0 32bd 44d4 40bd
00000360: b65b 1ebd 6ad5 093d 8e40 6b3d 281f 6fbd
00000370: f018 733d c06a 4a3c 40be 57bb e6a8 763d
00000380: aae7 17bd 2012 323d 7abe 0d3d 7878 5a3c
00000390: 2468 673d 9a91 073d 88ab 423d 04fd c73c
000003a0: 44d4 f2bc c045 993b 3c09 d33c be71 763d
000003b0: 9a6e 72bd a255 3f3d 047b cbbc 48cb d33c
000003c0: 6463 08bd 16f8 663d 401c 163b 4047 2ebb
000003d0: 0092 80bb fc57 f6bc 4826 42bc 18a5 1a3c
000003e0: 08f8 08bd 0037 453c d016 4ebd f472 b63c
000003f0: 7c04 9ebc 787a 593c 10c4 d1bb 9ca8 31bd

FC3.bias f4 [128]
-0.039887436 0.041015662 -0.046297185 -0.017794847 -0.0062073544 -0.059430398 0.04433851 0.018751778
0.010019042 -0.05835805 0.02883821 0.051912285 -0.028672576 0.030592322 -0.00606703 0.04604566
0.0066211745 0.008148491 0.007370554 0.023119375 -0.013856187 0.013787709 -0.00115069 -0.053060703
-0.037691064 0.032881327 -0.052523054 0.01115749 0.007199034 -0.046751574 -0.0062089637 -0.031782396
0.0053241327 0.0098505765 -0.03738223 -0.042222768 0.03895857 -0.0139831975 0.043909676 0.026315555
-0.0028201118 -0.008867092 -0.02560974 0.023953542 0.041045517 -0.050583474 -0.031854056 -0.030605413
-0.019912161 0.024475977 -0.010897554 -0.032811083 0.017113797 -0.054984078 0.049591444 0.0034249946
-0.019487768 0.025832474 0.04091713 0.015562132 0.053682864 -0.025282562 0.022993103 -0.013629496
0.0018446147 0.019916594 -0.0075969547 -0.06205766 -0.016173564 -0.03440494 -0.028233215 0.016415596
-0.02778244 0.012441829 0.019910932 -0.01254791 -0.0623402 -0.010507233 0.027485244 0.01557301
-0.014017738 -0.014603287 -0.0005624369 -0.060526296 0.008467808 -0.006077908 -0.026928082 0.021115616
0.05383361 -0.041332997 0.016076803 -0.011131026 -0.009098448 -0.057345964 0.006261468 -0.0603026
-0.059472933 0.05718749 -0.0066456795 0.04852633 0.012837179 -0.01604797 -0.007951722 -0.04922785
-0.003882639 -0.053421482 -0.061728686 0.0351492 0.028300092 -0.013932683 -0.061611034 -0.011601172
0.05418147 0.008798376 0.027034104 -0.03567209 0.018844202 -0.055564076 -0.05524434 0.032601222
0.025548786 0.039297007 -0.045391485 0.030571535 0.019504108 0.051133744 -0.0066428185 -0.04669194
00000000: 0261 23bd 0a00 283d 1ea2 3dbd 80c6 91bc
00000010: 1067 cbbb 4a6d 73bd 4c9c 353d 549d 993c
00000020: e826 243c da08 6fbd 1c3e ec3c faa1 543d
00000030: c0e2 eabc c09c fa3c f0cd c6bb 609a 3c3d
00000040: 70f6 d83b 4081 053c b084 f13b d864 bd3c
00000050: 1005 63bc d8e5 613c c0d2 96ba 2e56 59bd
00000060: f261 1abd 92ae 063d 6a22 57bd e8cd 363c
00000070: e0e5 eb3b 947e 3fbd 9074 cbbb 422e 02bd
00000080: 1076 ae3b 5064 213c 1c1e 19bd c8f1 2cbd
00000090: 0693 1f3d c819 65bc a2da 333d b893 d73c
000000a0: a0d1 38bb 4847 11bc 84cb d1bc 383a c43c
000000b0: 581f 283d 9e30 4fbd 6679 02bd 34b8 fabc
000000c0: d41e a3bc d881 c83c a88b 32bc ea64 06bd
000000d0: 3c32 8c3c fc36 61bd 6620 4b3d e075 603b
000000e0: d0a4 9fbc a09e d33c b898 273d 50f8 7e3c
000000f0: 90e2 5b3d 601d cfbc 085c bc3c 404e 5fbc
00000100: 00c7 f13a 2028 a33c e0ef f8bb 2c30 7ebd
00000110: 6c7e 84bc 32ec 0cbd 5849 e7bc 007a 863c
00000120: 0098 e3bc d0d8 4b3c 401c a33c c095 4dbc
00000130: 7058 7fbd 8826 2cbc bc28 e13c f025 7f3c
00000140: a8aa 65bc a042 6fbc 8070 13ba 6cea 77bd
00000150: 90bc 0a3c 3029 c7bb 4898 dcbc a8fa ac3c
00000160: a280 5c3d ca4c 29bd 80b3 833c e85e 36bc
00000170: a811 15bc 9ae3 6abd 002d cd3b dcff 76bd
00000180: e499 73bd 6e3d 6a3d 00c4 d9bb 8cc3 463d
00000190: 0853 523c 0877 83bc f047 02bc 24a3 49bd
000001a0: e073 7ebb 7cd0 5abd 38d7 7cbd 9cf8 0f3d
000001b0: 98d5 e73c e845 64bc da5b 7cbd d812 3ebc
000001c0: 64ed 5d3d 1027 103c a076 dd3c e61c 12bd
000001d0: 285f 9a3c 2897 63bd e447 62bd dc88 053d
000001e0: b04b d13c e6f5 203d 6cec 39bd 2871 fa3c
000001f0: 14c7 9f3c 9e71 513d 00ac d9bb 0c40 3fbd

FC4.weight f4 [128, 512]
0.0041049765 0.031849846 8.1148486e-05 -0.030817801 0.04139504 0.028602416 -0.0044576507 0.020439409
0.029502034 0.022016797 0.010242653 0.03358868 -0.035853513 -0.03097424 -0.021828959 -0.0052286903
-0.026026944 -0.016618792 0.0023828247 0.00037953764 0.036077294 -0.0059652543 -0.013150096 -0.03419891
0.03589011 -0.030306317 -0.022961535 -0.032533173 -0.010023021 0.018340955 0.011896454 -0.0024047622
-0.017810114 0.02931574 -0.041115034 0.003812472 0.012150678 -0.00017159562 -2.637339e-05 0.030441862
-0.01311454 -0.0031265165 0.03460093 -0.038281854 -0.00077681907 0.025349917 -0.017486496 0.044115305
-0.03888467 0.004533094 -0.00787546 0.015082555 -0.040198203 -0.0021989434 -0.013758538 0.0032417933
0.041980643 -0.015561538 -0.017823834 0.00082354416 -0.025100386 -0.008316859 0.038682234 -0.03401948
0.019653443 -0.0038580275 0.032804277 0.036818717 -0.019217292 0.036195707 -0.040233955 -0.024855971
-0.042693615 0.016879654 0.029546816 -0.0030087212 -0.017066317 -0.01703869 0.014980575 -0.020059703
0.0048942026 -0.017059954 0.008220348 0.0204512 -0.019216029 -0.017409276 -0.009883831 -0.036422994
0.03431822 0.022870645 0.010584786 0.029656941 0.0046965126 0.03554303 0.0117041 -0.03178469
0.02696816 -0.03558432 0.03654187 -0.019934 0.032484498 0.015132846 -0.03170835 -0.03475195
0.03222839 -0.039711297 0.039234325 0.011014921 -0.0005157773 0.018242067 -0.022637324 -0.03157401
0.039145976 0.037778523 -0.005035995 0.00015445767 -0.018433351 0.027786985 -0.008606602 0.0023236242
0.00090487703 0.020850593 -0.0011375487 -0.020481952 -0.04075641 -0.025681086 -0.036464073 -0.013974557
0.03506319 -0.027423248 0.010897099 0.011604276 0.021366345 0.026648888 0.021106098 -0.018136606
0.027119901 0.03623148 0.03612546 0.022075592 0.034146532 -0.0040274262 0.030759012 -0.009643731
-0.033707753 0.03591287 0.035789985 0.022142505 -0.043675963 0.03252415 0.020754503 -0.03643403
0.0036976272 -0.0089708725 0.041119955 0.029694768 -0.031865317 -0.030186879 -0.0063994033 0.033506818
-0.011929238 0.023808634 -0.032197498 -0.0014067354 -0.03136521 0.036691107 0.037232332 0.044144507
-0.029769035 0.00893627 -0.03828269 0.00034079415 0.032696065 -0.007259705 0.018447729 0.04305241
0.0040084706 -0.0011297305 0.024587218 0.028493466 -0.01430777 0.04116208 0.015592021 0.031577136
0.04184966 0.024267375 0.0073505947 0.036639214 -0.03962716 0.019593753 -0.009059444 -0.0011645912
-0.033661027 -0.021072349 -0.008065352 0.005055504 -0.003665622 0.009431838 0.007300461 -0.002317908
-0.00339427 -0.018907586 0.03271163 -0.02374054 -0.032296374 0.02364582 0.009877835 0.007750284
0.011055645 -0.039529122 0.041452326 0.03788075 0.043285243 0.012009733 -0.03900743 0.013273307
-0.03694723 0.04271131 -0.016264753 0.041676063 -0.016682407 0.01268667 0.037325848 -0.033175323
-0.022067558 0.031636324 -0.012247953 0.010171573 0.036654208 -0.0068841395 -0.021917408 -0.03972928
-0.0061059613 -0.010403528 0.00089775946 -0.012874076 0.023165299 0.02150979 0.010849858 0.0050273654
-0.013230744 0.007205583 0.027060157 0.0365899 0.03931922 -0.015634315 0.03571308 0.022232462
0.03065375 0.004050191 0.04255416 0.012477395 0.010874751 0.026116569 -0.014866685 0.040719334
00000000: 0a83 863b fc74 023d 432e aa38 9d75 fcbc
00000010: d88d 293d 9d4f ea3c 7c11 92bb 8c70 a73c
00000020: 40ae f13c 925c b43c cdd0 273c 4994 093d
00000030: 22db 12bd b0bd fdbc a5d2 b2bc 6f55 abbb
00000040: 7536 d5bc 2224 88bc 2a29 1c3b aefc c639
00000050: c9c5 133d 2e78 c3bb 8073 57bc 2814 0cbd
00000060: 8201 133d f444 f8bc d419 bcbc 8141 05bd
00000070: 9937 24bc c53f 963c 58e9 423c 3799 1dbb
00000080: 84e6 91bc 9027 f03c 3d68 28bd abda 793b
00000090: a313 473c 59ee 33b9 6c3c ddb7 3661 f93c
000000a0: 5ede 56bc 3ee6 4cbb b4b9 0d3d 6fcd 1cbd
000000b0: 72a3 4bba a1aa cf3c d73f 8fbc 40b2 343d
000000c0: 8845 1fbd 598a 943b 1308 01bc d21c 773c
000000d0: dfa6 24bd 261c 10bb 7e6b 61bc 4474 543b
000000e0: e5f3 2b3d d2f5 7ebc 4a03 92bc 1de3 573a
000000f0: 539f cdbc 6f43 08bc 4371 1e3d 0358 0bbd
00000100: 4200 a13c f6d6 7cbb c75d 063d 39cf 163d
00000110: 956d 9dbc f341 143d 5ccc 24bd c09e cbbc
00000120: 80df 2ebd 3347 8a3c 2a0c f23c f72d 45bb
00000130: a9ce 8bbc b994 8bbc 1671 753c 3f54 a4bc
00000140: 8c5f a03b 51c1 8bbc a3ae 063c 4689 a73c
00000150: ef6a 9dbc e69d 8ebc cbef 21bc 4730 15bd
00000160: 4391 0c3d 385b bb3c cf6b 2d3c 1df3 f23c
00000170: 34e5 993b 9195 113d 8ec2 3f3c aa30 02bd
00000180: 55ec dc3c ddc0 11bd eeac 153d a14c a3bc
00000190: 770e 053d c2ef 773c 9de0 01bd 1058 0ebd
000001a0: eb01 043d 50a8 22bd 2cb4 203d ed77 343c
000001b0: 3b35 07ba 6370 953c e971 b9bc c053 01bd
000001c0: 8857 203d a7bd 1a3d fd04 a5bb eaf5 2139
000001d0: 8a01 97bc 88a1 e33c b502 0dbc f247 183b
000001e0: 4535 6d3a ddce aa3c cd19 95ba c4c9 a7bc
000001f0: 32f0 26bd 2461 d2bc 5a5b 15bd 8af5 64bc
00000200: 6b9e 0f3d b8a6 e0bc bf89 323c dc1f 3e3c
00000210: 7908 af3c c54e da3c b2e6 ac3c 3893 94bc
00000220: 8e2a de3c 7667 143d 4af8 133d dfd7 b43c
00000230: 3cdd 0b3d 80f8 83bb 53fa fb3c bd00 1ebc
00000240: 2411 0abd 6019 133d 8598 123d 3364 b53c
00000250: 91e5 32bd 0b38 053d 5905 aa3c d93b 15bd
00000260: e453 723b 91fa 12bc 666d 283d 7142 f33c
00000270: 3585 02bd 794a f7bc 16b2 d1bb 723e 093d
00000280: da72 43bc 530a c33c 86e1 03bd 3562 b8ba
00000290: ce78 00bd 6a49 163d ee80 183d dfd0 343d
000002a0: 31de f3bc 6f69 123c 4fce 1cbd 9eac b239
000002b0: 4fec 053d d2e2 edbb b11f 973c b957 303d
000002c0: 7d59 833b 7713 94ba 226b c93c 216b e93c
000002d0: 236b 6abc 9299 283d ad75 7f3c 0757 013d
000002e0: 8d6a 2b3d 60cc c63c 42dd f03b 0013 163d
000002f0: 1750 22bd 1483 a03c 106e 14bc 32a5 98ba
00000300: 25e0 09bd eb9f acbc 8a24 04bc a4a8 a53b
00000310: ef3a 70bb ff87 1a3c b538 ef3b 0be8 17bb
00000320: 6772 5ebb 15e4 9abc a1fc 053d 857b c2bc
00000330: 3449 04bd e1b4 c13c a5d6 213c 18f6 fd3b
00000340: bc22 353c 4ae9 21bd eac9 293d d828 1b3d
00000350: de4b 313d 79c4 443c 41c6 1fbd 4978 593c
00000360: fb55 17bd 0ef2 2e3d a93d 85bc 85b4 2a3d
00000370: 8ba9 88bc c0db 4f3c fde2 183d d9e2 07bd
00000380: 06c7 b4bc 1795 013d a3ab 48bc aba6 263c
00000390: b922 163d 5994 e1bb 238c b3bc 2bbb 22bd
000003a0: 8414 c8bb 8f73 2abc 9e57 6b3a caed 52bc
000003b0: 27c5 bd3c 4d35 b03c 9ac3 313c 99bc a43b
000003c0: c3c5 58bc d01c ec3b 43ad dd3c 4adf 153d
000003d0: 310d 213d 8913 80bc e147 123d da20 b63c
000003e0: 931d fb3c 77b7 843b 454d 2e3d fd6d 4c3c
000003f0: 032c 323c 6af2 d53c 6593 73bc 51c9 263d

FC4.bias f4 [128]
-0.011452284 0.010979712 -0.035263494 0.02893203 -0.02183456 0.023205038 0.0102523 0.017454416
0.022818709 -0.017954769 -0.00066662615 -0.009509562 0.003096023 0.03265571 0.028630307 -0.029607276
0.0012161841 0.026179178 -0.03663423 0.008280912 0.02310477 0.020180939 0.028614586 0.01762007
-0.010126186 0.01683264 -0.02935922 0.034284394 -0.024391092 0.03863013 0.019612625 -0.019572575
0.004821088 0.019291602 0.01500687 -0.037036557 0.03191087 -0.014563812 -0.026070291 -0.026731327
-0.0052704476 0.000749803 0.03967784 -0.020501202 -0.040525425 7.361474e-05 -0.017594127 0.042876106
0.006807701 -0.009810875 -0.03290309 0.028170336 -0.0046885367 -0.029535985 -0.01028922 -0.012981371
-0.0037661316 -0.027608776 -0.0136388885 0.037875 -0.024591664 -0.024716703 -0.042302664 0.042402167
0.03174985 -0.03454541 0.0018059977 -0.04019815 0.043262787 0.015473172 0.019092886 0.014449135
-0.018917028 -0.043660574 -0.037077967 -0.01819657 0.013349503 -0.012110059 0.026572987 0.035844557
0.00023238192 -0.021051023 -0.011411602 0.008453215 -0.0011026405 0.010733628 0.03414607 -0.020844588
0.03339007 0.022911685 0.029714629 0.033391103 0.009123918 0.01573246 -0.02173397 0.034843326
0.025013017 -0.010301885 -0.038196757 -0.04120212 0.006039417 -0.03546463 0.020359745 -0.041953783
-0.0129413 0.0217474 -0.034177803 -0.034036167 -0.006285138 -0.03573932 -0.0093852915 -0.032714095
0.026866313 0.042406123 -0.031883158 -0.02365131 -0.039567254 0.021955574 0.0016404712 -0.0139061
-0.010454073 0.044076294 -0.021687081 0.00851448 -0.019629626 0.030117342 0.027805382 -0.015071649
00000000: 5ca2 3bbc 40e4 333c 7470 10bd dd02 ed3c
00000010: 64de b2bc 7e18 be3c 43f9 273c 90fc 8e3c
00000020: 4dee ba3c e115 93bc 86c0 2eba fecd 1bbc
00000030: a6e6 4a3b fec1 053d 1b8a ea3c f58a f2bc
00000040: 5e68 9f3a b775 d63c c60d 16bd aaac 073c
00000050: 3746 bd3c 7f52 a53c 2369 ea3c f757 903c
00000060: 4de8 25bc 9be4 893c bf82 f0bc cb6d 0c3d
00000070: d4cf c7bc a13a 1e3d a8aa a03c aa56 a0bc
00000080: 38fa 9d3b 6c09 9e3c 60df 753c a5b3 17bd
00000090: f9b4 023d 0e9d 6ebc 5d91 d5bc a8fb dabc
000000a0: b8b3 acbb 6d8e 443a 3b85 223d 23f2 a7bc
000000b0: fdfd 25bd 9d61 9a38 8f21 90bc db9e 2f3d
000000c0: 2313 df3b cbbd 20bc 64c5 06bd 7ac5 e63c
000000d0: 4ca2 99bb 73f5 f1bc 1e94 28bc d1af 54bc
000000e0: 34d1 76bb cd2b e2bc a575 5fbc d122 1b3d
000000f0: 7574 c9bc af7a cabc 8f45 2dbd e5ad 2d3d
00000100: 210c 023d 7d7f 0dbd 3ab7 ec3a d1a6 24bd
00000110: 5234 313d 3083 7d3c af68 9c3c 11bc 6c3c
00000120: e2f7 9abc 6ed5 32bd 11df 17bd f910 95bc
00000130: e0b7 5a3c 4569 46bc 98af d93c bed1 123d
00000140: 8cab 7339 3273 acbc baf7 3abc 5a7f 0a3c
00000150: 7a86 90ba 19dc 2f3c c0dc 0b3d 45c2 aabc
00000160: 07c4 083d 49b1 bb3c 186c f33c 1cc5 083d
00000170: 7c7c 153c 5ce1 803c 700b b2bc e0b7 0e3d
00000180: 19e8 cc3c 3dc9 28bc 3474 1cbd 8ec3 28bd
00000190: 4de6 c53b 5c43 11bd 7bc9 a63c bbd7 2bbd
000001a0: bf07 54bc 9a27 b23c 06fe 0bbd 8269 0bbd
000001b0: 8ff3 cdbb 6563 12bd c4c4 19bc 37ff 05bd
000001c0: be16 dc3c 0bb2 2d3d ea97 02bd 64c0 c1bc
000001d0: 4611 22bd 2ddc b33c 1405 d73a 69d6 63bc
000001e0: 8f47 2bbc 5889 343d 1ba9 b1bc 5180 0b3c
000001f0: 4fce a0bc a5b8 f63c 1dc8 e33c 14ef 76bc

linear.weight f4 [1, 512]
-0.011953737 0.043107964 0.033083003 -0.038247228 0.00038404734 0.0046435446 0.033443775 0.00010720051
-0.04144566 0.00410504 -0.01029333 0.009219033 -0.014962758 -0.034217328 0.021319773 -0.0063749636
0.0016045779 0.030303631 -0.04060672 -0.006401827 0.0028230117 0.021657174 0.03574444 0.004223035
-0.02974389 -0.028542772 -0.021400036 0.012898537 -0.03255706 -0.03457677 0.016516233 0.005955666
-0.026637329 -0.04071065 -0.032870695 0.036596857 0.03140106 0.012512293 0.029220736 0.00973697
-0.036436524 0.008924674 0.038637724 0.0064893872 -0.03879767 0.012093048 -0.038419943 -0.033709887
0.010294415 0.031686563 0.0052929064 -0.018761553 -0.028303795 0.018989805 0.037284624 -0.012636252
0.009702968 0.012151737 -0.0027522156 -0.0029410967 0.014845884 -0.004998463 0.0063912165 -0.03486148
0.026131889 0.012133571 0.04030954 0.033096198 0.013252903 -0.0346525 -0.041807804 -0.020857796
-0.0043342765 0.023393076 0.019585319 0.016747408 0.013108033 0.024517607 -0.02321793 -0.027032072
0.029448936 -0.01297094 0.026696578 -0.038611718 -0.0038972348 0.03243056 -0.017631128 0.030712228
-0.00077028107 0.00781471 0.024527868 0.00094711344 0.03335677 0.03971011 0.011810169 0.025561431
0.0031096472 0.032412205 0.03077243 -0.012109127 0.035033736 0.023727173 -0.020876182 0.028228236
0.034715768 0.04228726 -0.0020910578 -0.017714547 0.024377394 0.028642429 -0.037856225 -0.029229976
0.013233673 0.02573259 -0.0060766586 0.035310123 -0.018745175 -0.0042236145 0.04074139 -0.03082661
-0.0043848264 0.04251095 0.019746799 0.03035396 0.01866225 0.037484452 -0.041100204 0.032747082
0.02587582 -0.023986794 -0.011623732 -0.028379748 -0.0055184183 -0.018902497 0.017345082 0.02023174
-0.026723167 0.024864744 0.03972694 -0.0019360787 0.029209584 0.016442064 0.011269941 0.04299474
0.021868872 -0.0113624055 0.0028986968 -0.038039505 -0.030796401 -0.03745976 -0.02444897 0.0076029594
-0.016079223 -0.032092806 -0.008203752 -0.003291321 -0.02695801 -0.012655133 -0.03861978 -0.033693314
0.029853825 -0.0065525863 -0.005114615 0.031129008 -0.028480353 0.043768916 0.0067429845 -0.037217718
-0.014040232 -0.019983001 0.020063765 0.007495016 0.034746736 -0.036207702 0.0043183556 -0.022169985
-0.03838767 -0.007946667 0.042209137 -0.025189785 -0.022671774 0.013190973 0.0028406344 0.031695474
0.013706909 -0.022566097 0.018222801 -0.021094013 0.0089029055 0.0289654 0.03167112 -0.038482506
0.03174687 -0.03948324 0.037615113 -0.028473694 -0.0005538254 0.008305352 -0.01373187 -0.033676766
0.043815147 -0.0122042205 -0.012667905 0.031786084 -0.014258626 0.0069336677 0.025133751 0.027310198
0.020898983 0.03149487 0.030250458 -0.002994955 0.031544182 0.034084592 -0.009249879 0.02840323
0.009364819 -0.008837441 0.03810255 -0.004860675 -0.009473674 -0.03922037 -0.041541804 -0.030743396
-0.038381375 -0.028542489 -0.03304554 -0.025516365 -0.01155057 0.042915624 0.031337034 0.039396513
0.035972066 -0.01656033 -0.03354575 0.035157874 -0.02069405 -0.019353865 -0.01327397 0.01972404
0.013043064 0.015020768 0.03003408 -0.007162609 -0.028327687 -0.016650492 0.019071002 -0.0062684426
-0.007452316 0.018451506 0.017600803 -0.040918905 -0.037975285 0.013551602 0.0025937539 0.037016835
00000000: 9bd9 43bc fa91 303d 0b82 073d 20a9 1cbd
00000010: f659 c939 e028 983b 57fc 083d d6d0 e038
00000020: edc2 29bd 9283 863b 5ba5 28bc 6d0b 173c
00000030: 5b26 75bc 7827 0cbd cea6 ae3c 12e5 d0bb
00000040: b350 d23a 523f f83c 3b53 26bd 6bc6 d1bb
00000050: 4702 393b 636a b13c c368 123d 6361 8a3b
00000060: 75a9 f3bc 88d2 e9bc 214f afbc 6354 533c
00000070: 8d5a 05bd 5fa0 0dbd 0d4d 873c bf27 c33b
00000080: 8736 dabc 36c0 26bd 6ca3 06bd 96e6 153d
00000090: 669e 003d 5c00 4d3c 5360 ef3c d087 1f3c
000000a0: 773e 15bd cc38 123c 9742 1e3d eda4 d43b
000000b0: 4eea 1ebd eb21 463c 3b5e 1dbd 6113 0abd
000000c0: e8a9 283c c5c9 013d 1e70 ad3b d4b1 99bc
000000d0: 5cdd e7bc 8290 9b3c c3b7 183d 4808 4fbc
000000e0: 33f9 1e3c 1418 473c 845e 34bb 6abf 40bb
000000f0: 273c 733c 26ca a3bb 696d d13b e9ca 0ebd
00000100: 8b12 d63c e3cb 463c 9e1b 253d e18f 073d
00000110: b422 593c c8ef 0dbd a93e 2bbd f8dd aabc
00000120: 8c06 8ebb d6a2 bf3c 6471 a03c dc31 893c
00000130: 13c3 563c 26d9 c83c 8733 bebc 5d72 ddbc
00000140: e53e f13c 1184 54bc c8b2 da3c 5227 1ebd
00000150: c068 7fbb e8d5 043d 286f 90bc 3698 fb3c
00000160: b0ec 49ba 4509 003c abee c83c b547 783a
00000170: 1ca1 083d 11a7 223d 707f 413c 3566 d13c
00000180: 39cb 4b3b a9c2 043d 7716 fc3c 5c65 46bc
00000190: 897f 0f3d 7d5f c23c 8704 abbc e73e e73c
000001a0: 1f32 0e3d 6835 2d3d 210a 09bb 191e 91bc
000001b0: 1ab3 c73c 87a3 ea3c 210f 1bbd b473 efbc
000001c0: 0cd2 583c 27cd d23c b51e c7bb 59a1 103d
000001d0: 7b8f 99bc 3f66 8abb 72e0 263d 1688 fcbc
000001e0: 97ae 8fbb f61f 2e3d 0ac4 a13c dea8 f83c
000001f0: 93e1 983c 4c89 193d b058 28bd ce21 063d
00000200: 87f9 d33c f47f c4bc 7771 3ebc a57c e8bc
00000210: d9d3 b4bb 69d9 9abc 4617 8e3c 09bd a53c
00000220: 8bea dabc 26b1 cb3c b7b8 223d 05c4 fdba
00000230: f048 ef3c 82b1 863c 8fa5 383c 411b 303d
00000240: 5926 b33c 6229 3abc 10f8 3d3b 50cf 1bbd
00000250: bc48 fcbc 686f 19bd 3549 c8bc 3f22 f93b
00000260: 93b8 83bc bf73 03bd 0869 06bc 34b3 57bb
00000270: 0bd7 dcbc 7a57 4fbc c62f 1ebd 0002 0abd
00000280: 0290 f43c 14b7 d6bb 8098 a7bb 4302 ff3c
00000290: a14f e9bc 0947 333d 41f4 dc3b 9b71 18bd
000002a0: 0009 66bc 64b3 a3bc c45c a43c c098 f53b
000002b0: 9852 0e3d 874e 14bd fe80 8d3b d49d b5bc
000002c0: 643c 1dbd bd32 02bc 7de3 2c3d cf5a cebc
000002d0: 28ba b9bc f31e 583c f029 3a3b 1dd3 013d
000002e0: f192 603c 89dc b8bc fc47 953c 5acd acbc
000002f0: 7edd 113c d948 ed3c 94b9 013d d59f 1dbd
00000300: 0209 023d 2eb9 21bd 4e12 1a3d aa41 e9bc
00000310: 982e 11ba 2c13 083c a3fb 60bc a6f0 09bd
00000320: 8377 333d 36f4 47bc 0b8d 4fbc 2032 023d
00000330: 039d 69bc d233 e33b 4ce5 cd3c a3b9 df3c
00000340: 5834 ab3c c400 013d cfcf f73c 0247 44bb
00000350: 7934 013d 499c 0b3d ce8c 17bc e4ad e83c
00000360: e66e 193c eaca 10bc 6b11 1c3d 4c46 9fbb
00000370: 7837 1bbc 8aa5 20bd bd27 2abd 93d9 fbbc
00000380: ca35 1dbd f0d1 e9bc c35a 07bd b207 d1bc
00000390: 9a3e 3dbc 4bc8 2f3d 435b 003d 3d5e 213d
000003a0: 7257 133d 87a9 87bc 4567 09bd b401 103d
000003b0: 9186 a9bc ff8b 9ebc 117b 59bc 4f94 a13c
000003c0: 93b2 553c ab19 763c 080a f63c 52b4 eabb
000003d0: 770f e8bc 9d66 88bc ca3a 9c3c 8267 cdbb
000003e0: 8f32 f4bb 9d27 973c 8f2f 903c 959a 27bd
000003f0: f98b 1bbd 8a07 5e3c f8fb 293b f79e 173d
