dl/poal_dl/modelpara/20230825_234204__epochsbackbone100_epochsmqnet100_lrbackbone0.1_lrmqnet0.001_mqnet.params (torch, 3489 bytes, 3 tensors)

W1 f4 [2, 64]
000000 86 3c 3c 3f 74 fc 4a 3f 24 2d 74 3f 0c 10 a2 3e
       0.7352985 0.7929146 0.9538138 0.31652868
000010 5b 71 7e 3f 13 16 71 3f b1 7b 13 3f e1 30 57 b9
       0.99391717 0.9417431 0.57610613 -0.00020522207
000020 b2 b1 35 3f 8e b7 54 3e 91 37 5b 3f 67 96 37 3f
       0.70974267 0.20773146 0.8563166 0.7171387
000030 ca 76 58 3c f5 3f 52 3f b7 11 5e 3f 99 07 30 3f
       0.013211915 0.8212884 0.8674578 0.68761593
000040 13 3b 72 3f 9a e6 55 3f 5d 1d 59 3f 81 aa 2a 3f
       0.9462139 0.83554995 0.8481043 0.6666642
000050 e9 70 f9 3e 17 a9 6c 3e fc 00 08 3e 01 a9 5c 3f
       0.48718956 0.23111378 0.13281626 0.8619538
000060 27 39 09 3e 58 d0 cf 3e e4 32 e2 3e cd 58 6a 3f
       0.13400708 0.4058864 0.4417945 0.9154175
000070 eb f8 62 3f 55 45 64 3f c5 74 23 b6 da 4f 83 3f
       0.8866107 0.8916829 -2.4356862e-06 1.0258744
000080 07 f1 66 3f 8b 3d 11 3f 82 67 87 3f fc d5 26 3f
       0.9021153 0.5673453 1.0578463 0.65170264
000090 1c 8d cc 3e a2 3e 10 b8 9a dd 57 3f 04 7b 5e 3e
       0.39951408 -3.4390607e-05 0.8432251 0.21726614
0000a0 75 41 95 3e ba ce 0b 3f 0d b9 98 3e a5 08 3d b7
       0.29151502 0.54612315 0.29828683 -1.1267291e-05
0000b0 cb ba fc 3e 1d c6 77 3d 16 3a 46 b8 2f c2 dc 3e
       0.49361262 0.06049167 -4.7260975e-05 0.431169
0000c0 7b ca 1a 3e 3e f5 6d 3f 58 c8 d8 3e 88 09 72 3f
       0.15116303 0.92952335 0.4234035 0.94545794
0000d0 0b d7 44 3f 18 e1 db 3e 71 55 06 b8 4d 3a 21 3f
       0.7689063 0.4294517 -3.2027663e-05 0.62979585
0000e0 a0 36 85 b6 7f 70 ae 3d 0f f8 c1 3e bc 55 75 3f
       -3.970068e-06 0.08517551 0.37884566 0.95833945
0000f0 9d 8f 71 3f f0 a9 67 3f a1 b5 21 3e 7c 15 68 3e
       0.9435976 0.9049368 0.15791942 0.22664446
000100 db 3c 23 3f a3 01 0f 3f bf a5 cf 3e b5 f1 4a 3f
       0.63764733 0.5586187 0.40556142 0.79275066
000110 f6 44 79 3e 34 72 9a 3e c0 c9 50 3f d5 88 77 b7
       0.24342713 0.30165255 0.81557846 -1.4754206e-05
000120 a5 e5 6c 3f 21 4a 99 3e 1e 57 1d 3f 11 4c 85 3c
       0.9253791 0.29939368 0.61461055 0.016271623
000130 6b 2c c9 3e f8 73 21 b8 e7 36 3f 3f 52 3a 40 3f
       0.392917 -3.8493396e-05 0.7469315 0.7508899
000140 12 4b ed 3d 20 6b 49 3f a8 7e 34 3f 73 44 23 3f
       0.11586584 0.78679085 0.7050576 0.6377632
000150 f3 ba 00 3f ed bf 50 3f b9 b1 0c 3f a7 4e bf 3e
       0.5028526 0.81542856 0.54958683 0.37364694
000160 11 65 30 3f ba c8 28 3f de 57 87 3d a5 99 52 3e
       0.68904215 0.65931284 0.06608556 0.20566423
000170 4e de 80 3f 7c db c8 3e a1 eb 29 3f 1d 14 5f 3f
       1.0067842 0.39229953 0.66375166 0.87140065
000180 5a d6 67 3f cd e5 87 3e 47 f6 fd 3e c1 9a 28 3f
       0.9056145 0.26542512 0.49601957 0.65861136
000190 5c 97 49 3f 9f 45 cf 3e 80 df 9c 3e 74 d8 d5 3e
       0.7874658 0.40482804 0.30639267 0.41766703
0001a0 80 03 25 3d f7 92 60 3f 7d 63 bc b8 9e 55 2a 3f
       0.04028654 0.8772425 -8.98307e-05 0.6653689
0001b0 9b dd 36 3f ed 9c 5b b8 e4 a0 69 3e 4b d2 28 3f
       0.71431893 -5.2359817e-05 0.22815281 0.6594588
0001c0 ed 8d 8a 3e 67 31 26 3f f1 b5 d3 b7 e0 d6 7a 3e
       0.27061406 0.6491913 -2.5237883e-05 0.24496031
0001d0 e4 7a 79 3f 8e 3c 7d 3f d5 ca eb b7 20 8c 09 b8
       0.9745314 0.98920524 -2.8108634e-05 -3.2793847e-05
0001e0 5e e3 62 3f a9 be 38 3f e6 fa 2d 3f 66 7b ca 3e
       0.88628185 0.72165924 0.67960966 0.3954727
0001f0 d2 9d f8 3e d9 49 07 3f c0 f1 df 3e e0 b8 3d 3f
       0.48557907 0.5284706 0.43739128 0.7411022

W2 f4 [64, 1]
000000 4f ea 09 b8 82 3c 09 3e 2b 96 2d b8 94 dd 59 3e
       -3.2881562e-05 0.13401988 -4.138627e-05 0.21275932
000010 b1 a4 2c 3f a0 7f 0f b8 50 91 e8 b7 a9 15 57 3f
       0.674388 -3.4212717e-05 -2.7724222e-05 0.84017426
000020 06 bf 1f 3e 27 19 3d 3c bd 01 01 3f 43 f4 a2 3e
       0.15600213 0.011541641 0.5039328 0.31826982
000030 a7 79 08 b7 ce 69 ca 3e 25 ca 18 3f de 4c 90 3e
       -8.134556e-06 0.39533848 0.5968345 0.28183645
000040 63 71 cb b6 5b 68 cd b6 4b 4b 03 3e 5c 8a 4b 3f
       -6.0630714e-06 -6.1216247e-06 0.1282169 0.79507995
000050 4a 97 b6 3e 70 ce 3e 3f 84 8f b1 3d 14 ea 2f 3f
       0.356623 0.7453375 0.086699516 0.6871655
000060 20 d2 55 3e a9 c0 2e 3f 4f 47 3d 3e 54 da a8 b7
       0.20880938 0.68262726 0.18484233 -2.0128828e-05
000070 cd 4c 3b 3d 44 79 3b 3e 7d bd c1 3e df 2f 31 3f
       0.04572754 0.18307978 0.3783988 0.6921367
000080 b3 6b 13 3c 57 cb 9f 3d 31 ed 2c 3f 39 8d 06 b8
       0.008997845 0.07802456 0.67549425 -3.2079613e-05
000090 a4 4a 11 3f 67 3b 12 3f 2e 9e ca 3e 8d 66 b9 b5
       0.5675452 0.5712189 0.39573807 -1.381342e-06
0000a0 5d 03 22 3f cb 2e 37 3f 5a 5d 29 3f 9f 39 f4 3c
       0.6328638 0.71555775 0.6615807 0.029812632
0000b0 93 39 1f 3f 51 27 2d 3f 62 1d a1 3e b1 22 8b b6
       0.62197226 0.6763812 0.3146773 -4.1465614e-06
0000c0 d2 dd e0 b7 95 01 8e 3c 8a c6 49 3f 3e 06 c6 3e
       -2.6806174e-05 0.017334739 0.7881857 0.38676637
0000d0 b3 12 7f 3e b3 42 e7 b6 a6 0c bb 3e c4 4f 4c 3f
       0.24909477 -6.8921013e-06 0.36533087 0.7980921
0000e0 44 06 2a 3f 5f 1d 24 3e d3 a0 67 b7 45 0b 8b 3e
       0.6641581 0.16026829 -1.3806118e-05 0.27157035
0000f0 8d 13 77 b7 38 59 43 3f f7 8a f8 b7 3b c9 77 3c
       -1.4726899e-05 0.7630801 -2.9628614e-05 0.015123661

b1 f4 [64]
000000 b7 7b e1 3e 14 49 10 3f af eb dd 3e 32 3e 3b 3e
       0.440397 0.5636151 0.43343875 0.18285444
000010 15 f3 48 3f 60 36 a7 3e 44 c2 67 3f 8d 21 12 3f
       0.78495914 0.32658672 0.905308 0.57082444
000020 70 af e4 3d ca 1f 6b 3f f7 54 06 3f a2 2e 29 3e
       0.111662745 0.9184538 0.52473396 0.16521695
000030 18 16 5c 3f 79 d7 6e 3f 50 b5 73 3f a7 42 af 3e
       0.8597121 0.93297535 0.95198536 0.3423054
000040 9d 46 16 3e ad 86 34 3d 39 5c 00 3e 2e b2 8c 3f
       0.14675374 0.04407375 0.1253518 1.0991876
000050 e8 77 98 3e c4 ff 88 3f 29 ad b3 3e 82 ba 5a 3f
       0.2977898 1.0703053 0.35093048 0.8544084
000060 6b 64 4f 3f 8a f2 8c 3f 68 14 35 3f 63 a2 2f 3e
       0.810126 1.1011517 0.7073426 0.1715179
000070 86 cd 27 3e d7 25 80 3f 7e a9 14 3e e8 44 80 3f
       0.16386995 1.0011548 0.14517781 1.0021029
000080 a3 a7 b2 3e b2 ed e1 3d a4 79 f0 3e 12 3e 23 3e
       0.34893522 0.11031665 0.46967804 0.15941647
000090 2c 7e 49 3f e5 bf fe 3e 1c 58 b2 3e 05 49 81 3e
       0.7870815 0.4975578 0.34832847 0.25251022
0000a0 c8 70 0c 3f c1 af 68 3f 79 9f fc 3e 04 4d 16 3e
       0.5485959 0.9089318 0.49340418 0.14677817
0000b0 09 d5 86 3f 21 94 83 3e b4 af 2f 3f 2f 2d 1a 3f
       1.0533763 0.2569895 0.68627477 0.60225195
0000c0 65 c6 24 3c a3 a4 13 3f 90 49 66 3f 41 48 01 3e
       0.010057067 0.5767309 0.89956 0.12625219
0000d0 76 bd 85 3f 8c 8f 7e 3e 9d 30 09 3e 44 d3 71 3f
       1.0448444 0.24859446 0.13397451 0.9446299
0000e0 6d 80 5f 3e 6e ba 55 3f 99 b9 68 3f fb 93 00 3f
       0.21826334 0.83487594 0.909082 0.502258
0000f0 00 b7 00 3f 5c 0b 7e 3f ad f1 12 3f e6 2e 7a 3f
       0.50279236 0.99236083 0.5740002 0.9772781
