dl/poal_dl/modelpara/20230826_042803__epochsbackbone100_epochsmqnet100_lrbackbone0.1_lrmqnet0.001_mqnet.params (torch, 3489 bytes, 3 tensors)

W1 f4 [2, 64]
0	0x3e0d0fcc	0.13775557
1	0x3f78ca60	0.971838
2	0x3c9241d9	0.017853664
3	0x3f52521d	0.82156545
4	0x3f5743d7	0.8408789
5	0x3f00c45e	0.5029963
6	0x3f4e36bd	0.80552274
7	0x3f5afe70	0.8554449
8	0x3f6375f0	0.88851833
9	0x3f2a99a4	0.66640687
10	0x3f4af03b	0.7927281
11	0x3f471bac	0.777766
12	0x3f1cd708	0.6126561
13	0x3f017030	0.5056181
14	0x3e33326a	0.174997
15	0x3f0d68d1	0.5523806
16	0xb80f88b6	-3.422118e-05
17	0xb983cf03	-0.00025140503
18	0x3f602041	0.87549216
19	0x3f5f477a	0.8721844
20	0x3de0f895	0.10984913
21	0x3f246d49	0.64229256
22	0xb827ecd2	-4.003646e-05
23	0x3f05a524	0.5220511
24	0x3f7aca9a	0.97965395
25	0x3f3a18a8	0.7269387
26	0x3c98c350	0.01864782
27	0x3e1a5b67	0.1507393
28	0x3f008e18	0.5021682
29	0x3f34c8eb	0.70619076
30	0x3e8d5a94	0.27608168
31	0x3ecfea01	0.40608218
32	0x3f347265	0.7048705
33	0x3f2af24c	0.66775966
34	0x3e6fa026	0.23400936
35	0x3f7e3d05	0.9931186
36	0x3f422efb	0.75852937
37	0x3c643510	0.013928667
38	0xb8c42783	-9.353368e-05
39	0x3f79cfba	0.9758259
40	0xb82e2a50	-4.152424e-05
41	0x3f4a2a4a	0.7897078
42	0x3e871d41	0.26389506
43	0x3ee16df2	0.44029194
44	0xb8052bad	-3.1750347e-05
45	0x3e9aa7af	0.30206057
46	0x3f7a5e55	0.9780019
47	0x3e83d58b	0.25748858
48	0x3f1ba638	0.60800505
49	0x3f32acdf	0.6979503
50	0xb965d265	-0.0002191752
51	0x3e82dcb9	0.25559023
52	0x3ef2c071	0.47412446
53	0x3f73000a	0.94921935
54	0x3f5824f1	0.8443137
55	0x3f16a950	0.588521
56	0x3f664ba0	0.89959145
57	0x3f77f394	0.96856046
58	0x3f321a3e	0.6957129
59	0x3da38967	0.07985192
60	0xb8bab4de	-8.90286e-05
61	0x3f3ad593	0.7298214
62	0x3c0a8ae1	0.008455963
63	0x3f631690	0.887063
64	0x3eb7f6a1	0.3593035
65	0x3f1eac94	0.61982083
66	0x3f0d7796	0.552606
67	0x3ed58e3d	0.41710082
68	0x3eb23579	0.3480642
69	0x3f5a7c3e	0.8534583
70	0x3e779805	0.24179085
71	0x3cdf10e7	0.02722974
72	0x3f5fe2ee	0.8745564
73	0x3f8345a3	1.0255626
74	0x3e09e798	0.13467252
75	0x3f1036bd	0.56333524
76	0x3f6fe72d	0.9371212
77	0x3d1329bf	0.035928484
78	0x3e3293ac	0.17439145
79	0x3dd4bf5c	0.103880614
80	0x3e943726	0.28948325
81	0x3f13e6e6	0.577742
82	0x3dc42fbb	0.09579416
83	0x3f70c8e2	0.9405652
84	0x3f0f639b	0.5601136
85	0x3f81c68e	1.0138719
86	0xb7bbd3f7	-2.2390841e-05
87	0x3f0f0521	0.558672
88	0x3f6f27b5	0.93419963
89	0x3edf9a26	0.43672293
90	0x3eff9fb5	0.49926534
91	0x3da7538a	0.08170231
92	0x3f63abc5	0.88933975
93	0x3f2c7f8c	0.6738212
94	0x3ec675f0	0.38761854
95	0x3ee8338c	0.45351827
96	0x3f574320	0.840868
97	0x3eac46da	0.33647805
98	0x3f0fe1af	0.5620374
99	0x3e9cf242	0.30653578
100	0x3cbef3ea	0.023309667
101	0x3e74029b	0.23829119
102	0x3f30ed74	0.69112325
103	0x3df275ba	0.11838861
104	0xb853e689	-5.0521023e-05
105	0x3f0e39fb	0.5555722
106	0x3e980732	0.2969299
107	0x3ebe70c3	0.37195405
108	0x3f179c31	0.59222704
109	0x3e43a76d	0.19106837
110	0x3ebaf14c	0.3651222
111	0x3f702818	0.9381118
112	0x3f46050c	0.7735145
113	0x3f6dc144	0.92873025
114	0xb80ac9b6	-3.3089622e-05
115	0x3e72c3cb	0.23707502
116	0x3ee94e2e	0.4556746
117	0x3ec2b626	0.38029593
118	0x3f5c649f	0.86091036
119	0x3f800820	1.000248
120	0x3f5769f5	0.8414605
121	0x3f7a3d0d	0.97749406
122	0x3f4c0d6f	0.79708
123	0x3f35f37c	0.7107465
124	0x3ea7c86d	0.327701
125	0x3ea40be1	0.32040313
126	0x3e816942	0.25275618
127	0x3d79f0ed	0.06102078

W2 f4 [64, 1]
0	0x3e09fdb3	0.13475685
1	0x3e86bec2	0.26317412
2	0xb78b64db	-1.6617056e-05
3	0xb854f005	-5.0768274e-05
4	0x3ed45018	0.41467357
5	0x3e8da762	0.27666765
6	0xb84b1c3a	-4.842526e-05
7	0x3ef12174	0.47095835
8	0x3f43f3af	0.76543707
9	0x3ea98f59	0.33117178
10	0x3f2b11e9	0.66824204
11	0xb734543d	-1.0748449e-05
12	0x3f42949e	0.7600802
13	0x3e79bf3c	0.24389356
14	0xb73b8072	-1.1175975e-05
15	0x3ec15bc5	0.37765327
16	0x3f2a89c1	0.66616446
17	0x3f1929a0	0.5982914
18	0x3e1144a6	0.14186344
19	0x3edeba1d	0.43501368
20	0xb72f49d6	-1.0448004e-05
21	0x3d95fb7f	0.0732336
22	0x3ea6c2aa	0.32570392
23	0xb6718096	-3.5986645e-06
24	0x3d1966e0	0.037451625
25	0xb84a2cc5	-4.8202248e-05
26	0x3e7c1949	0.2461902
27	0x3f42ffdb	0.76171654
28	0x3f09027b	0.5351941
29	0x3edf7921	0.43647102
30	0x3ee923a0	0.45534992
31	0xb5db6f3a	-1.6349143e-06
32	0x3e4b9990	0.19882798
33	0x3b92a2ab	0.004474958
34	0x3f1c778d	0.6111992
35	0xb80be010	-3.3348857e-05
36	0x3efeb5a4	0.49747956
37	0x3c63385f	0.01386842
38	0x3f344567	0.704184
39	0x3ef04248	0.4692557
40	0x3f1a56c6	0.60288656
41	0xb84578de	-4.7081026e-05
42	0x3ed04073	0.4067417
43	0xb7e7fa19	-2.7653807e-05
44	0x3f208598	0.6270385
45	0x3f311731	0.6917601
46	0xb7c8009e	-2.3842145e-05
47	0x3f0f5fec	0.5600574
48	0x3edf7bc3	0.4364911
49	0x3f37d18e	0.7180413
50	0x3f2e3f36	0.680652
51	0xb79b9d81	-1.8550783e-05
52	0x3f3a45dd	0.7276285
53	0x3eab6b20	0.33480167
54	0x3edb6a55	0.42854562
55	0x3eafccde	0.3433599
56	0x3c24cf17	0.01005914
57	0x3f458550	0.77156544
58	0x3f2f7b8f	0.6854791
59	0x3e03fca2	0.1288934
60	0x3f481fa7	0.781733
61	0x3f0c6030	0.5483427
62	0x3e2a53ee	0.16633579
63	0xb6d56201	-6.359304e-06

b1 f4 [64]
0	0x3f5ce2d3	0.86283606
1	0x3ed91017	0.42395088
2	0x3f1f4fdf	0.6223125
3	0x3e251fdc	0.16125435
4	0x3f48d343	0.7844736
5	0x3eb3ebf7	0.35140964
6	0x3ed02df6	0.40660065
7	0x3f650c9f	0.89472383
8	0x3f30b446	0.69025075
9	0x3e07366f	0.13204359
10	0x3f70e4d2	0.9409915
11	0x3db5898c	0.088641256
12	0x3f29b1cf	0.6628694
13	0x3f00388b	0.5008628
14	0x3f7bdc9d	0.98383504
15	0x3f348fd9	0.70531994
16	0x3f3d0f11	0.73851115
17	0x3e58d17b	0.2117366
18	0x3f04e74e	0.5191544
19	0x3e620f54	0.2207616
20	0x3f04b6af	0.51841253
21	0x3e28ef60	0.16497564
22	0x3dfd4aed	0.123678066
23	0x3f0af928	0.5428643
24	0x3f371f93	0.71532553
25	0x3e8d67c4	0.2761823
26	0x3e6cc021	0.23120166
27	0x3f433ba1	0.7626286
28	0x3f649359	0.89287335
29	0x3f777372	0.9666053
30	0x3ec0839b	0.37600407
31	0x3f53593c	0.82558036
32	0x3edcd002	0.43127447
33	0x3f3e6c45	0.74383956
34	0x3ec44190	0.3833127
35	0x3d90aa45	0.07063726
36	0x3efb645a	0.491
37	0x3e26c532	0.16286162
38	0x3e76ed4d	0.2411396
39	0x3eda866f	0.4268069
40	0x3f6a0667	0.9141602
41	0x3e0aa575	0.1353968
42	0x3ee5e887	0.44903967
43	0x3ebc7b09	0.36812618
44	0x3f85c433	1.04505
45	0x3f101f29	0.56297547
46	0x3f100b87	0.5626759
47	0x3ebe96cf	0.37224433
48	0x3e19ecf7	0.15031801
49	0x3ee35b5a	0.44405633
50	0x3ec47f60	0.3837843
51	0x3d9375cf	0.072002046
52	0x3f22e750	0.63634205
53	0x3f23c358	0.63969946
54	0x3f14e566	0.58162534
55	0x3f08da05	0.5345767
56	0x3eca1d45	0.39475456
57	0x3f51f85b	0.82019585
58	0x3e506e9e	0.20354697
59	0x3d224e61	0.03962553
60	0x3efec8f9	0.49762705
61	0x3f0e1ff2	0.55517495
62	0x3ef39aad	0.47578946
63	0x3f73af0e	0.9518899
