dl/poal_dl/modelpara/20230828_111825__epochsbackbone200_epochsmqnet100_lrbackbone0.1_lrmqnet0.001_module.params (torch, 500695 bytes, 9 tensors)

FC1.weight f4 [128, 64]
000000 a4 0a 45 3d 38 1c 49 bd 7c ac df 3d c0 6b 68 bb
       0.04810585 -0.049099177 0.10921571 -0.0035464615
000010 f8 86 28 bd 70 72 8c bd 50 22 81 bd 10 cb 43 3c
       -0.04114434 -0.06857765 -0.06305373 0.011950269
000020 b8 e9 aa 3d 86 a1 a3 3d 3c 19 42 3d 82 db ff bd
       0.083453596 0.079897925 0.047387347 -0.1249304
000030 84 84 03 3d d0 f3 c2 bc 38 fa c6 3d d4 dc b3 bd
       0.0321088 -0.0237979 0.09715694 -0.08782354
000040 6c f9 5d 3d 68 12 16 3d 20 59 c5 3d 64 cc 8c bd
       0.054192945 0.036638647 0.0963614 -0.06874922
000050 fc a5 83 3d 12 3b a0 3d 20 3c af bb e0 1c b9 bc
       0.064281434 0.07823767 -0.0053477436 -0.022596776
000060 f8 8c 24 3d 50 da f7 bc e8 35 8c 3c c4 71 80 3d
       0.0401735 -0.030255467 0.017115548 0.06271699
000070 6a a5 df 3d ec 06 fe 3d 16 82 e7 3d 60 c9 61 3d
       0.10920222 0.12403664 0.11304109 0.055123687
000080 d4 13 2f bd a8 ef b8 3c aa ea db bd 7c 57 c9 3d
       -0.04274352 0.022575215 -0.10738118 0.098311394
000090 38 68 8b 3d b0 4d 9e 3c 16 26 bf 3d a0 b9 da 3d
       0.068069875 0.019324154 0.09333436 0.106799364
0000a0 6a 97 99 bd a2 25 e7 bd ba d6 e1 bd 6e 18 c5 bd
       -0.07499583 -0.11286475 -0.11027284 -0.096238
0000b0 a8 88 89 bd b8 7b 8f bd 38 ee 8f 3c 80 a8 8c bc
       -0.06715518 -0.07006019 0.017569646 -0.01717019
0000c0 c0 eb ea 3b a0 f0 12 bc 54 c0 f0 3d 88 c9 ce bc
       0.007169217 -0.008968502 0.11755434 -0.025242582
0000d0 9c 5b 30 bd 68 76 36 3d d4 c0 7c bd 2e f6 ce bd
       -0.043056116 0.044546515 -0.061707333 -0.10105549
0000e0 06 6c 8d 3d fe 6e f1 3d 40 52 23 3c 58 37 e5 bc
       0.069053695 0.11788748 0.00996834 -0.027980492
0000f0 14 51 93 3d 0a 35 c7 bd b0 4c b5 3c d8 b5 13 3d
       0.07193199 -0.09726913 0.022131294 0.03606209
000100 62 31 87 bd 76 3c e6 3d 00 47 1f bd 60 b0 09 bd
       -0.06601216 0.11242001 -0.03888607 -0.03361547
000110 e2 b9 d1 3d 22 63 aa bd ac 69 de 3d 70 96 43 bc
       0.102405325 -0.08319689 0.10859999 -0.011937723
000120 b8 28 be 3c e0 09 a2 3c 7c ff 61 3d 7c 83 b5 3d
       0.023212776 0.0197801 0.05517529 0.08862969
000130 c8 30 d8 bd d4 ea c9 3d 94 f6 a5 3d 00 58 92 3d
       -0.10556179 0.09859243 0.08103672 0.07145691
000140 c2 6b c9 bd 88 72 b5 bd 42 61 bb 3d e4 d4 99 3d
       -0.09835006 -0.08859736 0.0914941 0.07511309
000150 30 a8 3a bc 3e 72 f8 3d fc a7 44 bd 22 d4 9e bd
       -0.011392638 0.12131165 -0.048011765 -0.07755305
000160 54 37 ec 3d a0 cc 96 bd 72 1d e6 bd f6 67 f8 bd
       0.115339905 -0.07363248 -0.11236085 -0.12129204
000170 80 ff d8 3a d4 7a db bd 00 a4 31 ba 68 fe db 3d
       0.0016555637 -0.10716787 -0.0006776452 0.107418835
000180 80 4a b3 ba 70 10 47 3d 5a c1 b9 bd 88 1e 28 bd
       -0.0013678819 0.04859966 -0.09070082 -0.041044742
000190 be dc da bd 90 fe 3e 3d 1a a3 ec 3d 70 94 b9 bc
       -0.106866345 0.04662949 0.11554547 -0.022653788
0001a0 1e 5e 92 3d 06 a1 b1 bd c2 ab d9 bd 2c f2 c9 bd
       0.07146858 -0.08673291 -0.10628463 -0.09860644
0001b0 3e e0 cf 3d 94 65 8d bd 40 7e 6b 3b da b4 c6 3d
       0.10150193 -0.0690414 0.0035933405 0.097024634
0001c0 48 9e ad bd 86 d6 fd 3d a8 6e f9 3c 4c ac 7a 3d
       -0.084774554 0.12394433 0.030448273 0.06119947
0001d0 94 43 1d 3d 02 cb c9 3d 00 e8 b5 3c f0 9f 3b 3d
       0.038394526 0.09853174 0.022205353 0.045806825
0001e0 ca 73 81 3d a0 15 20 bd 18 15 96 bc ec 44 f8 3d
       0.06320913 -0.039083123 -0.018320605 0.12122521
0001f0 e0 f3 00 bd 76 99 ef 3d 12 49 a7 bd ec be 6c 3d
       -0.031482577 0.11699192 -0.08168234 0.057799265
000200 d8 57 0f 3d 30 64 b7 3c 68 86 91 3d a4 0d 1e 3d
       0.034995884 0.02238664 0.07105714 0.038587227
000210 08 0d d2 3c 90 51 84 3c 80 d8 a0 3d d0 50 ee 3c
       0.02564098 0.016152173 0.07853794 0.029091269
000220 f8 30 af bc 18 54 32 bd a4 77 79 bd ac fb 7c 3d
       -0.021385655 -0.04353723 -0.060905114 0.06176345
000230 88 a9 dc bd 96 e3 a3 bd 50 f6 02 bc 58 f2 68 3d
       -0.10774523 -0.08002393 -0.007993296 0.056871742
000240 06 41 fa bd b8 25 be bc e4 63 e1 3d 20 b1 9f 3b
       -0.122194335 -0.023211345 0.11005381 0.00487341
000250 06 4a b2 bd d8 7d 0d 3d e0 c0 4f 3c f0 ea a5 bc
       -0.08705525 0.034543842 0.012680262 -0.020253628
000260 c0 ea 1a 3d dc 6d 54 bd 48 8e 2d 3d 44 f1 9c bd
       0.03782153 -0.051862583 0.042372018 -0.07663205
000270 c0 a1 ba bc a6 53 e0 bd b2 87 9c 3d 10 f4 92 bc
       -0.022782207 -0.10953455 0.07643069 -0.017938644
000280 38 ef db 3d 48 65 a9 3c 58 79 60 bd de 16 af 3d
       0.10738987 0.020678177 -0.054803222 0.085492834
000290 00 d9 18 bd aa 59 cf 3d 0e d7 80 bd 2c 89 34 3d
       -0.037316322 0.10124524 -0.062910184 0.04407613
0002a0 a6 9b 88 bd 28 a9 92 3c 70 07 1e bd a0 d0 e3 3d
       -0.066703126 0.017902926 -0.03858131 0.111237764
0002b0 48 e3 91 bc c8 00 ca 3c 48 82 3b 3d ac ae c8 3d
       -0.017808571 0.024658576 0.045778543 0.09798941
0002c0 8c ec 03 3d f4 bc b3 bd 40 1f 55 bd 86 93 cf 3d
       0.03220801 -0.08776274 -0.052031755 0.1013556
0002d0 00 e7 20 bc 96 54 9c bd f0 3c d6 3c e4 f1 9d 3d
       -0.0098207 -0.07633321 0.026152104 0.077121526
0002e0 b0 4a fd 3d 60 ff 89 3d ae da c6 bd 80 ad bc 3d
       0.12367761 0.06738162 -0.097096786 0.0921278
0002f0 40 15 7d 3d 32 8c a3 bd 84 01 7a 3d b8 fb 9b bd
       0.061787844 -0.079857245 0.0610366 -0.07616371
000300 a2 e2 de bd 38 82 bf bd 10 50 20 bc b4 3c b1 bd
       -0.108830705 -0.09351009 -0.009784713 -0.08654156
000310 1c 24 26 3d 74 71 95 bd 82 22 85 bd c6 f1 c8 3d
       0.04056178 -0.0729703 -0.065007225 0.098117396
000320 a0 43 c7 3d 2c f9 a3 3d 9e b3 99 3d ba 36 c5 bd
       0.09729695 0.0800651 0.075049624 -0.09629579
000330 d0 92 bd 3d 88 16 52 3d f4 92 0f bd e8 89 fb 3c
       0.09256518 0.05129102 -0.035052255 0.030705407
000340 90 42 12 bc f0 e9 05 3d 34 e7 05 bd 06 bc b4 3d
       -0.008927003 0.032693803 -0.032691196 0.08824925
000350 be 5a c5 3d 96 ca e7 3d e0 17 f4 3d 74 60 dd bd
       0.09636448 0.11317937 0.11918616 -0.108094126
000360 ce d8 a1 3d 60 21 54 3d 0c 8e 21 bd d2 4c ed 3d
       0.0790268 0.05178964 -0.039442107 0.11586918
000370 ba 78 a6 3d 14 23 95 3d 90 6d df 3c 00 a9 8a bb
       0.081284955 0.07282081 0.027273923 -0.004231572
000380 00 0d 54 3a 26 fb bf bd e4 41 1e bd 4e a9 95 3d
       0.00080890954 -0.09374075 -0.038637057 0.07307683
000390 82 e0 cc 3d da 87 98 bd 96 88 a9 bd fe a6 c3 3d
       0.10003759 -0.07447787 -0.08278005 0.095533356
0003a0 00 7c 13 39 68 ca c4 3d 1c 95 d2 bd 82 00 f7 3d
       0.00014065206 0.096089184 -0.102823466 0.12060644
0003b0 f6 ce d7 bd ee 6e d2 3d d8 fe fe bc 80 d9 40 3c
       -0.105375215 0.102750644 -0.031127378 0.011770606
0003c0 c0 8b 57 3d 84 9e 37 bd cc 3e 91 3d 56 e8 d2 3d
       0.05262351 -0.044828907 0.07092056 0.10298221
0003d0 bc b2 db 3d 58 48 d9 bd 36 ad ea 3d 04 84 cb 3d
       0.1072745 -0.106095016 0.114588186 0.09937289
0003e0 d4 40 60 3d c4 73 ed 3d 0e 93 f0 3d 28 35 d7 3c
       0.054749325 0.11594346 0.117467985 0.026270464
0003f0 68 01 33 bd a0 2d f3 bc 60 5f 3b bc 38 b3 a0 3d
       -0.043702513 -0.029684842 -0.011436313 0.07846683

FC1.bias f4 [128]
000000 08 05 fa 3d ec 08 67 3d 0a d9 de bd 1c 01 af bd
       0.12207991 0.056404993 -0.10881241 -0.085451335
000010 00 8f 32 ba 08 0d eb bd a6 ef df 3d d4 c4 3d 3d
       -0.000681147 -0.11477095 0.10934381 0.046330288
000020 80 89 c4 3d 00 a7 99 bb cc d7 75 bd 78 25 b5 3d
       0.095965385 -0.0046890974 -0.060020253 0.08845037
000030 c8 d0 ed bd ce 1f 81 bd aa 1a c6 bd 00 13 ab ba
       -0.116120875 -0.063048944 -0.096730545 -0.0013051927
000040 a0 3a 87 bd d8 4f 40 bd ac 03 f8 3d 14 7e 0d bd
       -0.06602979 -0.046951145 0.12110075 -0.034544066
000050 6a a6 c3 bd 36 22 87 3d 70 ca c5 bc b0 52 e1 3d
       -0.09553225 0.06598322 -0.024144381 0.110020995
000060 da d4 8f bd ea 97 d6 3d 26 73 ce 3d c0 eb bc bd
       -0.0702302 0.10478194 0.100805566 -0.09224653
000070 70 14 d2 bd 8e 88 e4 3d 40 e2 0e bc 92 96 a8 bd
       -0.102578044 0.11158858 -0.008720934 -0.08231844
000080 34 9c 35 bd fc b9 93 bd 88 24 2b 3d 50 5d aa bc
       -0.04433842 -0.07213208 0.041782886 -0.020796448
000090 18 f2 c1 bc 9e 00 b1 bd 36 7c a1 3d 74 c5 18 3d
       -0.02367501 -0.08642696 0.078850195 0.03729768
0000a0 a8 08 e7 3d 94 06 cb 3d f4 92 02 3d 0e d2 bf bd
       0.11280948 0.09913364 0.031878427 -0.093662366
0000b0 ba 66 db bd be 97 be bd 74 f6 ad bd 58 5b cf 3d
       -0.10712953 -0.09306286 -0.08494273 0.10124844
0000c0 fc fb 77 bd 52 2a d1 bd 9c 78 5f bd 68 19 a9 3d
       -0.060543045 -0.1021315 -0.05455838 0.08256799
0000d0 1c 96 14 bd 86 33 b2 3d 38 5e 9d 3d 38 5e b1 3d
       -0.036275968 0.087012336 0.076839864 0.08660549
0000e0 1a 4e a6 3d 90 e8 eb bd b8 98 2a bd dc 2e 86 bd
       0.081203654 -0.11518967 -0.04164955 -0.065519065
0000f0 c4 46 8a 3d 40 9c f3 bb 10 1c 8e bd f2 d1 e2 3d
       0.06751779 -0.007434398 -0.06938946 0.110752
000100 18 4f 57 bd 68 0a dd bc 1a ab ae 3d b4 00 05 3d
       -0.052565664 -0.026982501 0.08528729 0.032471374
000110 00 d4 0a b9 00 ca 24 bb d4 2d 2c bd 92 97 89 3d
       -0.00013239682 -0.0025144815 -0.042035893 0.06718363
000120 b2 82 bf bd a8 f2 11 3d 00 14 84 b9 00 2c cd 3b
       -0.093511 0.035631806 -0.00025191903 0.0062613487
000130 84 d6 57 bd 26 15 b4 3d 28 b2 83 3d c4 65 46 3d
       -0.052694812 0.08793096 0.06430465 0.048436895
000140 7a 95 d4 3d 78 6f c2 3c 2c 99 66 3d a8 96 72 bd
       0.10380073 0.023734793 0.05629842 -0.05922571
000150 68 ce 68 3d 50 4e ea bd a2 a4 bd bd 68 52 9e 3d
       0.05683747 -0.11440718 -0.09259917 0.077305615
000160 88 17 ee bc 24 3a 45 bd 40 e7 7f 3b 6c 13 f5 bd
       -0.029063955 -0.04815115 0.0039047748 -0.11966595
000170 40 2e 6c 3b a8 a9 8d bd f2 0a b3 bd d8 60 70 bd
       0.003603831 -0.06917125 -0.08742322 -0.058686107
000180 58 2a f2 3c 84 ba 1a bd f6 a4 a4 bd ec bd 1b 3d
       0.029561207 -0.03777553 -0.08039276 0.03802292
000190 44 1e 8d bd c0 8d 72 bc 64 3b 34 bd 60 6f c7 3b
       -0.06890538 -0.014804304 -0.04400195 0.006086275
0001a0 dc 01 fa bd d0 bd ea bc a8 ea a9 3c c2 e0 de bd
       -0.12207386 -0.028654963 0.020741776 -0.10882713
0001b0 f8 3b ed bd a8 07 da 3c 38 8b c1 3d a0 61 44 3d
       -0.11583704 0.026614979 0.09450382 0.047944665
0001c0 c0 aa 09 bb d4 20 ff 3d ac fc 06 3d 78 e3 76 3d
       -0.0021006316 0.12457433 0.03295581 0.060275525
0001d0 0c c5 96 bd 6a 1f d0 3d c6 2b d0 3d 5e 7c f0 bd
       -0.073618025 0.10162242 0.10164599 -0.11742471
0001e0 98 f1 a0 3d d0 ac f4 3c a2 7b 9e 3d d2 24 d2 3d
       0.0785858 0.02986756 0.07738425 0.10260929
0001f0 fe 63 f0 3d aa 9e c4 bd d0 fa ed 3c 80 c0 05 3d
       0.11737822 -0.09600575 0.02905026 0.032654285

FC2.weight f4 [128, 128]
000000 72 b7 0e bd 7f fc 8c 3c eb ff 37 bc a3 67 a6 bd
       -0.034842916 0.017210243 -0.011230449 -0.08125236
000010 ed d5 89 3d 7a 42 9e 3d cb 63 aa 3d 44 c4 a1 3d
       0.06730256 0.07727523 0.08319815 0.07898763
000020 6b 99 81 3d f1 ac 40 3b 5c 80 64 3d f7 c0 41 3d
       0.0632809 0.0029399956 0.055786476 0.047303166
000030 4e 81 56 bd fd c2 c1 bc a9 84 70 bd e9 d2 9a bd
       -0.05236941 -0.023652548 -0.058720265 -0.07559759
000040 2c 03 28 bd 8d 42 8c bc f4 05 9b 3d 99 f9 7a bd
       -0.04101865 -0.017121578 0.07569495 -0.06127319
000050 7c e6 d4 3c df 7f 95 3d 71 fc 9a 3d 90 09 60 bc
       0.02598881 0.0729978 0.075676806 -0.013674155
000060 c2 33 77 3b 72 0f 2f 3d 67 ed 00 bc 4e 3d 6a bc
       0.003772006 0.04273934 -0.007869101 -0.014296843
000070 d7 ed 86 bd ac a6 d8 bc a8 88 7d 3d 9e 1e d8 3c
       -0.06588333 -0.026446663 0.061897904 0.026381787
000080 f6 99 a3 3d 2d 87 2f 3c de d1 8d 3d 54 8e 9f bd
       0.0798835 0.010713381 0.069247946 -0.07790819
000090 bb f4 f7 bc 03 54 5f bd dd 43 02 bc 37 25 9b 3d
       -0.030268064 -0.05452348 -0.00795075 0.075754575
0000a0 ce 48 91 bd f4 65 c2 bc 59 ef ae 3d 44 b6 2b 3d
       -0.070939645 -0.023730256 0.08541746 0.04192187
0000b0 d4 c2 89 3d 25 59 1d bd da f3 a0 3d c7 d3 8f bc
       0.06726614 -0.038415093 0.07859011 -0.017557038
0000c0 c8 aa 04 bd b8 0c 76 bc ab 89 7c 3d 72 8f 95 bb
       -0.032389432 -0.015017681 0.061654728 -0.004564219
0000d0 dd 5d 4f bb 1c 73 cd bc 70 1e 0f 3d 34 59 83 bc
       -0.003164164 -0.025079302 0.034941137 -0.016033746
0000e0 ac ff 27 3d ab 66 6f bd cb f1 e6 bc a3 36 90 3d
       0.041015312 -0.05844752 -0.028191468 0.07041671
0000f0 ce cf 8e bd 2c c2 a7 bd a6 5f 41 bd d1 55 e9 3b
       -0.06973229 -0.08191332 -0.047210358 0.007120826
000100 a6 e0 20 bd 80 12 6b bb 8f 3f ad bd da e2 69 bd
       -0.03927674 -0.003586918 -0.084593885 -0.057101108
000110 02 ac 8e 3c 2b a3 43 3d 50 a4 df 3a e3 84 96 bd
       0.017416004 0.04776303 0.0017062519 -0.07349565
000120 db f1 7c 3d 52 68 78 bc 58 6d ac 3d ca c4 69 bc
       0.06175409 -0.015161591 0.08419293 -0.01426811
000130 9a 53 40 3d 91 a6 68 bd f5 43 14 3d 14 43 e9 bc
       0.04695473 -0.056799475 0.03619762 -0.028474368
000140 4e dd 41 3c ff 2a 14 bd c9 dd 42 bd af 85 51 3d
       0.011832548 -0.036173817 -0.047574792 0.05115288
000150 14 f0 23 bd 16 be 3a 3d bb 16 2a bd b5 f0 2a bd
       -0.04002388 0.045591436 -0.041525584 -0.041733462
000160 4a 8f 5b bd e3 7e 71 3d a3 a1 3e 3c a2 a7 1b bd
       -0.053603448 0.0589589 0.011635217 -0.038001664
000170 bf 67 4a 3d 20 c2 8f 3c 6c 95 ac bc 06 0f 98 3c
       0.049415346 0.01754862 -0.021067344 0.018561851
000180 6d 73 a6 bc 13 4e da 3c 44 d8 c1 bc d7 47 06 bd
       -0.020318711 0.026648557 -0.023662694 -0.032783356
000190 1c cb 0e 3d 53 e6 64 bd a8 bf 99 3d 69 4b 60 3d
       0.03486167 -0.055883717 0.07507259 0.054759417
0001a0 5b 9b 04 bc c7 db 94 bd b5 6c 0d bd 9c f6 8b bd
       -0.00809368 -0.07268482 -0.0345275 -0.068341464
0001b0 ff 5f 83 3d 42 b2 65 bd 7b 73 13 bd 81 73 39 bc
       0.06414794 -0.056078203 -0.035998803 -0.011319042
0001c0 88 10 a7 bd c5 0a ee bc a6 33 27 3d 7e f2 ac 3d
       -0.0815745 -0.02905787 0.04082074 0.08444689
0001d0 6e 14 84 39 9f 01 83 3d e2 4b 74 bd 39 07 1a bd
       0.00025192223 0.063967936 -0.05964268 -0.037604544
0001e0 39 ee 27 bd af a5 0b bd 94 c4 2a bd bd 90 3f 3d
       -0.04099867 -0.034093555 -0.041691378 0.046768893
0001f0 a6 29 3a 3d bd c1 b1 bd 16 c1 06 3b 4b 00 b5 bd
       0.045449875 -0.08679531 0.0020561866 -0.088379465
000200 7c 11 3c bd cd 32 63 3c 76 7d 6d bd 36 fa 3e bd
       -0.045915112 0.013867092 -0.057980977 -0.04662534
000210 8a 99 9d bd 3e e9 23 3d 9c a4 3a bd c2 47 d9 3c
       -0.07695301 0.04001736 -0.04556714 0.026523475
000220 08 04 09 3d 4a 37 50 bd 82 0c 33 3d 43 c9 97 3c
       0.03345111 -0.050833978 0.0437131 0.018528586
000230 0d 1c 97 bd f7 93 19 3d 4f 67 d6 3c 14 4f 08 bd
       -0.07378397 0.037494626 0.026172308 -0.03327854
000240 dd 3b 41 bc 90 ae 34 3d b4 c1 70 3d 85 ce 5f bc
       -0.011794058 0.04411179 0.05877848 -0.013660078
000250 ad 6c 84 bd c6 97 9e bc 65 38 45 bd 04 e2 49 bd
       -0.06466041 -0.01935948 -0.048149485 -0.04928781
000260 32 1b 88 bd 09 00 04 bd f2 4a ed bc 5b 56 3b 3d
       -0.06645812 -0.032226596 -0.0289664 0.045736652
000270 9a 30 72 bd 3c 88 9f bd f7 13 d0 3c 6a 7e ad bd
       -0.05912838 -0.077896565 0.025400145 -0.08471377
000280 09 05 3c 3d a2 27 83 3d fa cd b7 3b b6 50 3b bc
       0.04590324 0.06404044 0.005609271 -0.011432817
000290 46 cd d8 bc 0c 6e 32 bd 43 f6 a2 3d ea fe 4c 3d
       -0.02646507 -0.04356198 0.07957127 0.050047792
0002a0 e1 8f 71 bd 3a c6 af 3d 90 46 fb 3c 86 6d a4 3d
       -0.058975104 0.085827306 0.030673295 0.080287024
0002b0 d8 b5 68 3d 30 19 e4 bc b9 76 01 bd 9a 90 a0 bd
       0.056814045 -0.027844042 -0.031607363 -0.078400806
0002c0 32 54 4d 3a 4a 9b a9 bd b7 3c 71 3d d1 d9 8a 3c
       0.00078326755 -0.08281572 0.058895793 0.016949566
0002d0 c9 2d b5 3b fd cf af 3d c5 fc a2 3d fd f7 ed bc
       0.0055291397 0.085845925 0.07958368 -0.029048914
0002e0 79 14 d0 ba 68 84 93 bd e2 c9 84 3d 27 fe fa 3c
       -0.0015875242 -0.07202989 0.064838186 0.030638767
0002f0 cb b1 28 bc 94 f4 2b bb 9e 0b 64 bb fe 51 8f 3d
       -0.010296295 -0.002623831 -0.0034796963 0.06998061
000300 c8 01 30 3d d3 6d 13 bc eb 53 30 3d 1f 21 9d 3d
       0.04297045 -0.008998352 0.04304878 0.07672333
000310 b0 ea 92 bd 83 dc cd bc c5 f3 a3 bd 31 51 23 bd
       -0.07173669 -0.025129562 -0.0800548 -0.039872352
000320 19 cd 15 bc a6 79 47 3d e0 e0 6d bd f0 53 61 bd
       -0.009143137 0.048699997 -0.058075786 -0.05501169
000330 49 fb f9 3c f5 50 8b bd 20 d0 71 bd b4 ee 5d bd
       0.03051533 -0.06802551 -0.059036374 -0.054182723
000340 4e dd 3b 3d bc 4e 96 3d 05 d8 42 bc fa 95 b3 3d
       0.04586535 0.07339236 -0.011892323 0.0876884
000350 4f 6a 09 3d 0a 52 58 bc aa cf 8c bc ae fa 31 bd
       0.03354865 -0.013203153 -0.017188866 -0.043451957
000360 db 0d 4a bd 22 f4 6d 3d 41 c7 0a 3d 62 d0 bc bc
       -0.04932962 0.05809415 0.03388143 -0.023048583
000370 a1 df b8 bb 53 96 85 bd d1 cb e9 bb ad df 95 bd
       -0.005641893 -0.06522813 -0.0071348925 -0.073180534
000380 a3 eb a5 bd 54 32 65 3d e0 3c 44 bd 89 19 99 bc
       -0.08101585 0.0559562 -0.047909617 -0.018688934
000390 e6 c6 9c 3d 13 3d af 3d 45 fb 9f ba 9d 1c 29 ba
       0.07655124 0.08556571 -0.0012205621 -0.0006451102
0003a0 27 9e 9f bc a8 9a 24 bd 07 7a 75 3d 11 f7 07 bc
       -0.019484593 -0.040186554 0.059930827 -0.008298651
0003b0 44 98 f9 bc 07 85 88 3d b9 6c 62 3b 68 f6 85 bd
       -0.030468114 0.06665998 0.0034549667 -0.06541139
0003c0 a9 a4 49 3d e0 88 6f bc ee 18 23 3c c1 b0 af 3d
       0.049229298 -0.014620036 0.009954674 0.08578635
0003d0 ab cb c2 bc db 23 19 bc 57 5d a4 bc 61 d9 8b 3d
       -0.023778757 -0.0093469275 -0.02006404 0.06828571
0003e0 e2 17 25 bd 35 a5 2b 3b 47 44 8a bd 26 fc 9b 3d
       -0.04030598 0.0026191 -0.06751304 0.07616453
0003f0 a2 9b 58 3d 41 c5 87 bd 74 52 9e 3c b8 7e 47 3d
       0.052882798 -0.0662942 0.019326426 0.048704833

FC2.bias f4 [128]
000000 e2 6f 6f 3d 43 2f 97 bd 1c b0 a4 bd 9d 77 9b bd
       0.05845631 -0.07382061 -0.08041403 -0.07591174
000010 ed 72 46 3c 4d 15 2f 3d 59 68 da 38 e7 39 3a bd
       0.012112361 0.042744923 0.00010414486 -0.045465376
000020 e3 5b cd bc 82 d2 a8 bd 3f 1c ab 3d c3 29 57 bd
       -0.025068229 -0.08243276 0.08354997 -0.05253006
000030 eb 69 29 3d 5e 37 32 3d a4 5a 59 3d 4c ec 26 3d
       0.041360777 0.043509834 0.053064957 0.040752694
000040 cd d4 25 bd 69 61 c0 bc 65 2b 12 bd e8 c0 42 3d
       -0.040486146 -0.023483949 -0.035685915 0.04754725
000050 7b 49 b0 bd d8 15 d4 bc 2f 9e ab bd 76 fb f5 3c
       -0.08607765 -0.025889322 -0.083797805 0.030027132
000060 56 44 1e 3c 2d 28 ac 3d 1c b2 a9 3d bc b2 84 3c
       0.009659847 0.084061004 0.08285925 0.016198508
000070 cd cb 5b 3c f5 ce 38 bd ce c5 e9 bb f0 38 25 bd
       0.013415289 -0.045119245 -0.007134176 -0.040337503
000080 9d 7d 81 bd 0d fc 8e 3d a5 f2 01 3d 06 0b b2 3d
       -0.06322787 0.069816686 0.031725544 0.08693509
000090 dc 31 29 3d 81 53 ad 3d 0b 2a b4 bd 46 4e 62 3c
       0.041307315 0.08463193 -0.087970816 0.013812607
0000a0 05 bc a3 3d b8 f2 5a bc 51 e3 0a 3d c9 f6 9b bc
       0.07994846 -0.013363533 0.033908192 -0.019038575
0000b0 c1 17 26 bd a9 4b ce bc bb 73 d5 bc 9d 61 f6 bc
       -0.040549997 -0.025182562 -0.026056161 -0.030075843
0000c0 0b 2d 8e bd 14 d6 81 3d 5b 72 97 bd 7c 24 8f 3b
       -0.06942185 0.0633966 -0.073948584 0.004368363
0000d0 7f 83 d7 3c 5d 47 bb 3c 70 d8 12 3d 19 68 1e 3d
       0.02630782 0.022861177 0.035850942 0.038673494
0000e0 30 de 65 bd e7 0b fa ba 7c 5e 16 3d 9b 47 8f bd
       -0.056120098 -0.0019077034 0.0367112 -0.069960795
0000f0 53 70 8f 3d 83 ce fa bc 2a a3 89 bd 85 bb 86 3b
       0.07003846 -0.03061605 -0.06720574 0.0041117095
000100 65 a2 b4 3d 4d 11 7f 3d 51 d9 91 bc aa a4 94 bd
       0.08820037 0.06227236 -0.01780382 -0.0725797
000110 c6 5d 49 bd 09 67 9c 3c 82 a5 8a 3d f9 6a a3 bd
       -0.049161695 0.0190921 0.06769849 -0.07979388
000120 c6 9b 46 3d 42 6b 20 3c 69 ea b0 bd d4 68 a0 bc
       0.0484884 0.009791197 -0.0863846 -0.019581236
000130 c1 b2 a7 3d c9 9e 51 3d 92 e5 8a 3b 59 5b 5f bc
       0.081883915 0.05117682 0.0042387927 -0.013632619
000140 a4 8d 81 bd 25 6a 0f 3d 00 15 77 bc 6e 97 e8 3c
       -0.06325844 0.035013337 -0.01508069 0.02839252
000150 e3 03 87 bc cc 44 59 bc 08 07 af bd 88 e2 52 3d
       -0.016481346 -0.013261031 -0.08546263 0.05148557
000160 74 5d 86 bd 8e 47 23 3d 22 60 89 3b b5 3b 8b bc
       -0.065607935 0.03986316 0.004192368 -0.016996244
000170 fa ca 21 bd ce 10 cc bc d9 9f 18 3c 4d e9 61 bd
       -0.039500214 -0.024910357 0.009315454 -0.055154134
000180 01 0a 4b bc cd 68 29 bc dc 86 0d bd 82 f6 e0 3c
       -0.012392522 -0.010339928 -0.03455244 0.027461294
000190 07 30 6c 3d e3 43 56 3d c1 38 03 bd 5a e8 b4 3d
       0.05766299 0.052310836 -0.032036547 0.0883338
0001a0 d9 5e 77 3d 57 b0 8b 3d 7b 36 aa bb 39 6c 80 39
       0.06039319 0.068207435 -0.005194483 0.00024494695
0001b0 db e3 0d 3c ea 60 18 3c 84 df 06 3d 59 c8 a5 bc
       0.008660282 0.00930045 0.032928005 -0.020237135
0001c0 15 99 d8 bc a1 b6 53 3d a8 ff 75 3d 8b d1 7b 3d
       -0.026440183 0.05168784 0.060058266 0.061479133
0001d0 30 fb 05 bc bc e6 2b bd 69 09 3a 3b f7 9f 36 bd
       -0.008177564 -0.041968092 0.0028386957 -0.044586148
0001e0 2f 09 2a bd 9f ea 32 bc f0 59 a8 bc 4f 03 32 3d
       -0.041512664 -0.010920196 -0.020550698 0.043460187
0001f0 48 14 66 3d 95 b7 86 bd 59 fa 72 3d ab f9 54 bd
       0.056171685 -0.06577984 0.05932078 -0.051995914

FC3.weight f4 [128, 256]
000000 7e 98 0b bd e0 35 ec bc ac fe 0a bd 6c eb d1 3c
       -0.034080975 -0.028834283 -0.03393428 0.025624953
000010 a0 f9 cf bb a8 15 b6 3c 28 b4 71 3d 10 97 6f 3c
       -0.0063468963 0.022227123 0.0590097 0.014623418
000020 c2 bd 26 3d be 7c 6f 3d 52 3a 20 3d 58 57 bf 3c
       0.04070831 0.058468573 0.03911812 0.023357078
000030 40 5e c3 ba ca 29 52 3d c0 42 a7 bb 96 90 25 3d
       -0.0014905408 0.051309384 -0.0051043928 0.04042109
000040 a8 bf 75 3d d8 97 bd bc 34 1d 80 3c f6 e1 08 3d
       0.05999723 -0.023143694 0.015638925 0.03341862
000050 b0 1e 51 3d 70 9a 76 3d ec 9d f1 3c fc 1e e6 bc
       0.051054657 0.060205877 0.029494248 -0.028090946
000060 ac d4 52 bd fe a4 0d bd c2 c9 5a bd 40 c0 28 3c
       -0.05147235 -0.034581177 -0.053415067 0.010299742
000070 64 27 9d bc 6c 59 23 bd b2 e6 35 3d 08 37 35 3d
       -0.019183822 -0.0398802 0.04440946 0.044241935
000080 44 83 b8 bc b0 ed 68 bd 00 2d 27 3b c8 1b dc bc
       -0.02252353 -0.0568673 0.0025509 -0.026868716
000090 fc 76 66 3d 24 bc 4e bd 9a 0e 34 bd 50 d7 1c 3c
       0.056265816 -0.050472394 -0.043959238 0.009572819
0000a0 c4 1a f6 bc 8a 1a 1d bd 2c 0c 33 3d c0 36 29 bb
       -0.03004206 -0.038355388 0.04371278 -0.0025819987
0000b0 f8 70 ea bc b4 93 8c 3c 56 dd 5c bd c6 87 17 bd
       -0.02861832 0.017160274 -0.05392202 -0.036994718
0000c0 58 90 d2 bc 40 31 41 3c 4c 2a b2 bc 50 5e 99 3b
       -0.025703594 0.011791527 -0.021748684 0.0046804324
0000d0 24 9c 07 bd 00 08 ce b9 ec 3b 6f bd 2e d5 1a bd
       -0.03310789 -0.00039297342 -0.058406755 -0.03780096
0000e0 ae 36 46 3d 00 9e 45 39 20 ee f4 bb 76 a5 56 bd
       0.04839199 0.00018846244 -0.007474676 -0.05240389
0000f0 fa d2 54 3d 02 44 47 3d 34 51 cb bc ac 15 09 bd
       0.051959015 0.04864884 -0.024818994 -0.033467934
000100 22 1a 03 3d 38 db 74 3c c0 e6 68 3b 40 ae 6f bd
       0.032007344 0.014944844 0.0035537928 -0.058515787
000110 8a 5c 01 bd c0 2f 1d 3b b2 6a 1c 3d 84 4e 80 bc
       -0.031582393 0.002398476 0.03818769 -0.01566244
000120 c4 98 01 3d f4 65 8b 3c 20 51 6c 3d 4e 1e 49 bd
       0.03163983 0.017016388 0.057694554 -0.049101166
000130 90 1b b5 bb 00 e3 53 bc 0c 9b f2 3c e4 a8 41 3d
       -0.0055269673 -0.012932539 0.029614948 0.047280207
000140 d8 67 bb bc 36 2e 5c 3d de cf 75 bd ec e3 f5 3c
       -0.022876665 0.053755008 -0.06001269 0.030015908
000150 94 ef 69 bd 96 a5 6b bd f8 59 dd bc 12 00 5b bd
       -0.057113245 -0.057530962 -0.02702044 -0.053466864
000160 46 35 45 3d 30 b3 91 3c 80 50 9b 3b 28 8e e0 3c
       0.04814651 0.017785639 0.004739821 0.027411535
000170 3e e6 69 3d a4 f2 b6 bc c6 17 21 bd d8 8d 03 bc
       0.05710434 -0.022332497 -0.039329313 -0.008029424
000180 60 b4 39 3d 5a e6 6f bd 18 c6 3d 3d d0 05 25 3d
       0.045338035 -0.05856929 0.046331495 0.040288746
000190 10 43 82 3c e6 ac 5d 3d f0 64 9b bc 28 92 22 bc
       0.015901119 0.054119967 -0.01896903 -0.009922542
0001a0 c0 44 5e bd cc 6b 2b 3d 40 71 66 bc 88 eb 6f 3c
       -0.054264784 0.04185085 -0.014065087 0.014643557
0001b0 9e 52 07 bd 9c 5e f3 bc c2 73 41 3d a0 99 2b bd
       -0.033037774 -0.0297082 0.047229536 -0.041894555
0001c0 68 b8 9f 3c 5c 9f 74 bd 14 68 89 3c ca 84 27 3d
       0.019497111 -0.05972229 0.016773261 0.040898122
0001d0 dc 52 3b 3d 00 6e 68 ba 90 66 5f bd 1c 15 76 3d
       0.045733318 -0.0008866489 -0.05454117 0.060078725
0001e0 8e 77 78 bd 90 4c 0c bd 80 2b d1 bc 50 f5 59 3c
       -0.06066089 -0.034252703 -0.025533438 0.013303116
0001f0 28 46 74 bd 18 fc 4a bd 10 54 57 3c 90 b7 7b 3c
       -0.05963722 -0.04955682 0.013142601 0.015363589
000200 08 8c 0c 3c 3c dc f7 bc 52 30 06 bd 5c 80 5a bd
       0.008578308 -0.030256383 -0.032760926 -0.05334507
000210 a0 8b 3a 3d 18 98 55 3d 0a 58 1e 3d a6 ce 68 3d
       0.045543313 0.052147 0.03865818 0.0568377
000220 2c 03 6f 3d 08 42 56 3d f4 1c 2c 3d b2 b9 49 bd
       0.058352634 0.052309066 0.0420198 -0.04924936
000230 64 c2 4e 3d 14 c3 82 3c 54 c8 c5 3c 98 2b 3f bc
       0.050478354 0.015962161 0.024143375 -0.011668108
000240 00 52 cf ba 5c 6b 17 bd 7c 1a 15 bd e8 96 7c 3c
       -0.0015817285 -0.03696762 -0.03640221 0.015416838
000250 24 cb 05 3d 3c 0e 1f 3d a8 55 65 bd 48 9b 49 3d
       0.032664433 0.038831934 -0.05598989 0.049220353
000260 12 7e 5c bd ce b1 58 3d c4 a1 20 3d a0 d9 f9 bb
       -0.053831168 0.052903943 0.03921677 -0.00762482
000270 56 01 41 bd c4 95 c8 3c e0 86 8f 3b 80 3f f5 ba
       -0.047120415 0.024485476 0.004380092 -0.0018710941
000280 88 b4 a9 bc b4 79 25 bd 90 cc 51 3c 90 81 84 3b
       -0.020715967 -0.04039927 0.012805119 0.0040437654
000290 e0 1a 41 bc a0 4d 01 3b 92 03 18 bd ce 71 57 3d
       -0.011786193 0.0019730106 -0.03711278 0.052598767
0002a0 9c 8d 81 3c e0 0e aa bc fc 78 38 3d d4 29 5c 3d
       0.015814595 -0.020759046 0.045037255 0.053750828
0002b0 36 3d 3a 3d d4 a3 59 bd 30 4d 57 3d c8 35 41 3c
       0.04546853 -0.053134754 0.052563846 0.011792608
0002c0 00 ad 02 3b be 10 6c 3d bc 75 5c 3d fc 97 9d bc
       0.0019939542 0.057633154 0.053823218 -0.01923751
0002d0 12 78 65 3d cc 73 bc bc 2e fe 34 3d d8 f3 4b bd
       0.05602271 -0.023004435 0.044187717 -0.049793094
0002e0 26 b8 77 3d 08 f2 6a 3c 7a 25 24 3d 74 fe 70 bd
       0.060478352 0.014339931 0.040074803 -0.058836415
0002f0 68 22 07 bd 3a 07 70 3d 2e 83 44 3d c0 7b 4d 3c
       -0.032991797 0.05860064 0.047976665 0.012541711
000300 4a 2a 41 3d b0 85 5b bc 00 9c d2 38 6c 08 0f 3d
       0.04715947 -0.013398573 0.000100426376 0.03492014
000310 3e 07 4c 3d 08 f4 fd 3c 60 1f 3e 3c 80 38 ca 3b
       0.049811594 0.031000152 0.01160416 0.006171286
000320 a0 ea 06 bb 70 c8 0a bd ee ce 34 3d 00 71 51 bb
       -0.0020586625 -0.03388256 0.044142656 -0.0031958222
000330 00 fd 32 bb c8 8a 3f 3d 00 12 0d bd 38 aa 6f bc
       -0.0027311444 0.04676321 -0.034440994 -0.014627986
000340 30 b1 3f bc a4 bc 2b 3d 18 9b c3 bc a8 8b fe 3c
       -0.01169996 0.04192795 -0.023877665 0.031072453
000350 58 3a 8b bc 44 69 ae 3c b8 be 40 3c d0 30 54 bc
       -0.016995594 0.021290429 0.011764221 -0.012951091
000360 c0 e6 ba 3c 94 35 23 3d d0 70 88 3b 00 77 76 bd
       0.022815108 0.039846018 0.004163839 -0.06017208
000370 b0 26 88 3c 7a 07 7b bd 80 2b 6f 3a 7c e5 e8 3c
       0.01662001 -0.061286427 0.00091236085 0.02842974
000380 60 ba 9d 3c 30 33 fc 3c f8 95 68 3d 4c 36 44 3d
       0.01925391 0.030786127 0.056783646 0.047903344
000390 4a ad 47 3d bc 57 67 3d 90 b3 df 3b 2a ed 11 3d
       0.048749246 0.056480154 0.0068268254 0.035626568
0003a0 bc 4e a2 bc 90 6a 6d 3c b8 60 3d 3c c6 3d 2f 3d
       -0.019812934 0.0144907385 0.011558704 0.04278352
0003b0 ec e4 e5 bc d4 e7 5a 3d c8 67 3c 3c d8 28 de bc
       -0.02806326 0.053443745 0.011499353 -0.027119085
0003c0 8e e4 4c bd d4 25 76 bd b0 73 73 bc 4c e9 8f 3c
       -0.050022654 -0.06009467 -0.014859125 0.0175673
0003d0 38 35 78 bc 50 37 09 bd 56 89 3c 3d 1e df 14 3d
       -0.015149407 -0.033500016 0.04602941 0.036345594
0003e0 20 62 bb 3c 74 42 5a 3d 34 50 80 bc c4 c7 ad bc
       0.022873938 0.05328603 -0.015663244 -0.02121342
0003f0 bc 2f 2c bd 54 d3 6d 3d 8c f4 40 bd d8 6d dd 3c
       -0.04203771 0.058062866 -0.047108218 0.027029917

FC3.bias f4 [128]
000000 00 eb 67 3d 74 d5 56 3d 30 81 19 bd 00 49 e0 3c
       0.056620598 0.05244966 -0.03747672 0.02737856
000010 00 43 b0 39 90 92 95 3b 4a d2 58 3d 58 37 4b bd
       0.00033619255 0.0045645908 0.052934922 -0.049613327
000020 16 30 0d bd 08 65 c8 bc 28 0a 62 bc 34 b4 c4 bc
       -0.034469686 -0.024462238 -0.013796367 -0.024011709
000030 f8 85 a4 3c c0 4d 14 bb c4 ed 89 bc b8 32 ca 3c
       0.020083413 -0.002262935 -0.016837008 0.024682388
000040 fc ad b0 bc 00 50 52 3d 9c 3a 07 bd c0 a5 e7 bb
       -0.021567337 0.051345825 -0.03301488 -0.0070693195
000050 94 de a1 bc 12 02 4e bd 3c 58 f1 3c f8 0c 91 bc
       -0.019759454 -0.050294943 0.029461019 -0.01770638
000060 6c 56 fd bc 64 fd 7b 3d 28 4e 38 bc 80 e2 55 ba
       -0.030924998 0.06152095 -0.011249103 -0.00081590563
000070 a8 56 46 bc 50 fa 48 3c 10 a7 e0 bb d4 27 0e 3d
       -0.012105621 0.01226671 -0.006855853 0.03470595
000080 42 7a 7f bd 28 f1 43 bc 6a 2a 24 3d 74 5e 58 3d
       -0.062372454 -0.011959352 0.04007951 0.052824453
000090 18 37 21 3c 3e ef 79 3d f6 83 2a bd c4 26 76 3d
       0.0098397955 0.061019175 -0.041629754 0.060095564
0000a0 1a 9e 0e bd 80 bd 61 3a d8 55 2a 3c 70 21 95 bb
       -0.034818746 0.00086113065 0.010396443 -0.004551105
0000b0 40 88 f4 3b f8 2e 79 bc 8c 07 2c bd 50 b0 f9 bc
       0.0074625313 -0.015208952 -0.041999385 -0.03047958
0000c0 10 3c 05 3d f8 79 2f bd b8 a0 6c 3c 86 bf 03 3d
       0.032527983 -0.042840928 0.014442615 0.032165073
0000d0 b8 0c a6 3c 68 bd 3b 3c 88 48 00 3d c8 a0 9f bc
       0.020269737 0.011458732 0.03131917 -0.019485846
0000e0 a0 9b 9f bb 48 71 46 bc 10 0a 49 3d 80 f0 53 bb
       -0.004870847 -0.012111969 0.049081862 -0.0032339394
0000f0 92 b1 1a 3d 74 39 92 3c 12 f7 63 3d b0 e4 0d bc
       0.037767 0.017849661 0.055655546 -0.00866048
000100 84 3e 76 3d 08 bc 68 bd 6e 92 04 3d a6 97 38 bd
       0.060118213 -0.056819946 0.03236621 -0.0450665
000110 8c b4 21 bd 6a 04 65 bd 78 90 b1 3c a0 45 60 3d
       -0.039478824 -0.055912413 0.021675333 0.0547539
000120 40 07 15 3d 20 33 ee bc 2c 78 10 3d d6 50 25 bd
       0.036383867 -0.029077113 0.035270855 -0.040360294
000130 50 b9 2d bc 28 51 da 3c 00 25 aa bc 92 5e 1b 3d
       -0.010603264 0.026650026 -0.020769596 0.037931986
000140 70 95 d9 bb 12 f5 34 bd b0 cd a8 3c 6e 3e 1a 3d
       -0.006640129 -0.04417903 0.020605892 0.037657194
000150 fc 20 67 3d 14 2e 37 3d 76 3a 26 3d 8c 47 0c bd
       0.05642794 0.044721678 0.040583096 -0.03424792
000160 6e c2 46 3d a8 28 ae 3c a0 4d a9 3b 40 0d 70 3c
       0.048525266 0.02125962 0.0051667243 0.014651597
000170 6a 53 2a 3d f0 95 ef bb 38 d5 56 bc a4 9a fa 3c
       0.041583456 -0.007311575 -0.013112359 0.030591317
000180 ae 80 55 bd 88 ac 29 bd ca 71 1d 3d ec b5 a3 bc
       -0.05212467 -0.041424304 0.038438596 -0.019984208
000190 20 c1 52 3c d0 94 a9 bc c8 dc 68 3c 72 7c 23 3d
       0.012863427 -0.020700842 0.014212795 0.039913602
0001a0 36 26 72 bd 50 68 4b 3c 98 e5 ef 3c 20 30 a7 3c
       -0.059118472 0.012415007 0.029284284 0.02040869
0001b0 54 93 c9 bc f0 8a d7 3b 36 e1 47 bd 32 dd 47 bd
       -0.024606384 0.006577842 -0.048798762 -0.048794933
0001c0 e0 93 ac bb dc 1f 12 bd 88 2d 6c bc 74 7a 20 3d
       -0.0052666515 -0.035674915 -0.014415152 0.03917928
0001d0 04 f1 a8 bc 92 ea 1b bd 0c 39 7c 3d 34 1d f0 bc
       -0.020622738 -0.0380655 0.06157784 -0.0293108
0001e0 90 39 85 bc 1c cf a3 3c 50 22 a6 3b ea ad 6c 3d
       -0.0162628 0.019996218 0.0050700083 0.057783045
0001f0 44 b3 4f 3d 72 c6 7d bd e4 9f 77 bd c4 a1 53 3d
       0.05070807 -0.06195683 -0.060455218 0.051667944

FC4.weight f4 [128, 512]
000000 64 4f 57 3c 61 6f 89 3b 13 ab 0a bd c4 5d e4 3c
       0.013141487 0.0041941856 -0.033854555 0.027876742
000010 e2 84 1a bd 69 da 86 3c 06 91 f8 bb 03 59 08 3d
       -0.037724383 0.016461568 -0.0075856475 0.033288013
000020 9b d5 8c bb 4a 9b bf b9 a1 ee 29 3d 80 73 0b bd
       -0.0042979247 -0.00036546058 0.04148734 -0.034045696
000030 76 e1 5e bc 03 c3 6f 3c 37 f4 35 bb a9 73 38 bc
       -0.013603559 0.014633897 -0.0027763972 -0.011258044
000040 a5 29 32 bd ea 32 28 bd c7 0e 10 3d 82 c4 2f 3d
       -0.043496747 -0.04106418 0.035170343 0.042912014
000050 17 d8 02 3d a3 69 80 bc 3a 4b 12 3d 3c b7 38 3c
       0.03194436 -0.015675372 0.035716273 0.011274155
000060 3d 5c 8e bb e5 4d 24 3c ad d9 13 3d 0b cd c9 bb
       -0.0043444918 0.010028337 0.036096264 -0.006158476
000070 bd 1b e0 bc ef 38 72 bc d8 2d 0a 3d 42 77 0f bd
       -0.027356977 -0.014784082 0.033735126 -0.035025842
000080 bb b1 2c ba eb 0b e6 3a 1a 60 97 3a d2 92 2b bd
       -0.0006587763 0.0017551159 0.0011549026 -0.041888066
000090 3d 15 49 3c 7c 2d d1 bc d5 82 2c 3d f2 aa 45 3c
       0.01227313 -0.025534384 0.04211696 0.012064682
0000a0 29 16 10 bd 0b 2c da bc 58 50 8b b9 d2 5c b7 3c
       -0.035177384 -0.02663233 -0.00026572007 0.022383127
0000b0 be 83 df bc a7 62 89 bb f0 8a 04 3d 1e 8e b7 3b
       -0.0272845 -0.0041926685 0.032359064 0.0056016585
0000c0 e9 cf 17 3d 15 c7 af 3c 7f ed ea bc 0a 10 be 3c
       0.037063513 0.021457234 -0.0286777 0.023201007
0000d0 da f4 d6 3c 0a db ae bc e4 6a 51 bc 62 e5 1d 3d
       0.026239801 -0.02134468 -0.012781832 0.038548835
0000e0 ef e1 a6 bb 50 d9 61 3c 1b 0a 90 bc cb 95 c0 3c
       -0.0050928514 0.0137847215 -0.017582944 0.023508927
0000f0 04 6e 4f bc 1d fb 82 bc 7d e9 93 bc 78 a6 c8 3c
       -0.012660507 -0.01598888 -0.018055672 0.024493441
000100 df 6b 9d bc 69 45 21 3d b8 28 0b bd bb ab 1d 3c
       -0.019216476 0.039372835 -0.03397438 0.009623463
000110 54 6a 25 3d 97 82 64 3c 3b fc a1 3c 0a 11 00 bd
       0.040384606 0.013947151 0.019773593 -0.03126625
000120 07 33 07 bd c5 74 af bc 20 f9 93 3c 6b 4c 23 bc
       -0.033007648 -0.021417985 0.018063128 -0.00996695
000130 44 fa 88 bb 76 95 1a 3d 99 58 6e 3b 58 20 08 bd
       -0.0041802246 0.037740193 0.0036368726 -0.03323397
000140 e4 a7 68 bc 92 8d 88 bc 66 49 b2 bc 59 cb 1a bc
       -0.0142001845 -0.016669068 -0.021763515 -0.009447896
000150 67 91 bf 3c 61 0c 30 bd 26 bb 7f bc 85 36 8a bc
       0.023384763 -0.042980555 -0.0156085845 -0.0168717
000160 08 a5 f0 bc 5b 32 85 3c 20 2d 05 bd be 79 b1 bc
       -0.029375568 0.016259363 -0.032513738 -0.021664497
000170 d9 84 0c 3d 58 14 2b bd 49 6f 31 3d 9a 3c 15 bd
       0.03430638 -0.04176745 0.04331902 -0.036434747
000180 2e b2 1e bd 2e c3 e2 bc c1 4d 0a bd 6b 43 a8 3c
       -0.038744144 -0.02768096 -0.03376556 0.02053996
000190 84 6e 2c 3d 7b ea 92 bb ae 87 b6 3c f9 41 d2 bc
       0.042097583 -0.0044835187 0.022281494 -0.025666224
0001a0 4b 31 8e 3c 55 12 11 bd a3 46 b2 3c ea d5 28 bd
       0.01735749 -0.035417873 0.021762198 -0.04121963
0001b0 e1 b3 ff bc 5d 67 e9 bc 9b a8 10 bd 23 49 d5 3c
       -0.031213703 -0.02849167 -0.035317045 0.02603585
0001c0 4a 69 31 bc b7 e3 d6 3b 74 23 98 3c b8 e2 28 bb
       -0.0108283255 0.0065579074 0.018571593 -0.00257699
0001d0 ed c9 e7 3a ec 70 96 3a a3 48 bf bc 97 b9 e6 3c
       0.001768408 0.0011477745 -0.023350066 0.028164668
0001e0 f1 93 a6 3c 6f 3c ea 3c 31 d1 f4 bc 05 88 b9 3c
       0.020334216 0.02859327 -0.029884906 0.022647867
0001f0 6a 6b 14 3d 36 e1 6c 3b 07 db dd bc e8 68 65 bc
       0.03623525 0.0036144978 -0.02708198 -0.014002062
000200 5c e1 26 bc bc 91 38 bc cb b2 15 bd 80 18 92 bc
       -0.010185566 -0.0112652145 -0.036547463 -0.017833948
000210 77 d8 23 bd f7 6a 0e 3d 8d 5b 95 bc 23 4d d7 bc
       -0.04000136 0.03476998 -0.018232131 -0.026281899
000220 51 d8 17 3d d3 5f 4c 3c 0e 2d 87 3c 0f 40 df 3c
       0.03707153 0.012474018 0.016500976 0.027252225
000230 f9 42 a9 bb 5e 84 38 3c 44 e6 03 bd fb 39 33 bd
       -0.0051654545 0.011262028 -0.03220202 -0.043756466
000240 91 d1 19 3d 31 43 08 3c 44 a4 98 3b 37 97 8a bb
       0.037553374 0.008316801 0.004658254 -0.004229452
000250 3e b0 10 3d 44 f2 21 3d ad 1b 19 3d 7e bf a0 3b
       0.035324328 0.039537683 0.03737991 0.00490564
000260 93 86 06 ba dd 70 97 3c bc a8 a6 3c 83 f1 f6 3b
       -0.00051317475 0.018486435 0.02034413 0.0075361147
000270 86 63 1e bd c3 e5 96 3c e3 bf c0 bc 38 66 af bc
       -0.03866913 0.018420106 -0.023528999 -0.021411046
000280 91 1c cf 3c 5b fc d5 3b c9 6a c8 bb 37 19 1a bd
       0.025282176 0.0065303273 -0.0061162454 -0.037621703
000290 7b 34 fa 3c 54 ad f4 bb bb 71 98 bc 28 36 8e bc
       0.030542603 -0.0074669514 -0.018608918 -0.017359808
0002a0 39 d5 81 3c c2 6e 0f 3d e7 02 2b bd dc b0 d8 3c
       0.015848743 0.035017736 -0.041750815 0.02645152
0002b0 01 bd e0 bc 73 21 d1 bc 01 a3 1c 3d 5a 0b 9b 3c
       -0.027433874 -0.025528645 0.03824139 0.018926311
0002c0 94 06 10 3b a4 9c b2 bc 77 db cd 3c 58 39 00 bd
       0.0021976577 -0.021803208 0.025129063 -0.031304687
0002d0 f4 84 c7 bc d4 8a 8c bc 18 73 65 3c d5 de b0 bb
       -0.02435539 -0.017156042 0.014004491 -0.0053976574
0002e0 b9 b8 08 3c b7 5a 38 bc 44 ad 01 3d 9e 61 09 bd
       0.008344823 -0.011252097 0.03165938 -0.03354036
0002f0 4f 05 a5 3c aa fd dd 3c 91 6f 68 3c 37 cc 24 bd
       0.020144133 0.027098496 0.014186756 -0.040233817
000300 6f 87 8b bc ba 96 d4 bc fb 99 55 3b e7 5d 91 bc
       -0.017032353 -0.025950778 0.0032593 -0.017744971
000310 b2 15 3a 3c d7 cb 58 bb d1 3e 21 3c 05 f0 2a bd
       0.011357712 -0.0033080482 0.009841637 -0.041732807
000320 0c 6b b3 bb 13 09 04 bd 00 e8 11 bd ef 04 34 bd
       -0.0054754075 -0.032235216 -0.035621643 -0.043950018
000330 ce de 34 bd 9b 5f 82 bc 6a 64 dc 3c e0 fb 2e 3d
       -0.044157796 -0.015914729 0.02690335 0.042720675
000340 71 e2 a2 bc ff 06 d8 3b f5 03 aa 3c 68 d8 a2 3c
       -0.019883366 0.006592631 0.02075384 0.019878581
000350 32 f8 2a bd f4 d1 1d bd a3 69 04 bd 42 61 fb bc
       -0.041740604 -0.038530305 -0.032327306 -0.030686025
000360 09 04 c3 3b fc d7 12 3d 09 71 ff 3c cd d9 5d bc
       0.0059514088 0.03585051 0.031181829 -0.013540697
000370 1f ae a9 3c b4 c4 64 bb 3e 68 19 3d 98 a2 0a 3d
       0.02071291 -0.0034907283 0.03745293 0.033846468
000380 f0 64 05 3d 25 3e 24 3d f7 ee ba 3c d9 17 34 bd
       0.032566965 0.04009833 0.022819025 -0.043968055
000390 b8 22 8a 3c b4 20 07 3c af de c6 3c d2 07 14 bd
       0.016862258 0.008247543 0.024276106 -0.03614027
0003a0 82 43 80 3c ab 2b 05 bd d2 99 ef 3c b7 0b e9 bc
       0.01565719 -0.03251235 0.029248152 -0.028447969
0003b0 ba 35 29 3d f5 8d 9d bc 1a 5f 36 bc ba f9 ff bc
       0.041311003 -0.01923273 -0.011131072 -0.031247009
0003c0 d1 ba d7 3c 55 97 8b bc d8 5c 09 bd 03 ad 2b bd
       0.026334198 -0.017039934 -0.03353581 -0.041913044
0003d0 e1 81 aa 3a 37 c8 c5 bc fb ff a9 bc 18 4d 14 bd
       0.0013008678 -0.024143321 -0.020751944 -0.036206335
0003e0 6e 52 ab 3b 59 22 33 bb ab 1f 29 3d 43 92 99 bc
       0.0052283322 -0.0027333705 0.041289967 -0.0187465
0003f0 4f 83 09 bd 35 86 4c 3c fe 9b 55 bc c8 a9 dd 3c
       -0.03357249 0.012483169 -0.01303768 0.027058497

FC4.bias f4 [128]
000000 88 e6 5c bc a9 db 2e 3c 81 45 1f 3d 45 88 c0 3c
       -0.013482697 0.010672488 0.038884643 0.023502478
000010 2f e6 2a bd fc 43 84 3a 88 a4 2e bd af 65 c5 bc
       -0.041723426 0.0010091062 -0.042637378 -0.024096338
000020 55 57 07 3d 7b e2 11 bd aa bc 33 3d 5d e8 3f b9
       0.03304227 -0.03561638 0.043881096 -0.00018301742
000030 91 94 6e 3c 7c fd 00 3d 6b 04 32 3d c8 fe 86 bc
       0.014561788 0.03149174 0.043461245 -0.016478911
000040 ba b7 0d bc 17 48 96 bb cc 19 5d 3c 59 e9 a8 ba
       -0.008649761 -0.0045862305 0.01349492 -0.0012886926
000050 c5 fb f9 3c ce fd f2 bc 14 9c 66 bb 2c e8 04 bd
       0.03051556 -0.02966204 -0.0035188245 -0.03244798
000060 41 74 84 3c fc 8f f0 bc 94 4c e9 bb 08 c7 28 3c
       0.016168715 -0.029365532 -0.0071197245 0.010301359
000070 d5 fe 55 bb 4b fc ee 3a c6 f7 b3 bc dd bf 47 3c
       -0.0032653112 0.0018233148 -0.021968734 0.01219174
000080 86 b5 85 bc cf f9 82 bb f6 1b 13 bd e1 ad 14 3b
       -0.016321909 -0.0039970647 -0.035915338 0.0022686648
000090 a5 6f 8d bc 09 0f ad 3c 63 bb 14 bd cf b2 24 3c
       -0.01726515 0.021125333 -0.03631152 0.010052397
0000a0 72 48 3b bc 42 6b db 3c 3c c5 f5 bc e4 e1 84 3b
       -0.0114308465 0.026784543 -0.030001275 0.0040552486
0000b0 40 e2 20 bd cd d6 25 3d 5e 9d 17 bd 84 a6 32 3d
       -0.03927827 0.040488053 -0.03701531 0.043615833
0000c0 0a c0 e0 3a 48 a5 79 3b b9 14 b6 3c e6 e3 72 bc
       0.0017147076 0.00380929 0.022226678 -0.014824843
0000d0 56 7b 95 bb 2e 60 84 3b d6 fd 13 3d 93 2d 1b bd
       -0.004561822 0.004039786 0.03613075 -0.03788526
0000e0 d6 cd 22 bd ea 62 7b bc f7 17 a4 3c 83 4b b4 3c
       -0.03974708 -0.015343407 0.020030959 0.022008663
0000f0 94 ef 25 bd 9e 10 32 bd 33 55 02 bd 2c 9c 8d bc
       -0.040511683 -0.04347288 -0.031819534 -0.017286383
000100 b4 ac 0c bc cb 3d ab 39 ba 44 c9 bc 75 f1 04 3d
       -0.0085860975 0.000326617 -0.024568904 0.032456834
000110 6e 6b 34 3d 99 a8 1c 3d 50 1f 15 3d 75 8e c2 bc
       0.044047765 0.038246725 0.036406815 -0.02374957
000120 62 2e 97 bb fb f9 ec bc 71 01 f7 3c b0 0d 55 3c
       -0.0046136836 -0.028927794 0.030152055 0.013003752
000130 70 80 ee bc a5 10 e0 3c f8 77 05 3d 93 84 dc 38
       -0.029113978 0.027351687 0.032585114 0.00010515111
000140 1b a5 7d 3c 42 3a 85 bc 25 7b 0a bd a7 a7 0f 3b
       0.015481259 -0.016263131 -0.033808846 0.0021919997
000150 80 97 eb bc 9c 7b ec bb 1b 60 f9 3c 56 5e 80 3c
       -0.028758764 -0.007216884 0.030441334 0.015669983
000160 11 53 ac bb 5b 9f 2a 3c 7e 81 9d bc 6e b4 3c bc
       -0.0052589257 0.01041397 -0.019226786 -0.011517627
000170 e2 7f 8e 3c d0 71 0d 3c 38 dc 31 3c 54 87 38 3b
       0.017394964 0.008633092 0.010855727 0.0028156834
000180 45 f9 03 bd 85 0c bd 3c 17 e8 e9 bc 42 a9 b2 ba
       -0.032220144 0.023077259 -0.028553052 -0.0013630765
000190 8c 89 0e 3d 83 46 26 bd d6 30 e9 bc 17 cd 3c 3c
       0.034799144 -0.04059459 -0.02846567 0.011523507
0001a0 bd c3 e7 bc 6e 38 e2 bc e5 35 2f bd 65 f4 c8 bc
       -0.028291577 -0.027614798 -0.042776007 -0.024530599
0001b0 69 ae ca bc 63 60 ad b9 ad ff ca bc 75 86 1c bc
       -0.024741368 -0.00033068945 -0.024780119 -0.009553541
0001c0 4e 8d c7 3c f6 08 aa 3b 0b f4 d2 3c 4b e7 67 bc
       0.024359372 0.0051890565 0.025751134 -0.014154266
0001d0 78 50 fa bc c1 cc 93 3c 74 57 08 3d 2d a5 13 3c
       -0.030555949 0.01804197 0.033286527 0.009011549
0001e0 1d 50 12 bd 29 e7 f8 3c e9 56 a8 3c d0 e8 2d bc
       -0.035720933 0.030383663 0.020549254 -0.010614589
0001f0 1b 70 d3 bc 9a 16 29 bc 5a df 88 3b 50 c3 01 3d
       -0.025810292 -0.01032033 0.004177016 0.031680405

linear.weight f4 [1, 512]
000000 58 76 eb bc 6e 75 cd b7 56 7f ce 3c 60 2b 22 bd
       -0.028742954 -2.4492587e-05 0.025207203 -0.039592147
000010 00 e6 e3 bc a1 7a 7e bc 22 a6 a9 bc a7 d9 03 bd
       -0.027819633 -0.015532167 -0.020709101 -0.03218999
000020 16 a1 20 3b 0f c5 1d bd 8e cc a6 3c 64 4b 10 3c
       0.0024510077 -0.038518008 0.020361211 0.008807037
000030 91 fb 08 3d c6 d2 20 3d 1b c0 09 bd 90 56 e6 bc
       0.033443037 0.03926351 -0.03363047 -0.028117448
000040 46 57 80 3b 44 51 2c 3d 72 a7 30 3d 81 25 27 3c
       0.003916654 0.04206969 0.04312844 0.010201813
000050 e9 0c ba bc 2d fa 2a bc 63 a2 3e bb 68 e2 ca b9
       -0.022711234 -0.010435623 -0.002908849 -0.00038697128
000060 d7 b5 0a 3d 1e f8 b5 bc 53 3f 1f 3d 4a 22 90 3c
       0.033864822 -0.022213038 0.03887875 0.017594475
000070 01 20 c4 3c 75 94 96 bb c8 42 da 3b 1e f7 49 bc
       0.023941042 -0.004595334 0.006660793 -0.012326984
000080 c9 d8 19 3a 55 04 67 bc 83 b1 9f bc 18 71 35 3c
       0.00058687903 -0.014100154 -0.019493824 0.011074327
000090 9f 7c e2 3c 49 9c 2e 3c ba 43 04 bd 15 35 a1 bc
       0.027647315 0.0106573785 -0.03229115 -0.019678632
0000a0 41 b1 c1 bc 2b 28 e6 bc ee f1 33 3c 72 5d be bc
       -0.023644092 -0.028095325 0.0109829735 -0.023237918
0000b0 10 86 f2 3c 93 e3 a9 3c da a3 12 bd fb 3e 86 3a
       0.029604942 0.020738399 -0.035800792 0.0010242158
0000c0 28 5d 8a 3c a5 2d 9d bc 46 23 2b ba d1 d1 49 3b
       0.016890123 -0.019186804 -0.00065283885 0.0030795226
0000d0 d4 e5 10 bc ca dc cf bb 44 d6 26 3c ec 98 22 bc
       -0.008843858 -0.006343459 0.010182921 -0.009924155
0000e0 26 c5 01 3d 32 76 df 3c 47 14 b4 bc 6b 38 06 bd
       0.031682156 0.02727804 -0.021982325 -0.032768648
0000f0 17 a1 19 3d 2c e7 e9 bc 0f 74 1b bb 6a 4d 08 bd
       0.037507143 -0.028552614 -0.00237203 -0.033276953
000100 1a 85 44 3c 7c d1 5a 3c 63 c3 10 bd b4 15 c1 bc
       0.0119946245 0.013355609 -0.035342585 -0.02356992
000110 01 f0 62 3c cd fc d7 3c f7 83 03 bd a9 15 e2 bb
       0.013851167 0.026365662 -0.032108273 -0.0068995547
000120 46 5c be 3c aa 2d cc 3c 8e 4c 1b bd 52 f8 f1 3a
       0.023237359 0.024924118 -0.037914805 0.0018460846
000130 0f 00 0d 3d 73 fa 0f 3c d9 b8 66 3c 8b 62 fe bc
       0.034423884 0.008787739 0.014082157 -0.031052848
000140 60 9d f4 ba 7d c7 b8 3c ab b6 18 bd 9b a2 2d bd
       -0.0018662624 0.02255606 -0.03728358 -0.0423914
000150 99 d6 11 bc d8 b1 0e 3a a9 31 c6 bc 41 2d f2 3c
       -0.008901262 0.0005443371 -0.024193602 0.029562594
000160 78 1a c2 bc 90 38 11 bd 12 ed 2e bb be f3 f4 bc
       -0.023694262 -0.035454333 -0.0026691598 -0.029901382
000170 30 1a 82 3c 85 47 ae 3b b7 7f 9d 3b ce 94 30 3c
       0.015881628 0.0053185844 0.0048064846 0.010777665
000180 cc 3f 95 bc 36 15 6c bc 5a 55 e9 bc 7a 9e ff bc
       -0.018218897 -0.014409354 -0.028483082 -0.031203497
000190 2d e1 e6 3c 68 b6 a1 bb a5 51 a9 3b ea da c6 3b
       0.028183544 -0.0049350746 0.0051672035 0.006068577
0001a0 ca df 12 3d 1b de 05 3d 41 a6 b8 3c c0 57 82 bb
       0.035857953 0.03268252 0.022540214 -0.003977746
0001b0 ea b9 b5 bc 74 78 24 3d ef ea 6c bb d7 a5 a8 3c
       -0.022183377 0.040153936 -0.0036150774 0.020586891
0001c0 20 d4 b6 bc b6 9d 1d 3d 87 e6 26 bd 56 2f fe 3c
       -0.022317946 0.038480483 -0.04074719 0.03102843
0001d0 52 4e e4 3c 4e 1b 19 3c ef a4 24 bd 0c 82 dc bc
       0.027869377 0.009344889 -0.040196355 -0.02691748
0001e0 c7 cb 04 3d d3 6f 17 bd f7 4d f7 3b af 47 e7 bc
       0.0324209 -0.03697188 0.007547136 -0.028232424
0001f0 5b 25 09 3c 8f 63 72 bc 76 45 0a bd 12 e3 e3 3c
       0.008370723 -0.014794244 -0.03375765 0.027818237
000200 36 1b dd 3c 26 ee 9c 3c 0e 1e d6 3c 94 88 75 3b
       0.026990514 0.019156527 0.026137378 0.003746544
000210 a5 f1 05 bd 3a 11 11 bc ec ff 9d bb 45 eb 27 3d
       -0.032701153 -0.008854205 -0.004821768 0.040995855
000220 3e 0a a2 3b 52 b6 46 3a 04 81 7a bb 28 df 9e 3c
       0.0049450686 0.00075802684 -0.0038223872 0.019393519
000230 2b 25 0c 3d 5b c8 15 3d 37 cc 60 bc 41 3d a8 bb
       0.034215134 0.036568027 -0.013720564 -0.005134255
000240 b3 03 48 3c fb ee e3 3c b8 63 0e 3d 2c 69 95 3c
       0.012207913 0.027823916 0.034763068 0.018238626
000250 f5 a6 fa 3c d8 7a a7 3b 23 24 3c 3c 25 83 8f 39
       0.03059719 0.0051110797 0.011483225 0.00027372796
000260 30 86 2e 3a a4 7e 2d bd f1 e1 87 3c 36 95 25 bd
       0.0006657569 -0.042357102 0.01658723 -0.0404255
000270 4f f3 c2 bc 3b 1d fd bc f9 61 e4 bc 1d d5 a9 3c
       -0.02379766 -0.030897727 -0.027878748 0.020731503
000280 b3 f0 ea bc 24 c8 d1 3b 24 cf fc bb 91 cb 94 bc
       -0.028679227 0.0064020324 -0.007715123 -0.018163474
000290 f0 d4 2f 3d 36 e9 f4 3c c8 49 d7 3c bd 24 cc 3c
       0.042927682 0.02989636 0.026280299 0.024919862
0002a0 67 7d 21 3d 85 65 c9 3c 7c 82 21 3d 6d 05 2c 3d
       0.039426234 0.024584541 0.03943108 0.041997362
0002b0 51 9c 10 3d 3d 58 c5 bc b3 a2 18 3d fe 44 1d 3d
       0.035305325 -0.024089927 0.037264537 0.038395874
0002c0 27 a7 e1 bc 46 55 a0 3c 39 bc a8 3b 15 4f be 3c
       -0.027545525 0.019571912 0.005149391 0.023231069
0002d0 88 8c 12 bd 2e d5 af bc 1f 91 a2 3a 1a 68 e3 3b
       -0.035778552 -0.021463957 0.0012402869 0.0069399
0002e0 18 f9 cb 3c 4d b2 07 bb 8a d2 be bc 19 02 32 3d
       0.02489905 -0.002070564 -0.023293752 0.04345903
0002f0 3e 8a 00 3d e5 fa 86 ba ed 87 19 3d 79 fa e3 39
       0.031381838 -0.0010298161 0.037483145 0.0004348343
000300 7e 0c 3c 3c a6 0c 2c bd ba d4 5f bc c3 36 b2 3c
       0.011477588 -0.04200425 -0.013661558 0.021754628
000310 4b 08 ba bc 55 bd 6b 3c 28 9d fc b7 58 1a 86 bc
       -0.022709033 0.014388402 -3.0113923e-05 -0.016369984
000320 fc c3 13 3d d5 dc 0e 3d cc dd 33 3d 09 7e 30 3d
       0.036075577 0.03487857 0.043912694 0.043088946
000330 5b 7e 2d 3d 79 03 e5 bc 7a 1b 11 3c e7 2b fd 3b
       0.04235683 -0.027955757 0.008856649 0.007726181
000340 42 9f 90 bc a4 db a9 bc 1a 69 83 3c c7 f7 8a 3b
       -0.017654065 -0.020734616 0.016041327 0.004240963
000350 61 04 23 bd ca 79 61 bc 2a 4d ac 3c 79 e3 21 3d
       -0.039799098 -0.013761947 0.021032888 0.039523575
000360 3d d0 5c 3b 49 1e bb bc 40 c4 2a 3d 9f 1b e3 bc
       0.0033693456 -0.02284159 0.041691065 -0.027723132
000370 fa 31 c5 bc 5d 2f c6 3c 6b 45 15 3c f0 c6 29 3d
       -0.024071682 0.024192506 0.009110789 0.041449487
000380 49 7a 24 bc 59 3f 03 bd ad 90 f3 bb a7 71 b6 bc
       -0.010038921 -0.032042835 -0.007433018 -0.02227099
000390 cd f2 9a bc fc fe 22 bd 00 8c 0f 3d ff c5 f9 3c
       -0.018914605 -0.039793953 0.035045624 0.03048992
0003a0 09 c1 5c 3b 5b a3 65 3c 64 38 35 bb 0a cc cf 3b
       0.0033684394 0.014015998 -0.002765202 0.006341462
0003b0 c7 ad 0d 3d a6 61 d4 3c ee ba 9e 3c 28 93 33 bd
       0.034589555 0.025925469 0.019376244 -0.04384151
0003c0 86 35 1b bc 23 e4 25 3d 51 f7 28 3d c2 02 e4 3c
       -0.00947321 0.04050077 0.041251484 0.027833346
0003d0 0d e0 92 bc 3b 0b 62 3b ff fe c2 bb 62 70 1c bd
       -0.017929101 0.0034491557 -0.005950808 -0.038193114
0003e0 f6 02 0e bd f5 2a 24 bd ea 5b 4c 3b 04 ed 28 3d
       -0.034670793 -0.04008003 0.0031182715 0.04124166
0003f0 d6 e7 1f bd 59 39 6f 3c a4 81 15 bd ed b5 5b bb
       -0.039039455 0.014601075 -0.036500588 -0.0033525184
