dl/poal_dl/modelpara/20230828_083239__epochsbackbone200_epochsmqnet100_lrbackbone0.1_lrmqnet0.001_mqnet.params (torch, 3489 bytes, 3 tensors)

W1 f4 [2, 64]
0.18247712 0.2589579 0.22046222 0.65346354 0.84055865 -0.00010448789 0.048573844 0.0033296146
0.28590393 0.7944875 0.089405365 0.24512672 0.29181084 0.24772671 0.4673852 0.6586579
0.073074654 0.033002976 0.8543005 0.15311223 0.20444043 0.9794719 0.8211568 0.3383418
0.24097863 0.98731995 0.43825555 -6.394457e-05 -2.8417035e-05 0.40482262 0.9173524 0.20653355
0.5733361 0.82556593 0.06577229 0.34670398 0.8556431 0.29169706 -8.58968e-06 0.79516286
0.30955958 0.85237396 -7.9865276e-05 0.9781577 0.79201823 0.03618866 0.42331782 0.01717838
0.9658568 0.7815464 0.49860254 0.3646272 0.7352545 0.411698 0.98971313 0.9093667
0.55627555 -4.600991e-07 0.6874998 0.009494169 0.21826014 0.44837093 0.21236026 0.31626043
0.7504842 0.93793195 0.038726773 0.3744293 0.151289 0.528209 0.23268564 0.4029616
0.7614685 0.122623645 0.2104198 0.9295044 0.5425952 0.7796879 0.9356913 0.65987813
0.619849 0.3010265 0.80656946 0.9727466 0.25034642 0.44063076 0.931891 0.48742688
0.68188304 0.4196029 0.14095299 0.3064044 0.892534 0.09002712 0.6860753 0.8149283
0.9487254 0.43426272 -8.474617e-05 0.12155933 0.12459796 0.22011432 0.6920728 0.42428473
0.05187654 0.48607332 0.07417378 0.25158185 0.89718497 0.64053744 0.48070088 0.6970501
0.50324625 0.14515568 0.39927778 0.15530176 0.6829402 0.28346142 0.9424848 0.89891446
0.8527729 0.37204346 0.19327307 0.915784 0.36787757 0.7680048 0.90149003 0.017511547
00000000: 48db 3a3e 2196 843e d9c0 613e 6349 273f
00000010: da2e 573f 8220 dbb8 5ef5 463d aa35 5a3b
00000020: 0062 923e 8863 4b3f 291a b73d 8002 7b3e
00000030: 3b68 953e 12ac 7d3e 1d4d ef3e ce9d 283f
00000040: 2aa8 953d 212e 073d 70b3 5a3f 74c9 1c3e
00000050: d558 513e acbe 7a3f 5537 523f 233b ad3e
00000060: 1ac3 763e 00c1 7c3f 0863 e03e fb19 86b8
00000070: 1e61 eeb7 e944 cf3e 9bd7 6a3f 887d 533e
00000080: 28c6 123f 4a58 533f 9fb3 863d 2f83 b13e
00000090: 6d0b 5b3f 5159 953e 651c 10b7 cb8f 4b3f
000000a0: 987e 9e3e 2e35 5a3f 587d a7b8 8b68 7a3f
000000b0: b5c1 4a3f 8f3a 143d 1dbd d83e adb9 8c3c
000000c0: 6442 773f 6d13 483f d548 ff3e 6bb0 ba3e
000000d0: a439 3c3f 15ca d23e d75d 7d3f 42cc 683f
000000e0: 1368 0e3f 8a03 f7b4 fdff 2f3f 6e8d 1b3c
000000f0: 967f 5f3e e090 e53e f874 593e e3ec a13e
00000100: bc1f 403f 4f1c 703f f79f 1e3d 32b5 bf3e
00000110: 81eb 1a3e b438 073f 2545 6e3e fc50 ce3e
00000120: 9aef 423f 1b22 fb3d 4a78 573e 00f4 6d3f
00000130: 85e7 0a3f a099 473f 7789 6f3f c6ed 283f
00000140: 6dae 1e3f 2520 9a3e 567b 4e3f ec05 793f
00000150: 682d 803e 5b9a e13e 6990 6e3f 0490 f93e
00000160: e38f 2e3f 31d6 d63e fb55 103e 0ae1 9c3e
00000170: 1c7d 643f 2460 b83d a2a2 2f3f 249f 503f
00000180: abdf 723f af57 de3e c1b9 b1b8 19f4 f83d
00000190: 372d ff3d a665 613e af2b 313f d93b d93e
000001a0: 7f7c 543d 9ade f83e 6ce8 973d 56cf 803e
000001b0: eaad 653f 43fa 233f 6d1e f63e e071 323f
000001c0: bfd4 003f b1a3 143e 236e cc3e 6d07 1f3e
000001d0: 2bd5 2e3f db21 913e af46 713f 421f 663f
000001e0: 534f 5a3f 7b7c be3e 60e9 453e d270 6a3f
000001f0: 735a bc3e f69b 443f 0dc8 663f 6074 8f3c

W2 f4 [64, 1]
0.853597 0.26239645 0.73666465 0.3283624 0.7493145 0.94720614 0.48983255 0.8109852
-2.1078251e-06 0.2214986 0.16851445 0.87805563 0.81604755 0.92862576 0.75985354 0.4214453
-3.6589227e-05 0.3773917 0.17592615 0.72697604 -3.8885293e-05 0.14341097 0.8573191 -4.6018962e-05
0.5754547 0.6904712 0.5972419 0.93128484 0.65402746 0.9279363 0.77210575 0.16477783
0.39637947 0.044221126 0.9339415 0.14011388 0.35829714 0.46049258 0.44766232 0.15060128
0.66437477 0.66992205 0.5761076 0.35743418 0.72765166 0.1050838 0.4629434 0.9548018
0.2022155 -2.9997582e-06 0.040735684 0.20269774 0.06661768 0.66089356 0.7607632 0.11556018
0.46093124 0.0798538 0.32536834 0.71262324 0.20012124 0.2290853 0.16212422 0.62968755
00000000: 5585 5a3f d458 863e 0e96 3c3f 1e1f a83e
00000010: 13d3 3f3f 1a7c 723f 55cb fa3e ba9c 4f3f
00000020: 2974 0db6 87d0 623e 0d8f 2c3e 41c8 603f
00000030: 7ee8 503f 6bba 6d3f c385 423f aec7 d73e
00000040: 6277 19b8 7c39 c13e fc25 343e 1a1b 3a3f
00000050: c418 23b8 53da 123e 4479 5b3f 7c04 41b8
00000060: 0051 133f b8c2 303f d8e4 183f af68 6e3f
00000070: 586e 273f 3c8d 6d3f b9a8 453f 85bb 283e
00000080: 40f2 ca3e 3621 353d ca16 6f3f 037a 0f3e
00000090: b972 b73e afc5 eb3e ff33 e53e 3937 1a3e
000000a0: 7714 2a3f 0380 2b3f ca7b 133f 9d01 b73e
000000b0: 6147 3a3f 2d36 d73d eb06 ed3e e46d 743f
000000c0: 9411 4f3e 744f 49b6 76da 263d ff8f 4f3e
000000d0: da6e 883d 5230 293f 61c1 423f d1aa ec3d
000000e0: 2eff eb3e 648a a33d ae96 a63e 7a6e 363f
000000f0: 95ec 4c3e 5695 6a3e e403 263e 3433 213f

b1 f4 [64]
0.8228333 0.33507153 0.40222773 0.52764505 0.0912987 0.5354485 0.6246979 0.87822545
0.43995568 0.18208955 0.35196084 0.2232998 0.92035353 0.43175635 0.2445652 0.697959
0.2487758 0.23114103 0.560222 0.062604904 0.7336258 0.4988868 0.22880481 0.93607897
0.4731081 0.16563456 0.39965677 0.8490149 0.3544199 0.14772418 0.242063 0.99172246
0.1513954 0.71193904 0.96915233 0.95989704 0.16680881 0.61956686 0.5408513 0.3938165
0.81246996 0.41053706 0.40555948 0.55629075 0.16438916 0.9028186 0.34616378 0.75952935
0.19777934 0.041426603 0.25080284 0.6856329 0.6432961 0.27933517 0.3779365 0.8453997
0.13709477 0.7684034 0.18575253 0.5364997 0.67276543 0.9184243 0.5712068 0.13579336
00000000: 34a5 523f 7f8e ab3e cbf0 cd3e bf13 073f
00000010: d0fa ba3d 2713 093f 34ec 1f3f 62d3 603f
00000020: df41 e13e af75 3a3e 3634 b43e b4a8 643e
00000030: 4a9c 6b3f 2b0f dd3e 4d6f 7a3e 71ad 323f
00000040: 15bf 7e3e 3cb0 6c3e b66a 0f3f 0037 803d
00000050: e7ce 3b3f 176e ff3e cf4b 6a3e dfa2 6f3f
00000060: 3a3b f23e 1b9c 293e d09f cc3e 0a59 593f
00000070: 8676 b53e 0245 173e 5ddf 773e 86e1 7d3f
00000080: 6507 1b3e a341 363f 5e1a 783f d0bb 753f
00000090: eecf 2a3e ef9b 1e3f 3b75 0a3f 51a2 c93e
000000a0: 08fe 4f3f ea31 d23e 7ea5 cf3e 1269 0e3f
000000b0: a255 283e 1f1f 673f 613c b13e 8470 423f
000000c0: ab86 4a3e f1ae 293d 3b69 803e a385 2f3f
000000d0: 0eaf 243f 0505 8f3e e580 c13e 1d6c 583f
000000e0: 9262 0c3e 16b6 443f e935 3e3e 0b58 093f
000000f0: 5b3a 2c3f db1d 6b3f 9c3a 123f 6a0d 0b3e
