dl/poal_dl/modelpara/20230825_151710_CIFAR10_06_MQ_NET_100_100_500_ResNet18_module.params (torch, 499791 bytes, 9 tensors)

FC1.weight f4 [128, 64]
00000000: 5443 983d 322d e83d 6a88 babd 2291 b2bd
00000010: e46a babd 78b9 bb3c 381e 263d 905d d13d
00000020: 7ea3 b4bd 80cf e43b 44eb 2f3d b858 aabd
00000030: a820 d8bd b43a edbd ba81 af3d 8487 613d
00000040: 86ae d2bd 3630 b1bd 04ea 0abd de63 973d
00000050: 7e75 a03d e4ef 933d e816 c03c a6bf cd3d
00000060: 926b fa3d c87e f0bc 78b4 c3bc a808 ebbc
00000070: 1849 423d 5a66 ad3d 9c57 2c3d 90e5 e63c
00000080: d059 dfbc 80cc c33d 30cc 62bc 98c5 3fbd
00000090: d6d2 cd3d 808a 923d 223d eabd 2820 f63c
000000a0: 00f8 cbb8 b636 a1bd ba9e f0bd 3c3a 5abd
000000b0: 0847 bebc e4c0 2d3d d8c0 8ebc d09b 8dbc
000000c0: 94f8 78bd 0cde b5bd 145b 82bd 0053 543a
000000d0: 7094 e03d c0df 063d 1cbc df3d 10ee a73c
000000e0: 5ccf db3d 3c6f 203d ba90 d5bd be32 f1bd
000000f0: a0a6 bd3c 50b5 9f3d 5a9c ab3d 80c4 cbba
00000100: 58f5 6fbd 0a38 9b3d 24e6 08bd ecbe e0bd
00000110: 4eba e6bd bc11 353d f0bf a2bc 2837 a4bd
00000120: 6072 cbbb 485c d63d d495 e83d 24ec 0a3d
00000130: 7085 98bd 84d9 333d 72cd c83d b070 273c
00000140: ecad 54bd 0028 6abb c041 b5bc 9042 afbd
00000150: 4a1e 97bd d66f f5bd 4454 e6bd bcc8 44bd
00000160: c463 47bd 9053 56bc 68cd 1c3d 10a3 debd
00000170: 88ae 9a3c 8490 d83d 687c 9a3d d448 5c3d
00000180: d230 853d a4d0 783d 280d 76bd 3e76 c13d
00000190: c091 81bd b0f7 55bc a082 be3d 6060 b3bc
000001a0: 6212 a6bd 28ab a4bd 48f4 ff3c c8d0 babc
000001b0: 9c75 8cbd da66 8b3d 5cc9 913d 889c d53d
000001c0: d826 a23c f0d9 dc3d e66d 973d 228e f73d
000001d0: 5028 4a3c b631 ff3d f0a1 5e3d 00d4 26bb
000001e0: 64aa 263d 4472 363d 98b8 e73d e065 09bc
000001f0: 7ca9 9abd 2c3b 7ebd 7867 98bd 784e ccbc
00000200: 48c6 b43d cc3d 89bd caa1 e1bd 8ca8 8dbd
00000210: 20f6 7d3c 0627 f0bd c067 80bc 8859 efbc
00000220: 380f 503d 3cec 7c3d e2a9 fbbd 50f0 2e3c
00000230: 1026 abbd 9c71 0bbd 2ca6 abbd fcac 8f3d
00000240: 4cfb c1bd d616 a33d cedc 9e3d a42c 3abd
00000250: 7ee2 e13d d2c3 9cbd 3a04 83bd 9049 60bc
00000260: 1c02 273d c665 ce3d 0627 d7bd 4864 e8bd
00000270: 0ecc ea3d 5078 6b3c 3035 543c 7050 52bc
00000280: 98dd f7bc 9c1e 303d 80b9 e4ba 3264 d73d
00000290: c8d1 9bbc 16e5 d5bd b02b dd3d ec6d c3bd
000002a0: c089 3b3d 2c80 d9bd 1816 8cbc 0efa f8bd
000002b0: 0060 efbb 0609 87bd 3461 9dbd b060 d83c
000002c0: f86b 88bd 14ae 823d 706b 973c 7c40 5ebd
000002d0: 00af 503a 22b8 c43d 0e4c b3bd 80d0 9bbd
000002e0: d09b c5bd 583e 133d 8481 073d 4820 d53d
000002f0: a076 2fbc 0a6d bbbd 9070 23bd 807a 4bbc
00000300: 70c7 5cbd 2cc2 7bbd 00cb 123c 7c96 b7bd
00000310: 2c6f f5bd 4414 0abd c8e5 883d aa29 f4bd
00000320: 883c d3bd 1407 9f3d 64e3 34bd 1e84 933d
00000330: 5043 c43c c44d 183d 7887 9ebc c891 d43d
00000340: 1e51 b23d a82e 8b3c 40a7 fb3d c02e 983c
00000350: fca7 de3d fcea 41bd fe40 cabd 203b 10bd
00000360: b07f 993c 4a3e bb3d d8c9 a6bd 004d 99bc
00000370: 54ff 853d 08df 54bd 5cd0 bdbd da6c 9abd
00000380: 883c 8a3c 0601 eebd ccb5 fd3d 787f f53d
00000390: 3a0a b93d 56fa dd3d ace1 b7bd e486 b83d
000003a0: 7a01 dfbd 8cbd a53d 1e7f c13d 06ec f1bd
000003b0: f0c8 9dbc 8030 203d baf9 e73d 1806 e13d
000003c0: 1827 493d 142d 8a3d 3426 683d acbf 013d
000003d0: 8461 02bd 80d2 3f3d b4b1 47bd 18cc 913d
000003e0: a0f0 c93b b0ed 7abc f677 adbd ec34 fa3d
000003f0: 10ed aebc 54cb bfbd 8022 ebbd f039 623c
0.07434717 0.11336745 -0.0910805 -0.08719088 -0.09102419 0.022915587 0.040556163 0.10222924
-0.08820246 0.0069827437 0.042948976 -0.08317703 -0.10553104 -0.11583462 0.08569665 0.05506088
-0.10287194 -0.08651774 -0.03391458 0.07392095 0.0783491 0.0722349 0.023448423 0.1004632
0.12227549 -0.029357329 -0.023889765 -0.028690651 0.04743299 0.08466788 0.04207574 0.028185636
-0.027264506 0.0956049 -0.013842627 -0.0468193 0.100499794 0.07155323 -0.114374414 0.03004463
-9.725988e-05 -0.078717634 -0.11749025 -0.053278193 -0.02322723 0.042420283 -0.01742594 -0.017286211
-0.060783938 -0.08880243 -0.06365028 0.0008099526 0.10965812 0.03292823 0.10924551 0.02049926
0.1073291 0.03916858 -0.10427995 -0.117772564 0.023150742 0.077982545 0.08379431 -0.0015546232
-0.058583587 0.07579048 -0.033422604 -0.109739155 -0.112660035 0.044206366 -0.019866914 -0.08018333
-0.006208703 0.1046682 0.113567024 0.033916607 -0.07447326 0.04390861 0.098048106 0.010219738
-0.051923677 -0.0035729408 -0.022126079 -0.08557618 -0.07378824 -0.11984222 -0.11246541 -0.048042998
-0.04867913 -0.013081446 0.03828183 -0.108709455 0.018882051 0.10574439 0.0754326 0.05378039
0.06503452 0.06074585 -0.06007114 0.09446381 -0.06326628 -0.013059542 0.093022585 -0.021896541
-0.08108975 -0.08040458 0.031244412 -0.022804633 -0.0685837 0.06806727 0.071184844 0.104302466
0.019793913 0.10783756 0.07394008 0.120876566 0.012338713 0.124606535 0.054353654 -0.0025455952
0.04068984 0.044542566 0.11314505 -0.008386105 -0.07551858 -0.06206815 -0.0744161 -0.02493976
0.08826882 -0.0670124 -0.11017187 -0.069169134 0.015500575 -0.11726193 -0.015674472 -0.029217497
0.050795764 0.06174873 -0.12288262 0.010677412 -0.08356869 -0.034043893 -0.08381304 0.07015416
-0.09471759 0.0796334 0.07756959 -0.04545273 0.11029528 -0.07654537 -0.063972905 -0.013689414
0.040773496 0.100780055 -0.1050549 -0.11347252 0.114647016 0.014371946 0.012952134 -0.012836561
-0.030257031 0.04299794 -0.0017450303 0.105171576 -0.01902093 -0.10444085 0.10799348 -0.0954245
0.045785666 -0.1062015 -0.017100379 -0.12157069 -0.0073051453 -0.06593518 -0.07684556 0.026413292
-0.066612184 0.06380859 0.018483847 -0.054260716 0.00079606473 0.09605433 -0.08754741 -0.076081276
-0.096488595 0.035948128 0.0330825 0.10406548 -0.010709435 -0.09151657 -0.03990227 -0.012419343
-0.053901136 -0.061464474 0.008959532 -0.089642495 -0.11984095 -0.033710733 0.06684452 -0.11922009
-0.1031428 0.07765022 -0.04416217 0.07202934 0.023957878 0.037183538 -0.019351706 0.10379368
0.08706878 0.01699002 0.1228776 0.01857698 0.10871884 -0.04734324 -0.098756775 -0.035212636
0.018737644 0.0914274 -0.081439674 -0.018713474 0.065428406 -0.05197051 -0.09268257 -0.07540293
0.016874567 -0.11621289 0.123881906 0.11987203 0.09035154 0.108387634 -0.0897859 0.09010103
-0.108889535 0.08092794 0.09448074 -0.11812596 -0.019260854 0.039108753 0.113269284 0.109874904
0.04910955 0.06746879 0.05667706 0.031676933 -0.03183128 0.046831608 -0.048753455 0.07119006
0.006162718 -0.015315458 -0.08470146 0.12217125 -0.021353275 -0.09364954 -0.1148119 0.013807759

FC1.bias f4 [128]
00000000: bc09 2e3d be03 8b3d 8063 02bd 38d1 e2bc
00000010: 942b abbd 2011 393c 4009 ae3b 4483 fa3d
00000020: 46c3 e5bd b0d2 83bc aa57 873d 68ff efbd
00000030: 7431 903d 14fd 253d 786b 9ebc 448b 1f3d
00000040: 24aa 89bd 0092 da3d 289e 0fbd 14a3 fb3d
00000050: 7eda eebd 1e21 d9bd b4f4 a6bd 4ad9 a53d
00000060: 6ec0 a23d a0c8 b4bd 56d6 8a3d 88a7 5dbd
00000070: 8044 6bbb d878 b23d 1c57 c6bd e09f ca3b
00000080: 005d 3bbc a8f4 3d3d 004e 8ab9 845a d33d
00000090: c61c fbbd 149b 713d 9cc0 a23d 003b 3a3d
000000a0: c83d 563d 3272 edbd 8218 94bd a87a f4bd
000000b0: ec80 acbd 484c 8dbd 80ce c93a 1c8c a73d
000000c0: ac06 ea3d a0e4 be3b fa44 aa3d a0a0 69bc
000000d0: 88e5 f7bd f8a5 ac3c 6245 8b3d 4471 493d
000000e0: ccab ab3d 9c71 bc3d 404a d63c 5c98 ca3d
000000f0: 3877 263d 40c7 05bd c47c 6dbd 86cb b9bd
00000100: 7815 c93c d0df 023d 56a1 da3d dcff 933d
00000110: 5e26 f13d 0451 19bd f6d8 f93d b006 0cbc
00000120: 8ed3 f8bd 26be ebbd 3062 f7bc 8a95 873d
00000130: 0079 35bd 5028 9c3d 64d9 14bd fe0e c33d
00000140: 0807 f73c c6c4 b43d ac01 9bbd eef6 a5bd
00000150: 5498 9a3d 5033 79bc 0250 aa3d b6e4 b43d
00000160: 50f9 e1bd a047 8cbb c4cc cd3d 2822 52bd
00000170: ec57 48bd 1c10 f9bd 00cf a6bc f097 9dbd
00000180: 2cfc e7bd d42f aebd a4ee 913d f075 3dbd
00000190: a41f 543d 04ba 62bd 40f1 c9bd 2a62 823d
000001a0: a46d 48bd f05d 67bc 9493 7b3d 30aa 5f3c
000001b0: a8ab 343d cc88 be3d f879 febd 7039 f9bc
000001c0: c0cb a13b 28ae 36bd 2210 ba3d d619 8b3d
000001d0: 6432 393d a4f6 e0bd ca5f a93d 5ccc 773d
000001e0: 5cf4 dd3d 4476 fe3d d0ee d2bd a60f a2bd
000001f0: 00ae 8b39 a011 d7bc bcea e93d 60f6 f73b
0.042489752 0.06787823 -0.03183317 -0.027687654 -0.08357921 0.011295587 0.0053111613 0.12232068
-0.11218886 -0.016091675 0.066085175 -0.11718637 0.070406824 0.040524557 -0.019338354 0.038951173
-0.06721905 0.106723785 -0.03506294 0.12286964 -0.11662768 -0.1060202 -0.08152142 0.08098085
0.07946859 -0.08827329 0.067791626 -0.05411485 -0.0035898983 0.08714455 -0.096845835 0.0061836094
-0.011435747 0.0463759 -0.00026379526 0.10319999 -0.122613475 0.058985785 0.079468936 0.045466423
0.052305013 -0.11594047 -0.07231237 -0.11937457 -0.084230274 -0.06899315 0.0015396625 0.081810206
0.11427054 0.005825594 0.083139375 -0.014259487 -0.121043265 0.021075234 0.06800343 0.049180284
0.08382377 0.09201357 0.026158452 0.098923415 0.04064104 -0.032660723 -0.057980314 -0.09072022
0.02454637 0.031951725 0.10675304 0.07226536 0.11774896 -0.03743078 0.12199585 -0.008546516
-0.12149726 -0.11510877 -0.030198187 0.06620319 -0.044304848 0.076248765 -0.036340132 0.09524344
0.03015472 0.08826594 -0.07568678 -0.08103739 0.075485855 -0.015209988 0.083160415 0.08832686
-0.11033881 -0.0042809993 0.100488216 -0.051302105 -0.048911974 -0.12161276 -0.020362377 -0.076949954
-0.11327395 -0.08505216 0.07125595 -0.046255052 0.051787987 -0.05535318 -0.09860468 0.063663796
-0.048932686 -0.014121518 0.06142004 0.013651416 0.044109017 0.09303436 -0.124256074 -0.030422896
0.004937619 -0.044599682 0.09085108 0.06792037 0.045214072 -0.10984543 0.082702234 0.060497627
0.108376235 0.12424901 -0.10299456 -0.07913141 0.00026641786 -0.026253521 0.11421725 0.007567212

FC2.weight f4 [128, 128]
00000000: 43c6 80bd ebf0 8f3d 2161 56bd c9c3 b8b9
00000010: d388 4abd 8580 6f3a 4156 ab3d da71 7f3c
00000020: 04ed 3d3b 45ae 043d 1a15 a0bc 70e1 9e3d
00000030: 4a29 c83c 158d 003d 6144 4e3d 0195 21bd
00000040: 4959 e93c 8c8e dbbc cfa8 07bd 361a 8e3c
00000050: 2bb3 5abc 90f3 6c3d ee9a a43d 39db 593d
00000060: 03be 223d 7dd4 67bc 3ac4 2ebd e908 233d
00000070: 9e37 4abd 60f0 b13d db8f acbc ef9c 593d
00000080: b607 883d 6b93 9c3d af24 e73c 38a7 61bc
00000090: b88a 8dbd 836d fdbc a9d7 73bd 1a43 6fbd
000000a0: 6b76 f03c 327a 87bc edca b33d f971 933d
000000b0: 026d 953d 78a3 903d 5533 a5bd 6c91 2a3d
000000c0: dbb9 29bd bf8a 443d a5f2 643d b573 38bd
000000d0: bf60 b8bc fb08 20bd 4ecf ddbc 3547 613d
000000e0: 5ca4 113d 80b9 a5bc 3d4b 8a3d bf18 7d3d
000000f0: 4f7e a93d 1793 7abc a738 983c f74a a23c
00000100: 61a9 f3bc f7c7 7dbd 4bec 9ebd 996a 7ebd
00000110: 4f5f 8abd 817b 5cbd 8b27 613c fe6b 97bd
00000120: fa3d cb3b 2cf2 223d 381b a4bd 180e abbd
00000130: d81f a83d c066 f4bb aa21 d9ba e3eb 263d
00000140: 3251 373d 2e25 8f3d 6236 06bd 2958 7e3c
00000150: 9399 46bd a1d6 243c 29b5 163d 1f17 2b3c
00000160: aa3b 543d 11e5 6abb 69d3 1c3d d366 8bbd
00000170: f712 a6bd 1739 693c 4612 463b b204 1e3d
00000180: b9d4 623d 4a5e 02bd e0f3 95bc 20a0 ae3d
00000190: 2357 6cbd cafd b0bc 608c 5e3d cf0b 7b3d
000001a0: e520 8bbd 4a4d 8abd ef8f 473b 3de9 ebbc
000001b0: 525b 853d 76e3 62bd 2d48 2bbc cfc7 eabc
000001c0: 7984 243c a416 26bd 854d b33d fae6 4b3d
000001d0: 4a9c 593d 9bfd 46bc 3bdb 793d 1f29 d73c
000001e0: 2b3d 1b3c 7fe7 573d 789e 76bc 83b9 96bd
000001f0: 3071 a7bd 942b 94bd 52fc 8abd b655 ac3d
00000200: 6d67 11bc c2b0 673d 224b c5bb 19c4 873d
00000210: eda9 0b3c 6a79 2ebd 23fe ec3c 01e5 fa3c
00000220: d489 5bbd 6465 3e3d db2e 7dbd e05f 923d
00000230: 7188 0a3d a1fc 9bbd af9f 9e3d 8f95 8bbd
00000240: 82b2 7dbd fc91 91bd cdca 8bbd 57a6 4b3d
00000250: 10d9 5cbd db72 a13c 9c2c 36bd a19e e43c
00000260: 2d6b 753d 36fe 66bd f90f 98bd c97d a8bd
00000270: 7b2c 2f3d fe84 833d 8706 2f3a ca5b 8cbd
00000280: c726 983c 31c7 813c 7f4a 663c eb72 edbc
00000290: 88d4 a23d e9d4 a0bd 1af1 0bbd 8828 bcbc
000002a0: 3590 a33d d8cb 873c ca0b a2bc 8988 14bd
000002b0: a624 5b3d 70d2 ad3d 963e 8e3a f241 01bb
000002c0: bec4 943d 95c7 93bd c259 b03d 7593 e7bc
000002d0: 1be7 7a3d 5a5a 7f3d 0b82 3fbd bb12 d43c
000002e0: 7da8 b13d dc2c 9abd fb4c 913d 2725 273d
000002f0: b39a 013d f487 913c b315 653d 8719 b43d
00000300: 88b9 ef3b 22bd b03d 5fed 60bd c57a 203d
00000310: 6d2d 14bd 32fb 84bd 7ab5 d83a 78d7 39bc
00000320: 3106 563d e93e a3bd b55c c8bc 76b6 a73d
00000330: bb4a b43d b19c 3b3d aae1 70bd 1be1 acbd
00000340: a0a8 a53d 8659 b1bd 988b 3cbc 0aae 9b3c
00000350: 241e c6bc a91b 14bd bbda a6bc 1b65 9ebc
00000360: 71cd 273b 3294 903d f50b b1bd 3081 2bbc
00000370: c413 78bd dee9 523d c78a ab3d 1adf 83bd
00000380: 39d6 d43c c9e8 7ebd 6697 a7bd 2045 a5bd
00000390: ff48 073d 3216 993d d7fd 2fbb cf15 37bd
000003a0: a189 973d 59d6 b43c b769 543d 13e2 87bc
000003b0: 2e0c eb3c dd4c ee3c 9d8a 6ebd 6238 bfbb
000003c0: 6e03 5cbd 3a95 2e3d 3d18 b1bd 23c4 673c
000003d0: 890b ce3c dd16 973d 1f19 7dbc d866 86bc
000003e0: c4ce 2cbc 7954 6abd 94f4 68bd 6937 f6bb
000003f0: b6b8 72bd c206 51bd 82c8 4abd 7ef4 b43d
-0.062878154 0.07028373 -0.052338723 -0.00035241086 -0.049446892 0.00091362774 0.08366061 0.015591109
0.0028980384 0.03239276 -0.019541312 0.077578425 0.02443375 0.031384546 0.05035818 -0.03944874
0.028484957 -0.02680137 -0.033119973 0.017346483 -0.013348381 0.057849467 0.08037363 0.053187583
0.03973199 -0.014149782 -0.042667605 0.03980342 -0.049369447 0.08688426 -0.02106469 0.05312818
0.06642096 0.07645305 0.028215734 -0.013772778 -0.06911224 -0.030936008 -0.05953184 -0.058413602
0.029353341 -0.01653776 0.087789394 0.07199473 0.07296182 0.07062429 -0.080664314 0.04164259
-0.04143701 0.04798388 0.055895466 -0.04503222 -0.02250707 -0.039071064 -0.02707639 0.05499955
0.035557136 -0.020230055 0.06752632 0.061791178 0.082760446 -0.015293858 0.018581701 0.019811137
-0.029743852 -0.06195828 -0.07759913 -0.06211338 -0.0675646 -0.05382872 0.013742338 -0.07393645
0.0062024565 0.039781734 -0.08013004 -0.083522975 0.08209199 -0.007458538 -0.0016565819 0.040752303
0.04475517 0.06989513 -0.032766707 0.015523949 -0.048486304 0.010060937 0.03679386 0.010442524
0.051814713 -0.00358421 0.038287554 -0.068067215 -0.08109086 0.014234803 0.0030223294 0.038578697
0.05537865 -0.031828202 -0.018304765 0.08526635 -0.057700288 -0.021605391 0.05433309 0.06129056
-0.067933835 -0.06753023 0.0030450781 -0.02879774 0.065115586 -0.055392705 -0.01045422 -0.02865973
0.01004135 -0.040548936 0.0875502 0.049780823 0.053127564 -0.012145425 0.06100009 0.026264725
0.009475033 0.052711006 -0.01505243 -0.07359602 -0.08175886 -0.07234874 -0.067864075 0.084147856
-0.008874756 0.056565054 -0.0060209194 0.066291995 0.0085244 -0.04259626 0.028929776 0.030626776
-0.05359824 0.046483412 -0.061812263 0.07147193 0.033821527 -0.076165445 0.07745301 -0.068156354
-0.061937816 -0.071079224 -0.068257906 0.04971918 -0.053917944 0.019708088 -0.044476137 0.027907671
0.059916664 -0.05639478 -0.074249215 -0.082271166 0.04276703 0.064218506 0.0006676693 -0.06853445
0.018573178 0.015842052 0.014055847 -0.028985461 0.07950693 -0.078531094 -0.03416548 -0.022968546
0.0798649 0.016576692 -0.019781012 -0.036263023 0.053501748 0.084874034 0.0010852392 -0.0019723144
0.07264088 -0.072158016 0.0861087 -0.028268555 0.061255556 0.062342025 -0.046754878 0.025887838
0.08674715 -0.075280875 0.07094761 0.040806916 0.031641673 0.017765023 0.055928897 0.087939315
0.007315818 0.08629824 -0.054913875 0.039179582 -0.036176134 -0.06493224 0.0016533576 -0.011342876
0.052252 -0.079709835 -0.024458269 0.081890985 0.08803316 0.04580373 -0.05880896 -0.08441373
0.08088803 -0.08659653 -0.011507891 0.019003887 -0.024184294 -0.03615919 -0.02036797 -0.01933532
0.002560463 0.07059516 -0.08644859 -0.010467812 -0.060565725 0.051492564 0.08376079 -0.064390376
0.025981056 -0.06223372 -0.08183174 -0.08069825 0.0330286 0.074749365 -0.0026854181 -0.044698533
0.073992975 0.022074865 0.05185863 -0.016587293 0.028692331 0.029089386 -0.05823766 -0.005835579
-0.05371421 0.042622782 -0.08647201 0.014145884 0.025151985 0.07377408 -0.015447884 -0.016406462
-0.010547344 -0.057209466 -0.056873873 -0.0075139296 -0.059258185 -0.051031835 -0.049507625 0.08835696

FC2.bias f4 [128]
00000000: 1875 a33d 4dfe 793d c6cc 203d 324c 9fbc
00000010: 7473 21bd 9a15 a2bd ebed 2dbd 08fa 813d
00000020: 2b19 e3bb 8a0d 913d f690 ae3d e602 04bd
00000030: 0796 0dbd 1683 3abd 5a47 243d b2a0 6f3b
00000040: 7675 993c 3615 4abd ccde 3b3c 1d97 7e3d
00000050: 0d24 443c 0b39 243d bc77 26bd 1069 bbbc
00000060: 1d09 2bbd 1a80 debb f75a 95bd 9448 ee3c
00000070: 375d 07bd 7fdd cf3b 8f7f 9d3c a429 98bd
00000080: 0733 a7bb 688e 54bd c788 103b 7654 933d
00000090: 9195 fa3c a65b 7abd 5561 cfbc fdfa 553d
000000a0: b597 af3c fd89 95bd 32d9 1b3d ddb0 2d3c
000000b0: 35c8 3a3d 6163 573d 02c4 4b3d 9f00 933c
000000c0: 7bee 29bd b83e 513d 7f63 4b3d d64b af3d
000000d0: e719 713d 6df2 2b3d 0a67 633b 5053 29bd
000000e0: 5834 903d ac66 aabd ebf1 1cbd 4fe9 963b
000000f0: f72e 85bd 2ec5 96bc a656 49bc 0ccb afbd
00000100: 8d15 a73d 94a5 c13c fcf2 32bd fa4c 8d3c
00000110: 80c3 ab3c c449 71bd 9b1e 13bd 10a5 0b3d
00000120: 6692 1b3d 40d0 2dbd 540e b33c 93c4 84bd
00000130: 450e 5ebd e8a8 07bd 43c4 cf3c 50a8 0f3d
00000140: 8436 9d3d a290 9abd f664 a13d 1778 653d
00000150: 3620 9ebd 5720 2c3d 6339 503d 80cc 9abd
00000160: cf4f 9d3c 3489 e3bc ab5f eabc 1dfb 17bd
00000170: bf2a a5bd 63ef 0dbb 8560 88bd ba7a b93c
00000180: 215c 73bc e8dc 9abd c795 8a3d cf2f 82bd
00000190: 6ec3 343d 3774 12ba be7e 993d fe4f 8b3d
000001a0: f529 d3bc 1fe8 bb3c 7f48 b6bc 5b6e 5c3d
000001b0: 7a20 73bd 97cc 34bd c4f7 58bc 6a5b b4bd
000001c0: e141 843d 5519 ac3d d5fc 9f3d 00c1 5ebd
000001d0: a3e8 9cbc 59cf a23a bf41 a3bd 7c6e b33d
000001e0: bb02 15bc 6898 783d d77e 50bd 341f a83d
000001f0: 72c5 e6bc f8b6 eb3c a3e9 983d 172c 73bd
0.07981318 0.061033536 0.039257787 -0.019445512 -0.039416745 -0.079142764 -0.042463224 0.06346518
-0.0069304905 0.070826605 0.08523743 -0.032229327 -0.034566905 -0.04553517 0.04010711 0.0036564288
0.018732768 -0.049336635 0.011466693 0.06215583 0.011971486 0.040093463 -0.04064153 -0.022877246
-0.041756738 -0.0067901732 -0.07292741 0.029087342 -0.03304788 0.006343543 0.019225864 -0.07429817
-0.0051025185 -0.05189362 0.0022054182 0.07193844 0.030588897 -0.06112256 -0.025314966 0.052241314
0.021434644 -0.0730171 0.03804893 0.0106012495 0.04560109 0.05258501 0.049747474 0.017944632
-0.0414872 0.051085204 0.049655434 0.085593864 0.058862593 0.041979242 0.0034698867 -0.04133922
0.07041234 -0.08320364 -0.03831665 0.0046054493 -0.065030985 -0.01840457 -0.012288725 -0.0858365
0.08158407 0.023638524 -0.04368876 0.01724862 0.020967245 -0.05890824 -0.03591786 0.034092963
0.037981413 -0.04243493 0.021857418 -0.06482806 -0.054212827 -0.033120066 0.02536214 0.035072625
0.07676414 -0.07547118 0.07880585 0.05602273 -0.077209875 0.04202303 0.05083598 -0.075585365
0.019203095 -0.027775384 -0.028610071 -0.037104715 -0.08064794 -0.0021657578 -0.06659035 0.022641528
-0.014853508 -0.07561666 0.06766849 -0.06356775 0.04413169 -0.00055867754 0.07494877 0.06802367
-0.025776843 0.022937832 -0.022251366 0.05381618 -0.059357144 -0.044140425 -0.013242666 -0.08806498
0.06457878 0.08403269 0.07811896 -0.054383278 -0.019153899 0.0012421414 -0.079715244 0.087613076
-0.009094889 0.06069222 -0.050902214 0.082090765 -0.028170321 0.02877377 0.07466438 -0.05936822

FC3.weight f4 [128, 256]
00000000: c299 3fbd 18b2 50bc 80ed 61bb 48a8 d0bc
00000010: 0081 b83b 94fc b53c 1c09 57bd 1c6d e63c
00000020: 249b afbc 7c26 b0bc f2a8 5a3d d098 053c
00000030: c0e0 34bb d8bb 813c b8d5 3cbd 8675 5fbd
00000040: 1a05 5f3d c094 f63a 30ee 073c 4620 44bd
00000050: 9cd8 163d 405e ebba 80bd 823a a423 a5bc
00000060: 14af 863c 309a cbbc 2acf 093d 147f babc
00000070: c8db 0f3c 18b6 793c b4f2 603d 3ce8 f93c
00000080: 0000 f836 8eb5 34bd 60ec 32bc 88f3 24bc
00000090: b072 82bb 7035 8fbc 40e0 323b 84d9 7b3d
000000a0: e8e2 53bd 02d9 6abd be1e 213d 983d fbbc
000000b0: 9856 0d3d c49a 1f3d 7ab8 5abd 606c b43c
000000c0: 50ed be3c 8091 9eba 0004 8d3b f6f6 5abd
000000d0: 08b7 1c3d 802e 823b 20b1 70bc d880 0ebc
000000e0: b016 3ebd f007 e2bb 285a 113c 30e1 d33b
000000f0: 8c65 263d 7026 9f3c 88ce 153d e423 1b3d
00000100: 98da a4bc 60a0 1c3b 8877 8b3c 84c6 76bd
00000110: 407b f53a 6605 3bbd 701a 883c 56e0 68bd
00000120: b626 723d 94cb 4fbd 703d 183d 2c06 dabc
00000130: 588e 9ebc f29e 793d 0a33 15bd 60a6 233b
00000140: 420b 0bbd 608c b4bc 06b5 1a3d e09c 5fbb
00000150: cc85 753d 74a2 82bc 8078 603b 00fa 693c
00000160: 1855 a4bc 007c 6e3a 04b0 5e3d d20e 36bd
00000170: 489a 08bc 6e39 6fbd 5a43 2abd ee5b 6f3d
00000180: d0b0 26bc b04b bcbb a8a5 0bbd 4ad1 67bd
00000190: d06a 363c 28e3 3e3c 5425 ddbc b07d 963b
000001a0: 3087 fabb 7648 743d e08e 693b daa5 62bd
000001b0: 5a7b 3dbd 44f0 ffbc 3a29 533d 006a 133a
000001c0: a892 583c ccc2 4b3d 50ce 1fbd 5c6d 2cbd
000001d0: c00c 163d 04d0 0f3d f081 bcbb 8cf5 afbc
000001e0: 78c1 72bc c409 5b3d 3cca 353d b8b8 5ebd
000001f0: 2ce6 af3c fc49 ca3c 9cc1 93bc 501a b43b
00000200: 842c ecbc f8cf a73c 383d a33c 80ea f03b
00000210: cefc 173d b86a ec3c 24bc cf3c 0818 70bc
00000220: 6267 213d a014 753d b086 a7bc d0ec ca3b
00000230: dac2 32bd 70a7 bd3b 0030 a1b7 a02b 16bc
00000240: 08ad 49bc aeab 293d d05f 863c 601c 893b
00000250: 206e 5bbb 3ca3 d83c a843 263c 5e76 10bd
00000260: 4021 c83b 7071 0d3c 40f1 a43c 1009 cebb
00000270: 2ef0 62bd 8688 6a3d 0af0 69bd 46de 3e3d
00000280: e660 4d3d 8e91 35bd 860e 2cbd c4d7 3cbd
00000290: 70b9 e7bc aec8 69bd ec3e b3bc 64b2 2dbd
000002a0: 8022 6b3a 2432 9ebc 40c1 debc 90bc 05bd
000002b0: f03d 5f3d 3ef7 20bd 0054 ae3b ea67 673d
000002c0: be51 3cbd 508e 963c f893 443c fcc0 5a3d
000002d0: 9c2e 32bd 84af 1fbd 52c8 30bd 7c97 a2bc
000002e0: 2adf 46bd dc2b 30bd 7457 4e3d 0e5c 393d
000002f0: ceb8 7abd 3433 4c3d 6a03 693d e852 dd3c
00000300: 6265 71bd 205d 93bc 90f6 123d bced 0dbd
00000310: 2081 aa3b 6a86 1d3d 8c5c ba3c d818 c9bc
00000320: d44d 323d 009d 74bc 88ee 79bc e04b e33c
00000330: a0d7 843b c039 d7bb 287c da3c a0db 12bd
00000340: d43c 2bbd 12d6 1ebd 28e3 07bd 90fc dabb
00000350: 043d eabc e00c 993c c42c ce3c 7448 fcbc
00000360: 201e d7bc 94af 32bd c051 d5ba 90fd 5ebc
00000370: acae 68bd 988f 883c 1cd1 47bd 7638 023d
00000380: 3c2e 9c3c 0044 213b 7edc 723d b0e8 d5bb
00000390: 34a4 66bd 8886 333c 4c58 013d 800a 383a
000003a0: 905b 363c f2c6 7c3d da5f 61bd a823 fd3c
000003b0: b003 ab3b e051 d73c 98f6 603d 80c8 2ebc
000003c0: f81f 13bc 043a a0bc ea4a 393d 02c6 31bd
000003d0: 9652 53bd 14a8 c23c 244e 79bd 20f1 fcbc
000003e0: de14 273d fa99 573d 9cc0 613d 3056 913c
000003f0: f0df 84bc 4087 64bd 8081 36bb 68ff cd3c
-0.046777494 -0.012737773 -0.0034473836 -0.025470868 0.0056306124 0.022215165 -0.05249892 0.0281282
-0.021436282 -0.021502726 0.053383775 0.008154109 -0.0027599782 0.015836641 -0.046102256 -0.05455544
0.054448225 0.0018812642 0.008296534 -0.04788234 0.03682767 -0.0017957166 0.0009974688 -0.020158596
0.016440906 -0.024853796 0.033644833 -0.022765674 0.008780427 0.015241168 0.05491896 0.030506246
7.390976e-06 -0.044118457 -0.010920614 -0.010067828 -0.003980957 -0.017481536 0.0027294308 0.061486736
-0.051730067 -0.05733586 0.03933596 -0.030669019 0.03450641 0.038965955 -0.053398587 0.022024333
0.023306519 -0.0012097806 0.0043034554 -0.053458177 0.03826049 0.0039728284 -0.014690667 -0.008697711
-0.046408355 -0.006897919 0.008871593 0.0064660534 0.040624186 0.019427508 0.036573917 0.037876025
-0.020123765 0.0023899302 0.01702477 -0.060247913 0.0018728748 -0.045659445 0.016614169 -0.05685457
0.05911895 -0.050731257 0.037167966 -0.026614271 -0.019354984 0.060942598 -0.036425628 0.0024970993
-0.033946283 -0.022039592 0.037770294 -0.0034120604 0.05994205 -0.015946604 0.003425151 0.014280796
-0.020060107 0.0009097457 0.05436708 -0.044447728 -0.008337565 -0.05840438 -0.041568138 0.05843728
-0.010173991 -0.0057463273 -0.03409353 -0.056596078 0.0111338645 0.011650838 -0.026995338 0.00459262
-0.00764551 0.059639417 0.0035638139 -0.05533395 -0.046260215 -0.031242497 0.05155299 0.00056234
0.013218559 0.04974632 -0.039015114 -0.04209648 0.036633253 0.03511049 -0.0057527944 -0.02147939
-0.014816634 0.05347611 0.04438232 -0.05437538 0.02147206 0.024693482 -0.018036656 0.0054963008
-0.02882982 0.02048491 0.019926652 0.0073521733 0.037106328 0.028859481 0.025358267 -0.014654167
0.039405234 0.059834123 -0.020449966 0.006192781 -0.043642856 0.0057877824 -1.9215047e-05 -0.009165674
-0.01230932 0.041423492 0.016403109 0.0041842908 -0.0033482388 0.026445024 0.010147966 -0.035269134
0.0061074793 0.008633003 0.020134568 -0.0062877014 -0.055404834 0.057259105 -0.057113685 0.046598695
0.050141238 -0.044328265 -0.042006038 -0.046104208 -0.028286666 -0.05707615 -0.02188059 -0.042406455
0.00089696795 -0.019311018 -0.027191758 -0.03265053 0.054502428 -0.03929829 0.005320072 0.056495585
-0.045976393 0.018378407 0.011998169 0.0534067 -0.04350148 -0.038985744 -0.04315979 -0.019847624
-0.04855267 -0.043010578 0.05037637 0.045253806 -0.0612114 0.04985352 0.05688802 0.027017072
-0.058934577 -0.017988741 0.03587967 -0.03465055 0.005203381 0.038458265 0.022749208 -0.02454798
0.043531254 -0.01493001 -0.015254624 0.027746141 0.004054025 -0.0065681636 0.02667053 -0.035853982
-0.041806057 -0.038778372 -0.033175617 -0.00668294 -0.028593548 0.018682897 0.02516783 -0.030796267
-0.026259482 -0.043624476 -0.0016274974 -0.013610259 -0.056807205 0.016670033 -0.048783407 0.031792127
0.019065015 0.0024607182 0.05929231 -0.0065279827 -0.05630894 0.010957368 0.031578347 0.00070206076
0.011130229 0.061713167 -0.05502305 0.030900791 0.0052189454 0.026284158 0.05492267 -0.01066792
-0.00897979 -0.019558914 0.04523746 -0.043401726 -0.051592432 0.023761787 -0.060865536 -0.030876696
0.040791385 0.052637078 0.055115327 0.017741293 -0.016220063 -0.055793047 -0.0027848184 0.025146201

FC3.bias f4 [128]
00000000: d0bc a4bc bc46 bd3c 7e38 493d 280a 72bc
00000010: 1802 283c a820 573d 40ce a2bc b815 643c
00000020: 1e3f 073d 88e0 323c 4081 32bb f6c2 013d
00000030: 8e39 56bd 9cc0 663d b603 49bd 8ecb 703d
00000040: a890 22bc 0c25 353d 760d 2f3d 0c65 0fbd
00000050: 90d0 c33c fc82 7f3d fce7 d03c a234 1cbd
00000060: 5ce6 2c3d c020 0d3b 40f1 41bc b04f ce3b
00000070: 68f5 963c 306c 4abd 1486 14bd e8da 13bd
00000080: 10d4 71bd 4290 71bd 1212 54bd 20fd 68bc
00000090: 7872 a13c b07a 2abd 7c3c d4bc 1e58 62bd
000000a0: d875 53bc d4ca 183d 90c2 203c 4aa3 003d
000000b0: 5679 043d d025 2f3c 5cee 02bd 20bc ad3c
000000c0: 2457 fdbc b0b9 e73b c0b0 7c3b 60a1 71bc
000000d0: e4c0 b33c 807f 263c ec0f acbc 5cea b3bc
000000e0: 006c 94ba 2021 19bb 8884 953c d4fa 09bd
000000f0: 40fc 5dbb 285d e5bc 80d1 afbb 6ca5 ac3c
00000100: 26a1 3f3d 4e11 25bd 7420 68bd 54af d6bc
00000110: eefd 4c3d 56b7 6d3d 58f9 4dbc a626 573d
00000120: 882e 4e3c 3af8 76bd c6f3 473d 1497 123d
00000130: 40ba 96bc 7e1c 1dbd 4e6e 293d 300c c23c
00000140: d06d 31bc 48fb e23c a60c 7fbd 4cd8 db3c
00000150: b0a4 17bd c48c d63c 5ec4 25bd 8078 56ba
00000160: de12 1e3d d4f8 5a3d 7c74 05bd 4266 323d
00000170: faec 4d3d e01f 68bd 10dc a83c d8e3 163d
00000180: 0044 a3ba 10cc 79bd 001f f6b9 203d 7f3c
00000190: 786f ec3c 1c5b dbbc aaed 32bd 4059 28bc
000001a0: c662 653d 06b7 1fbd a00c febb 8e40 52bd
000001b0: 40d7 abba 00da d63a 74ab 063d 78b1 a53c
000001c0: 18c0 94bc 50fa 153d 663c 59bd 0ac5 133d
000001d0: 7c4d a23c 10bf a03b b03e b03b ee35 083d
000001e0: 7487 f43c dec7 6c3d 7a2d 203d c02b e8bc
000001f0: 18f1 2d3d dce6 5ebd a239 033d 8cfb 90bc
-0.020109564 0.023105018 0.04912614 -0.014772929 0.010254405 0.052521378 -0.019873738 0.013921194
0.033019178 0.01091779 -0.0027237684 0.03168007 -0.052300982 0.05633603 -0.049075805 0.058787875
-0.009922184 0.044224784 0.042737447 -0.035008475 0.023903161 0.062380776 0.025501244 -0.038136132
0.042211875 0.0021534413 -0.011837304 0.0062961206 0.018427566 -0.049419582 -0.03626068 -0.036097437
-0.05904013 -0.058975466 -0.051775046 -0.014220506 0.019707903 -0.04162091 -0.025907747 -0.055259816
-0.012906514 0.037302807 0.009812012 0.031405725 0.032342277 0.010690168 -0.0319656 0.021207869
-0.030925341 0.007071696 0.00385575 -0.014747947 0.021942563 0.010162234 -0.021003686 -0.021962337
-0.001132369 -0.0023365691 0.018251672 -0.033686474 -0.0033872277 -0.027998522 -0.0053655505 0.021074973
0.046784543 -0.040299706 -0.056671575 -0.02620665 0.050046854 0.05803617 -0.012571655 0.052527092
0.012584336 -0.06029532 0.048816465 0.03578861 -0.018399358 -0.03835725 0.04136496 0.023687452
-0.010829404 0.02770771 -0.062267922 0.026836537 -0.037022293 0.02619017 -0.040470473 -0.0008181408
0.038592212 0.053459957 -0.03258179 0.043554552 0.050274827 -0.056671023 0.020612746 0.036838382
-0.0012456179 -0.060985625 -0.00046943873 0.015578538 0.028861746 -0.026776843 -0.043683685 -0.010275185
0.0560024 -0.038992904 -0.00775297 -0.051331095 -0.0013110414 0.0016391873 0.032878354 0.020226225
-0.018158004 0.03661567 -0.053036116 0.036076583 0.019812338 0.004905589 0.0053785667 0.033254556
0.029849745 0.057807796 0.03910587 -0.028341174 0.042466253 -0.054419383 0.032037385 -0.017698072

FC4.weight f4 [128, 512]
00000000: 9886 e53c 6a39 d33c c726 42bc 9387 d93b
00000010: 7eee 0fbc d3b7 ad3c 48af 23bc 3cfc cb3b
00000020: 04e8 2a3d fefb bcbc 6b80 54bc b5b5 13bc
00000030: cb4f 28bd 25fd 323d 217f e93c ba93 9a3c
00000040: 0e04 0dbd 6419 563c 3cc9 033d 1c1c a83a
00000050: c6c2 553c 5106 183d 75de cfbc dc85 5c3c
00000060: 1a2b ca3c c970 a8ba 776e febc 569d edbc
00000070: 8375 df3b 1d57 03bd 911c 8e3c 0635 3f3b
00000080: 33ac fdbc ec05 303d 6024 0abc b6a2 1a3d
00000090: 6228 b3bc eb4e 8b3c 09ad 0cbc 7a9e 57bc
000000a0: 1808 b83b 7724 efbc b4a2 fcbc 0dc7 bb3c
000000b0: 9a3d 9dbc a0bb 05bd e7b9 07bd 960a ac3c
000000c0: b80a 2b3d 1bab a73c e278 91bc 0dbf 27bd
000000d0: de79 00bd a13f e1bb 845b dbbc 3f5d a7bc
000000e0: c67c 07bd 55fb ecbb a57f f2bc 1746 83bb
000000f0: 4e7b bd3c 2c9f 92bb a64f 11bc 90e3 013c
00000100: edab 2e3d cc5a 8b3c 0ef4 65ba 25d7 983c
00000110: cbcc ad3b c33c a53b 6f28 4f3c fc3f b9bc
00000120: 4c4e 55bc 8756 0f3d cae7 a6bc f9ff 283b
00000130: 24cb 133c d4b7 8239 86c0 99bb 5995 c53c
00000140: 71bc 6cbb 74c4 4c3c 0239 0b3c 817c dbbc
00000150: a65e c23c 9a67 0bbd 8eab 08bd 7696 c33c
00000160: 1da9 dcbc d3a2 063d e389 dd3c 5cd9 c33b
00000170: ebad 34bd 7be7 86bc 01cf 053d cc01 6a3c
00000180: 010a 333d 3c37 9b3c 5f43 db3b ba06 19bd
00000190: 0732 5b3c ebed b7bc f06f e2bc 132a 28ba
000001a0: e3a4 c23b 777d 34bd dabc 373c fc96 60bc
000001b0: 5987 8c3c 7226 c23b dfd8 3b3c 4456 57bc
000001c0: 0720 c6bc 8da3 1abc dbb5 2dbd 1bbb 4c3a
000001d0: ae9c 893c 748c a3bb f17c e0bc c051 6dbc
000001e0: b8ac c03b e9d5 09bc 560b 013d 6033 d93c
000001f0: 38ee 4cbc 06af 213d 99de bb3c d5be 2a3d
00000200: 5e69 fbbc 32e3 903b e378 aebc d998 86bc
00000210: a20d 073a 9be4 dfbc 09e4 32bd a2f1 563c
00000220: df3a f1bc 9283 233d e2de 503b bd13 92bc
00000230: 1517 28bd d980 e3ba 314e 0dbc 1432 a33b
00000240: 71b5 02bc 7704 2abd ee86 323d d0b9 35bc
00000250: d375 da3b 641f 653b 73ab 1bbd 77e6 ebbc
00000260: e275 47bc 7013 32bd 3b9c 053d 8ec9 13bd
00000270: c89b cfbb f4d0 d63c 61b5 8e3b 5b6f 013d
00000280: 5dff 163c 1c3e a13c 4180 1abd 69d4 ac3c
00000290: dd82 debc 6b89 98bc 2b33 1bbd cda9 2b3d
000002a0: 5e4e 1dbd b963 343d 699e 293d c144 31bd
000002b0: da60 1fbd 2a94 093d 2528 b4bc 99b6 c6bc
000002c0: ea3e 2cbb 04c1 c43c 646e 1ebd 0eef 6abc
000002d0: bb01 06bd a5a7 1a3d 3561 063d 089c bf3c
000002e0: 41dc 19bc 8a84 4abc 2c9f 3c3c 3de0 18ba
000002f0: 8ce9 d6bb 1859 a0bc ce77 f1bb dd81 253d
00000300: 13bd d23c 8dd0 0b3d d55c 9b3c cc1b af3c
00000310: 432d fdbc c18f a6bc 8454 8cbb 2b1d 08bd
00000320: 9826 fabc 5608 8cbc 7bdd 82bb fa79 f03c
00000330: ab2b 383b d106 50bc a08a ddbc fdb5 173d
00000340: dd95 03bd e66b 68bc df1e 2439 2aba 53bc
00000350: c99d 763c 974a 22bb ecb8 293d f64b 033d
00000360: 7ab0 9e3c 8cf0 ca39 0e33 093b 5535 113d
00000370: d2a1 013d e900 cb3c 9a68 1d3a a517 203b
00000380: c0e9 02bd 60b5 bdbc a5e4 bcbc ed63 c3bc
00000390: cde4 d5bb f222 06bd 173a 163d 51f1 a1bb
000003a0: fefb fdbc 8023 123d eecc 113d 098c 1fbc
000003b0: fe40 233c ea2a 143d 8b08 d0bb 3bc6 833c
000003c0: 2760 17bd 2028 533c aca0 82ba 74c4 373c
000003d0: 5b3f c53c f01d cbbb 22fa 21bd b68c cf3a
000003e0: 474c e83c e63c 24bd a7cf f93c 55b3 32ba
000003f0: 7437 ca3c 39df ad3b 558b c8bc 6734 4cbc
0.02801828 0.025784213 -0.011850066 0.006638476 -0.008784888 0.021205818 -0.009990521 0.006225137
0.041725174 -0.023069378 -0.01297007 -0.00901549 -0.04109172 0.04369845 0.028503003 0.01886927
-0.034427695 0.013067577 0.032174334 0.001282576 0.013046926 0.0371154 -0.02537463 0.013459649
0.024678756 -0.0012850995 -0.031058533 -0.029005688 0.0068194284 -0.0320655 0.017347606 0.0029175892
-0.0309659 0.042974398 -0.008431524 0.03775283 -0.021869842 0.017005404 -0.008586177 -0.013160342
0.005616199 -0.029192192 -0.030839302 0.022922063 -0.019194413 -0.032649636 -0.033136275 0.021001142
0.04175827 0.020467332 -0.017757837 -0.040953685 -0.03136622 -0.0068740402 -0.026777036 -0.020430205
-0.033077978 -0.0072321096 -0.029601881 -0.004006158 0.023130085 -0.004474541 -0.008869087 0.00792779
0.04264443 0.017011069 -0.0008772024 0.018657276 0.0053039542 0.0050426438 0.012643917 -0.022613518
-0.013019156 0.03499463 -0.020374198 0.0025787337 0.0090206005 0.00024932495 -0.00469214 0.024119066
-0.0036123062 0.01249801 0.008497478 -0.026792767 0.023726773 -0.03403435 -0.033366732 0.023875456
-0.026936108 0.032870125 0.027043289 0.005976839 -0.044111174 -0.0164678 0.032668117 0.014282655
0.043710712 0.018947236 0.006691381 -0.03735993 0.013378627 -0.022452315 -0.027641267 -0.0006414961
0.005940066 -0.044064965 0.011214459 -0.0137078725 0.017154383 0.005924993 0.01146528 -0.013143126
-0.024185194 -0.009438408 -0.04240976 0.00078098633 0.016798344 -0.0049911086 -0.027403327 -0.014484823
0.0058799647 -0.008412817 0.03150495 0.026513755 -0.012507968 0.039473556 0.022933291 0.041685898
-0.030689891 0.004421615 -0.021297878 -0.016430305 0.0005151873 -0.027330687 -0.043674503 0.013119133
-0.029447017 0.039920397 0.003187113 -0.017831678 -0.041037638 -0.0017357125 -0.008624599 0.004980335
-0.007977829 -0.041508164 0.04358571 -0.011091664 0.006666878 0.0034961337 -0.038005304 -0.028796418
-0.012174102 -0.04347557 0.032619696 -0.03608089 -0.0063357092 0.026222683 0.004355118 0.031600337
0.009216157 0.019682936 -0.03771997 0.021097379 -0.02716201 -0.018620213 -0.037890594 0.04190998
-0.038404815 0.044040415 0.041410837 -0.04327846 -0.038910724 0.033588566 -0.021991799 -0.024256991
-0.0026282617 0.024017818 -0.038679495 -0.014339222 -0.032716494 0.037757535 0.032807548 0.023389831
-0.0093908915 -0.012360701 0.011512559 -0.0005831754 -0.0065586027 -0.019573733 -0.007369018 0.04040705
0.025724923 0.034134436 0.018965164 0.02137556 -0.030905372 -0.02033222 -0.004282536 -0.03323094
-0.030535981 -0.017093819 -0.0039936877 0.029355038 0.00281022 -0.012696938 -0.02704364 0.037038792
-0.032125343 -0.014185881 0.00015651759 -0.012922803 0.015052267 -0.0024763697 0.04143612 0.032054864
0.01937126 0.00038707664 0.0020934972 0.035451252 0.031648465 0.024780707 0.00060046616 0.0024428156
-0.031961203 -0.023157775 -0.023058245 -0.02385136 -0.0065275193 -0.03274817 0.036676493 -0.0049420972
-0.031003948 0.035678387 0.035595827 -0.009737977 0.009964226 0.03617374 -0.0063486747 0.016085735
-0.036956932 0.0128879845 -0.0009966097 0.011216272 0.024078062 -0.006198637 -0.039545186 0.0015834782
0.028356684 -0.04009714 0.030494524 -0.00068168837 0.024684645 0.005306151 -0.024480501 -0.012463666

FC4.bias f4 [128]
00000000: 8ec5 abbb d6ba de3b 9487 763c 277d efbc
00000010: 87b2 1e3d de5c e0ba 950a c4bc d427 b7bc
00000020: 85ba 573c 7271 7dbc 0a1c fd3c d0a6 d63b
00000030: 162e 3b3c 8b8a bcbc 650a 89bb 2efd e9bc
00000040: 69d5 303d be54 1ebd 52f1 683c 64b3 cd3c
00000050: 4eb9 0cbd 6d93 a33c eed4 e9bc 404a 063d
00000060: 2be0 823c 2952 313d bf67 fcbc e79f ad3c
00000070: 8692 a93a 1b74 ff3b 4839 623b 111c b43c
00000080: f48c d13c be3f 82bc 9c30 133d 138d 0c3d
00000090: 19d7 9d3c 1583 06bd bb45 b23c 2dd8 223d
000000a0: 76c6 903c aed5 173c 5a9c 973c c716 253d
000000b0: 9d29 86bc 7bcf 303d 4a47 f1bc 9060 46bc
000000c0: 1ff7 1b3d df60 e43c b547 c1bc fe57 673c
000000d0: 84b3 19bd 811e 20bd ef5f a2bc 0a9b 113d
000000e0: 80c5 163d 7181 c2bc bd86 803c 8569 8abb
000000f0: 7d29 61bc d92d d33b cfd3 d9bc 54e1 0d3d
00000100: 21f0 9c3b f3f0 e33c 552d 233d 54d9 2cba
00000110: 5a9c ae3c a49d ca3c 22da 863c 5088 0cbd
00000120: 8348 33bd 9fae 22bd 9f57 c73c 6b3b 0e3d
00000130: 4862 de3c 2dfe 36bb 68b8 b83c a558 a6bc
00000140: feb0 0d3d ec13 7ebc 31c0 54bb 7faa 473c
00000150: 1111 073d b02d 15bd c404 2cbd 3bef 4dbb
00000160: 1bab 6abc d862 0abc ca30 073c f62d 353a
00000170: b170 f7bc 1f56 eebb b340 ecbb c519 22bd
00000180: 8932 19bd f969 f3bc 09c9 643b acd3 c7bc
00000190: b594 253d c71a 90bb d45c d3bb 435e 0cbc
000001a0: dfee 063d 2ade 12bd bfdd 97bb 4cb9 c1bc
000001b0: cd4d 08bd 13f3 2c3d ef39 c7bb 4769 e4bc
000001c0: d9f7 cdbb 7767 293d bb25 f2bc 71a6 b63c
000001d0: 59eb 26bb 2ba2 d3bb 453f f13c 5f47 fd3c
000001e0: e197 0b3d 0620 25bd 027f 9dbc de0f 273d
000001f0: 492a 82bc 9196 f7bc 0f46 87bc 4474 d4bb
-0.005242056 0.006797175 0.015046973 -0.029234482 0.038744476 -0.001711752 -0.023930827 -0.022357859
0.013167028 -0.015468942 0.03089716 0.0065506473 0.011424562 -0.023015281 -0.0041821473 -0.028563108
0.043172274 -0.038655035 0.0142176915 0.025109954 -0.034356408 0.019967759 -0.028543916 0.032785654
0.015976032 0.043291245 -0.030811189 0.021194411 0.0012937344 0.0077958233 0.0034519006 0.02198604
0.025579907 -0.015899535 0.03593503 0.034314226 0.019267606 -0.032839853 0.021761766 0.039756943
0.017672759 0.009267254 0.018507171 0.040304925 -0.016377265 0.04316662 -0.029452939 -0.012107983
0.03807747 0.027878223 -0.023593763 0.0141201 -0.037524715 -0.03909159 -0.019821135 0.035548247
0.036809444 -0.023743363 0.015689248 -0.0042240047 -0.013742802 0.0064446745 -0.026590256 0.034638718
0.004789368 0.027824854 0.039838154 -0.0006593664 0.021314789 0.024733372 0.016461436 -0.034309685
-0.043770324 -0.039717313 0.024333773 0.034724634 0.027146474 -0.0027922497 0.02254887 -0.02030594
0.03459262 -0.015507679 -0.0032463188 0.0121866455 0.03297526 -0.036420524 -0.041996732 -0.003142311
-0.014323021 -0.008446418 0.008251378 0.0006911451 -0.030205103 -0.00727345 -0.007209861 -0.039575357
-0.03740171 -0.029713618 0.0034909865 -0.024392925 0.04042502 -0.0043977234 -0.006450275 -0.008567396
0.03294265 -0.035856403 -0.0046345885 -0.023647927 -0.03327732 0.042224 -0.0060799043 -0.027882231
-0.0062856493 0.041358437 -0.029559007 0.022296162 -0.0025469868 -0.006458541 0.029449115 0.030917821
0.03408039 -0.040313743 -0.019225601 0.040786617 -0.015889304 -0.030223163 -0.016512899 -0.0064835865

linear.weight f4 [1, 512]
00000000: 77c8 1dbd 1aae 18bd 6ee0 a6bb 8060 083d
00000010: cd14 e03c 76ec 10bd 4a3b 2cbc b26c 0f3d
00000020: 9aad 12bc b081 c8bc 17f4 cfbc a7c2 d73c
00000030: 5d8e 1a3d 39a8 a0bc 3e01 1fbc a880 e23b
00000040: 3a22 b13a 7454 adbc f92f b73c a6be a539
00000050: 15a2 27bd 1b17 8a3c 8535 26bd 1b33 0b3d
00000060: cec5 2dbd 0982 863c 1700 cc3c fc58 e1bc
00000070: aacf 2d3b 88ea b23b 4405 163c f1cc 6d3b
00000080: ef1d 8a3c d44a cb3c 1e39 273d 12b5 12bc
00000090: 1892 2cbd d130 413a 5966 71bc fef5 853c
000000a0: 78f8 87bc 1899 8e3b dc51 21bd 1c49 003d
000000b0: b675 00bd d459 67bc 31a3 d8bc 838e ff3c
000000c0: 337e 073d 9852 babc ad27 2abc ea0f ac3c
000000d0: 456e 88bc 109f 13bd e07c 213d c653 aebc
000000e0: 61a1 733b 1e2e d03c 5df4 193c 8688 b13c
000000f0: ff7a ebbc 766d 88bc 5400 f73c 55d1 51bc
00000100: 6cde 18bd de99 f73c fa98 db3b 8b6c 083d
00000110: bf87 953c 2ecd d3bc 4b20 9abb a1e0 65bc
00000120: 2c08 12bd decc d8bc ffef 08bd cee4 21bd
00000130: 8b80 f33c ce8c 043d 4c1f 44bc 848d e23b
00000140: 342d feba a9b3 b3bc d7a6 8e3c cf9d 61bb
00000150: a9a5 af3c c092 2dbd 14d8 26bd d386 1abc
00000160: ab52 783c 1a1b 243d b19e 203d c972 91bc
00000170: db90 ecbc 4606 343d dbe7 033d ff15 4cba
00000180: 6599 26bd 75d2 343d b0de b23b 37e6 d1bc
00000190: a5c0 bfbc 06ca 2abd c61a 27bd b472 3a3c
000001a0: 316d 44bb 42dc e43c b7b3 dd3c 18d5 b93c
000001b0: b3f3 91bb 618b 24bd a989 7139 99d2 4cbc
000001c0: a0de db3c e11a 02bd e973 c4bc 5d5e 02bd
000001d0: ab79 13bc 6ba8 0a3d 11e1 b13c 8c57 5b3c
000001e0: 172b 933b c19f 063d 18b5 663c b310 3a3c
000001f0: 8c4c 293d d9f7 c93c 5047 14bd e918 15bd
00000200: c0dd a73b 1cb6 123d 08b3 93bc 7f15 153d
00000210: baa4 093d a766 e33c add2 1a3d 8627 823c
00000220: 92a3 fdbc 69ff 37bc f5ec 7fbc 170d 893b
00000230: b29e d8bc d208 993c 9d33 0d3d 41c9 0ebd
00000240: 214e d83c fda5 273d 2510 083d b824 d6bc
00000250: aee2 2bbc 5545 32bd 4d45 07bd 0e43 fabb
00000260: ecce 86bb f6e8 163d 6519 1cbd 7d6b 1bbd
00000270: 07b1 013c 67cd 20bd b7e8 9abc 9577 dcbb
00000280: 34f7 0abc 5ea5 bf3a c3d6 9c3c a0a5 d93b
00000290: 0437 473a d046 bd3c 85e0 d63c 0bf6 993b
000002a0: 66ec 063d 8425 efbc 4727 30bd c092 953c
000002b0: 6dec 043d 59b9 c4bc 05b6 773c fb4d d93c
000002c0: 021e 4a3c ad7f f4bb ea0b fc3c 3c05 173d
000002d0: a753 bfbb ee1f 463c 4927 163d 0530 9dbc
000002e0: bd8c 91bc 119a 233d cb66 68bc d461 84bc
000002f0: e236 0f3d ba80 f43c 00dc aa3c 749d d2bc
00000300: 2160 163b 9c68 fe3c 92dc 7dbc bf24 c8bc
00000310: 4b4e dabc 8aa9 f0bc 6e2e f3bc 4614 e33c
00000320: 02d1 bbbc b723 94bc 71fb cabc 04c5 dbbc
00000330: 0465 32bd b335 67bb ad4e 7fbc eb4a 1bbd
00000340: e8dc 163d d1b1 15bd e794 243d 7802 0e3d
00000350: df2b 2e3d 5098 273d b89b 8fbb b032 d7b9
00000360: 1ce0 4e3c 7dd9 853c 83d2 edbb f14e d03b
00000370: 0b0e 22bd 185d 03bd 8657 903c 55b6 e8bc
00000380: bdd5 2f3d e98f e93c a1fd e83c 866a 10bc
00000390: 4935 0bbd f71a 663c b9d3 11bc e2ea d8bc
000003a0: db66 19bd 40e8 c6bc c9c1 5cbc 9db3 27bc
000003b0: 2bed 5bbc ddbe a2bb 41cb 223d 499c 54bc
000003c0: 036d 4d3c e1c5 46ba 1e74 b33c 3159 623b
000003d0: 4637 30bd 9660 1c3c a142 8c3c c8a5 1d3d
000003e0: 19c1 d8bb 2efe 2d3c 60b3 aaba c628 eb3a
000003f0: 063b 243c 2078 773c 96a6 14bc 2ead f5bc
-0.038521256 -0.03727541 -0.005092672 0.033295155 0.027353669 -0.035381757 -0.0105121825 0.03501577
-0.008952523 -0.024475902 -0.025384946 0.026337935 0.037733424 -0.019611465 -0.009704886 0.0069123097
0.0013514229 -0.021158434 0.022361742 0.00031613297 -0.040926058 0.01685672 -0.040578384 0.033984285
-0.04242497 0.016419427 0.024902387 -0.027508251 0.0026521483 0.005460087 0.009156529 0.0036285485
0.016859977 0.024815954 0.040825956 -0.008954303 -0.042131513 0.000736964 -0.014733874 0.01635265
-0.016597971 0.0043517463 -0.039384708 0.031319723 -0.031362258 -0.014120538 -0.026445003 0.031195885
0.033079337 -0.022744462 -0.010385436 0.021003682 -0.016654143 -0.036040366 0.03942573 -0.02128018
0.0037175047 0.025412615 0.00939664 0.021671545 -0.028745173 -0.016653758 0.030151524 -0.012806256
-0.037321493 0.030224737 0.006701586 0.03330664 0.018253205 -0.025854673 -0.0047035567 -0.0140306065
-0.035652325 -0.026464876 -0.033432003 -0.039524846 0.02972438 0.032360844 -0.011970352 0.0069138426
-0.0019392134 -0.021936255 0.01741354 -0.0034426337 0.021441298 -0.04237628 -0.040733412 -0.009431559
0.015156428 0.04006491 0.03921384 -0.01775493 -0.028877666 0.043951295 0.032203536 -0.000778526
-0.040673632 0.04414602 0.0054586753 -0.02562247 -0.02340729 -0.04169657 -0.040797018 0.011379886
-0.002997231 0.027937058 0.027063234 0.022684619 -0.0044541 -0.040171985 0.00023034833 -0.012501382
0.026839554 -0.031763915 -0.023981052 -0.031828273 -0.009001176 0.033852022 0.021713765 0.013387572
0.0044912207 0.032867197 0.014081262 0.0113565205 0.041332766 0.024654316 -0.03620082 -0.03640071
0.00512287 0.035818204 -0.018029705 0.036397453 0.03360436 0.02775891 0.037798572 0.015887987
-0.030961785 -0.011230328 -0.01562046 0.0041824686 -0.02644286 0.018680964 0.03447305 -0.0348599
0.026404442 0.040929783 0.03321852 -0.026140556 -0.010491056 -0.04352315 -0.033025075 -0.007637388
-0.0041140225 0.036843263 -0.038110156 -0.037944306 0.007915742 -0.039258387 -0.018909795 -0.0067281225
-0.008481789 0.0014621427 0.019145375 0.0066420585 0.00075994455 0.023105055 0.026230106 0.00469852
0.03294029 -0.029192694 -0.043006208 0.018258452 0.032452036 -0.024014162 0.01511908 0.026526442
0.012336256 -0.007461509 0.0307674 0.036870226 -0.0058388296 0.012092574 0.03665856 -0.019187937
-0.017767305 0.03994185 -0.014184664 -0.01615993 0.03496445 0.029846538 0.020856857 -0.025709845
0.002294548 0.031055741 -0.015494483 -0.024431584 -0.026648661 -0.029377718 -0.029685225 0.027719628
-0.022926811 -0.018083436 -0.0247781 -0.026827343 -0.043553367 -0.003527981 -0.015582723 -0.037913244
0.036831766 -0.036546532 0.040181067 0.034670323 0.042522307 0.04091674 -0.004382577 -0.0004104576
0.012626674 0.016339058 -0.007257761 0.006357067 -0.039564174 -0.032071203 0.01761986 -0.028407255
0.042928446 0.028511005 0.028441252 -0.00881446 -0.033986364 0.014044515 -0.008900576 -0.026479188
-0.037451606 -0.024280667 -0.013473936 -0.010235694 -0.0134232445 -0.0049666003 0.03974462 -0.012976714
0.012538197 -0.0007582587 0.021905955 0.0034538026 -0.043021463 0.009544512 0.017121615 0.03848818
-0.006614816 0.010619683 -0.0013023429 0.0017941229 0.010023838 0.015104324 -0.00907292 -0.029989805
