dl/poal_dl/modelpara/20230826_165216__epochsbackbone200_epochsmqnet100_lrbackbone0.001_lrmqnet0.001_mqnet.params (torch, 3501 bytes, 3 tensors)

W1 f4 [2, 64]
0.15019353 0.14666215 0.19317171 0.77484185 0.8944222 -6.38839e-05 0.7042193 0.80830735
0.9491244 0.017221967 0.8584528 0.20772013 0.062553614 0.24895959 0.52668136 0.5757638
0.75959253 0.09733295 0.062874906 0.9699667 0.6791164 0.7951139 0.444472 0.4112591
0.5214965 0.5754594 0.58025116 -3.4553145e-06 0.5343021 0.61196595 0.5576376 0.24286547
0.55325973 0.27800226 0.9294386 0.024797007 0.048356716 0.27401 0.7552698 0.8189669
0.9848521 0.567242 0.19405046 0.50750536 0.69488907 0.5776375 0.2239252 0.5888484
0.91148245 0.11611335 0.4276526 0.81313473 0.19425465 0.9816093 0.2657605 0.45030716
0.46370617 0.949905 0.96394646 0.36654902 0.8056754 0.24823773 0.24666016 0.30329072
0.9682512 0.3873809 0.2769125 0.16057467 0.12453359 0.096548915 0.422703 0.7653866
0.7719969 0.48643368 0.64586806 0.092707194 0.78748083 0.010424495 0.48668948 0.088167034
0.8193034 0.59148276 0.22702937 0.383222 0.36916885 0.27384618 0.09572917 0.8436934
0.9240753 0.8227884 0.67671674 0.56726784 0.61685383 0.010816705 0.46135116 0.3625725
0.37151608 0.025037723 0.9094617 0.7462739 0.65146744 0.9118221 0.0862243 0.15091546
0.45192397 0.3692059 0.47694442 0.49184805 0.42320085 0.29210082 0.6357835 0.61894274
0.6289401 0.61463964 0.98119885 0.67536914 0.61211383 0.6101536 0.96774673 0.8502322
0.69720066 0.394126 0.15088744 0.38310078 0.015882986 0.6082321 0.6717333 0.15173721
00000000: 55cc 193e 9a2e 163e cece 453e 095c 463f
00000010: daf8 643f 68f9 85b8 b747 343f 3bed 4e3f
00000020: d1f9 723f 1515 8d3c 90c3 5b3f 96b4 543e
00000030: 1c1c 803d 43ef 7e3e 97d4 063f 4265 133f
00000040: a874 423f 7f56 c73d 8fc4 803d bd4f 783f
00000050: 93da 2d3f 968c 4b3f d591 e33e 8e90 d23e
00000060: cb80 053f 4f51 133f 578b 143f dae1 67b6
00000070: 06c8 083f cda9 1c3f 56c1 0e3f bab1 783e
00000080: 6ea2 0d3f 5056 8e3e b0ef 6d3f 1823 cb3c
00000090: b111 463d 0a4b 8c3e 5d59 413f d1a7 513f
000000a0: 441f 7c3f c636 113f 2ab5 463e dfeb 013f
000000b0: 40e4 313f 0de0 133f a64c 653e c5be 163f
000000c0: ea56 693f d6cc ed3d 48f5 da3e 9929 503f
000000d0: b1ea 463e bf4a 7b3f c311 883e a98e e63e
000000e0: e56a ed3e f92c 733f 32c5 763f 50ac bb3e
000000f0: be40 4e3f 0832 7e3e 7b94 7c3e ec48 9b3e
00000100: 50df 773f ca56 c63e 7ac7 8d3e b06d 243e
00000110: 780b ff3d 70bb c53d 876c d83e 60f0 433f
00000120: 97a1 453f d60d f93e 9c57 253f 45dd bd3d
00000130: 5898 493f 80cb 2a3c 5d2f f93e eb90 b43d
00000140: debd 513f 6a6b 173f 637a 683e ad35 c43e
00000150: b303 bd3e 9135 8c3e a80d c43d 4afc 573f
00000160: 3390 6c3f 43a2 523f 4f3d 2d3f 7738 113f
00000170: 22ea 1d3f 8d38 313c 3836 ec3e 1aa3 b93e
00000180: 5b37 be3e e91b cd3c 7bd2 683f ce0b 3f3f
00000190: 92c6 263f 2c6d 693f 5e96 b03d 9589 1a3e
000001a0: 9462 e73e 8e08 bd3e 0f32 f43e 82d3 fb3e
000001b0: c8ad d83e 3d8e 953e b5c2 223f 0873 1e3f
000001c0: 3802 213f 0659 1d3f d92f 7b3f fee4 2c3f
000001d0: 7eb3 1c3f 0733 1c3f 40be 773f d1a8 593f
000001e0: be7b 323f e2ca c93e 3d82 1a3e c925 c43e
000001f0: 091d 823c 19b5 1b3f b7f6 2b3f 0061 1b3e

W2 f4 [64, 1]
0.083127275 -5.490395e-06 0.7532715 0.31230798 0.7662185 0.4834673 0.20568496 0.9356756
0.75695693 0.17676732 0.8024139 0.61761487 0.8683311 0.31196734 0.16070926 0.32452828
0.5631344 0.17400399 0.59726065 0.20747335 0.82518506 0.46370128 0.78822076 0.9036764
0.8776956 0.94180137 0.35597444 0.46112823 0.5938368 0.7134717 0.8495132 0.09786371
0.26831377 0.80579555 0.8983574 0.110812545 0.12955455 0.052524112 0.74309534 0.59786385
0.30712956 0.4515051 0.0023451315 -1.0540415e-06 0.21128586 0.30215156 0.0142888045 0.6194575
0.31465343 0.19972964 0.2339318 0.456071 0.10921173 0.30991045 0.107162416 0.6384433
0.08048692 0.88414407 0.37260264 0.60007954 0.86469907 0.22448133 0.929202 0.58931035
00000000: a23e aa3d 223a b8b6 67d6 403f d5e6 9f3e
00000010: e526 443f 0789 f73e 149f 523e 7088 6f3f
00000020: eec7 413f 7e02 353e ff6a 4d3f 021c 1e3f
00000030: f24a 5e3f 2fba 9f3e f890 243e 9228 a63e
00000040: 9329 103f 1a2e 323e 13e6 183f e573 543e
00000050: 543f 533f 416a ed3e d6c8 493f 5657 673f
00000060: a9b0 603f e519 713f 4842 b63e 0019 ec3e
00000070: b005 183f 15a6 363f b279 593f c56c c83d
00000080: 6c60 893e 9e48 4e3f c0fa 653f b0f1 e23d
00000090: f3a9 043e 8623 573d 7f3b 3e3f 9b0d 193f
000000a0: 1640 9d3e ad2b e73e c7b0 193b 9778 8db5
000000b0: 525b 583e 9cb3 9a3e 971b 6a3c c494 1e3f
000000c0: 411a a13e ed85 4c3e d18b 6f3e 2382 e93e
000000d0: 66aa df3d 95ac 9e3e f877 db3d 0571 233f
000000e0: 54d6 a43d 4457 623f c6c5 be3e d09e 193f
000000f0: eb5c 5d3f 6fde 653e 2fe0 6d3f 0bdd 163f

b1 f4 [64]
0.07914518 0.91235936 0.4500411 0.22070467 0.099101 0.62039423 0.9122338 0.4322744
0.18894175 0.29364687 0.15835927 0.717248 0.69851196 0.19437899 0.6474039 0.52006245
0.74523425 0.48469612 0.22137976 0.71224093 0.5703794 0.5706758 0.12483526 0.45737836
0.36053783 0.14124578 0.8603268 0.06628691 0.77812123 0.17259295 0.16131428 0.21942033
0.48385298 0.6272916 0.3834481 0.5049707 0.9830499 0.1544783 0.43753085 0.41695976
0.8093882 0.75805515 0.14640716 0.43450618 0.93105555 0.9442653 0.5521562 0.62033
0.14022206 0.25528213 0.105946675 0.7360459 0.069442585 0.4836767 0.6034265 0.7976731
0.6933672 0.5532502 0.5556596 0.69208825 0.41842374 0.76739436 0.6856009 0.5268907
00000000: de16 a23d 6290 693f c96b e63e 6800 623e
00000010: 77f5 ca3d 28d2 1e3f 2888 693f 1253 dd3e
00000020: f279 413e e258 963e ef28 223e 919d 373f
00000030: aed1 323f 490b 473e 43bc 253f d022 053f
00000040: acc7 3e3f 172a f83e 60b1 623e 6c55 363f
00000050: 6204 123f cf17 123f a1a9 ff3d 7f2d ea3e
00000060: 6a98 b83e bca2 103e 613e 5c3f 6ec1 873d
00000070: f432 473f 35bc 303e 922f 253e b9af 603e
00000080: 94bb f73e 2f96 203f 4f53 c43e c345 013f
00000090: 29a9 7b3f 8f2f 1e3e 0b04 e03e c07b d53e
000000a0: 1134 4f3f e70f 423f c2eb 153e 9877 de3e
000000b0: a859 6e3f 5fbb 713f 1c5a 0d3f f2cd 1e3f
000000c0: 5f96 0f3e 57b4 823e 92fa d83d 816d 3c3f
000000d0: ea37 8e3d 79a4 f73e 297a 1a3f 4e34 4c3f
000000e0: 8380 313f cea1 0d3f b53f 0e3f b22c 313f
000000f0: a33b d63e f573 443f 8a83 2f3f 4fe2 063f
