dl/poal_dl/modelpara/20230826_123617__epochsbackbone200_epochsmqnet100_lrbackbone0.1_lrmqnet0.001_mqnet.params (torch, 3489 bytes, 3 tensors)

W1 f4 [2, 64]
0	0x3ebcc398	0.36867976
1	0x3ec7ff39	0.39061907
2	0x3f57df33	0.8432495
3	0x3f7cee85	0.9880145
4	0x3f2086c6	0.6270565
5	0x3f6a8686	0.91611516
6	0x3f805afb	1.0027765
7	0x3e9bb17f	0.30408856
8	0xb8225ebe	-3.8712045e-05
9	0xb720afcf	-9.577677e-06
10	0x3f81fc75	1.0155169
11	0x3f79021e	0.97268856
12	0x3f35a6bf	0.7095756
13	0x3eaca187	0.33716986
14	0x3ed4873b	0.41509423
15	0x3f74b789	0.9559255
16	0x3f066460	0.5249691
17	0x3f080860	0.5313778
18	0x3f619a3f	0.88125986
19	0x3e26e5b0	0.16298556
20	0xb8795524	-5.944552e-05
21	0x3f40eaaf	0.753581
22	0x3e29be38	0.16576469
23	0x3eff67b2	0.498838
24	0x3f85704c	1.0424895
25	0x3f6e6fd0	0.9313936
26	0x3f35b03d	0.70972043
27	0x3ef2e124	0.47437394
28	0x3f0db439	0.5535312
29	0x3e8a9f6b	0.2707475
30	0x3e8b2b25	0.27181354
31	0x3f1e7b10	0.6190653
32	0xb87c1c24	-6.010769e-05
33	0x3f37f3c0	0.7185631
34	0x3f0f020a	0.55862486
35	0x3f6488b2	0.8927108
36	0x3f1ccd71	0.6125098
37	0x3ed0f8c4	0.40814793
38	0x3dc5de30	0.096615195
39	0xb7a354a8	-1.9470535e-05
40	0x3e41223d	0.18860717
41	0xb93d9327	-0.00018079263
42	0x3db04551	0.08606971
43	0x3f3abd2e	0.72944915
44	0xb7e45736	-2.7220329e-05
45	0x3f0d74ae	0.55256164
46	0x3e7e3141	0.24823476
47	0xb9c992fb	-0.00038447217
48	0x3f250b20	0.644701
49	0x3c5195c8	0.012792058
50	0x3f211d1e	0.62935054
51	0x3f80b3df	1.0054892
52	0x3f0ce071	0.5502997
53	0x3f2e7236	0.6814302
54	0xb8080c85	-3.2436586e-05
55	0x3f6ea0d3	0.9321415
56	0x3f66f9ef	0.9022512
57	0xb8926d4a	-6.982179e-05
58	0x3dd06313	0.10175147
59	0x3f339f63	0.7016508
60	0xb8c24b4d	-9.264667e-05
61	0xb8704b32	-5.729049e-05
62	0x3e195d3e	0.14976975
63	0x3e85aa39	0.26106432
64	0x3ef27034	0.4735123
65	0x3e8f702b	0.28015265
66	0x3ef0c6be	0.47026628
67	0x3f01c1a4	0.506861
68	0x3f389521	0.7210255
69	0x3d44d64c	0.048055932
70	0x3f7221a6	0.94582593
71	0xb615a562	-2.2298996e-06
72	0x3f48e0b0	0.78467846
73	0x3f301835	0.68786937
74	0x3f176fdd	0.59155065
75	0x3f83b3a7	1.02892
76	0x3f274504	0.65339684
77	0x3f780adc	0.9689157
78	0x3f49c03b	0.78808945
79	0x3d9e87ff	0.07740783
80	0x3f3d9161	0.74049956
81	0x3f26e140	0.65187454
82	0x3e96c61e	0.29448026
83	0x3f667a8e	0.90030754
84	0x3d84189e	0.06450008
85	0x3f464782	0.7745286
86	0x3e901d87	0.28147528
87	0x3ce317e5	0.027721355
88	0x3f831b88	1.0242777
89	0x3f7131c8	0.94216585
90	0x3f65ebc4	0.89812875
91	0x3f2e1d53	0.68013495
92	0x3ee2e958	0.44318652
93	0x3ecf1bbd	0.4045085
94	0x3f42850c	0.75984263
95	0x3e4cb130	0.19989467
96	0x3ec84c2f	0.39120623
97	0x3ea7e0ff	0.32788846
98	0x3f201315	0.62529117
99	0x3f0d6992	0.5523921
100	0x3f2b4af8	0.6691127
101	0x3ea80779	0.328182
102	0x3f80c639	1.0060493
103	0x3f07cd4b	0.5304763
104	0x3f3382ba	0.7012135
105	0xb823c16d	-3.904237e-05
106	0x3d9ab8f5	0.07554809
107	0x3eedf10d	0.4647297
108	0x3f75d81f	0.960329
109	0x3f3b52ee	0.73173416
110	0x3ef3b4bf	0.47598836
111	0xb89d922a	-7.5135686e-05
112	0x3d634968	0.055489928
113	0x3ec038c4	0.3754331
114	0x3ef3eace	0.4764008
115	0x3d923db5	0.07140676
116	0x3ec9a0ea	0.3938058
117	0x3e0f1fd3	0.13976984
118	0x3f67ce4c	0.9054916
119	0x3f7127d3	0.9420139
120	0x3f0a2b14	0.5397198
121	0x3f4f34ae	0.8093976
122	0x3f2e090f	0.6798257
123	0x3ec9900c	0.39367712
124	0x3ebd0da4	0.3692447
125	0xb8b72d8f	-8.734606e-05
126	0x3f16532d	0.58720666
127	0x3bd121ce	0.0063822037

W2 f4 [64, 1]
0	0x3e70a03b	0.23498623
1	0x3e02f122	0.12787297
2	0xb68124b5	-3.848773e-06
3	0x3d9de4de	0.077096686
4	0xb8592550	-5.177158e-05
5	0x3ea87540	0.32901955
6	0x3ed37810	0.41302538
7	0x3d5e29c4	0.05423905
8	0x3e30dece	0.17272493
9	0xb685b794	-3.98508e-06
10	0x3eb152fb	0.34633622
11	0x3f26382a	0.6492945
12	0x3f0ff5fb	0.5623471
13	0xb89da7fb	-7.517632e-05
14	0xb7d4f9d0	-2.5388697e-05
15	0x3e04da3a	0.12973872
16	0x3f08ac31	0.53387743
17	0x3e873b89	0.2641261
18	0x3bcb8be4	0.0062117446
19	0x3da288da	0.079362586
20	0x3f066e8f	0.5251245
21	0x3e52f3e4	0.2060085
22	0x3f27698b	0.6539542
23	0xb765cbfb	-1.3696957e-05
24	0x3f0e2e21	0.5553914
25	0x3ee47560	0.446208
26	0xb7529481	-1.2551552e-05
27	0xb7c77eaf	-2.378164e-05
28	0x3e606282	0.21912578
29	0xb782071f	-1.5500524e-05
30	0xb78ff8f4	-1.7162856e-05
31	0x3e861978	0.26191306
32	0x3e98b7dc	0.29827774
33	0x3e059bc8	0.13047707
34	0x3e9786eb	0.29595122
35	0xb6e8a343	-6.933145e-06
36	0xb84ad201	-4.8356134e-05
37	0xb792f412	-1.751821e-05
38	0x3d93a03d	0.072082974
39	0x3ea68904	0.3252641
40	0xb727d7b7	-1.0004201e-05
41	0x3f75978b	0.9593436
42	0x3e9809b2	0.29694897
43	0xb51b047c	-5.7748525e-07
44	0x3dd15d65	0.10222892
45	0xb786344b	-1.5998396e-05
46	0x3e1c8029	0.15283264
47	0x3f69677c	0.9117353
48	0x3f0b3ed9	0.5439277
49	0x3e248fb4	0.16070443
50	0x3d8915ce	0.06693612
51	0x3edeac30	0.43490744
52	0x3e8b42e6	0.27199477
53	0x3e2e06ec	0.16994828
54	0x3ef2879b	0.47369084
55	0x3ded40b6	0.11584608
56	0x3f233e6a	0.6376711
57	0x3ee55fdb	0.44799694
58	0xb79cee83	-1.8707715e-05
59	0x3eeb778f	0.45989653
60	0x3ed8f1c8	0.42371964
61	0x3f06a644	0.5259745
62	0x3e893076	0.26794785
63	0x3f0826bd	0.5318411

b1 f4 [64]
0	0x3f0dbfe0	0.55370903
1	0x3e84c578	0.25931907
2	0x3e856150	0.26050806
3	0x3e4cf9c4	0.20017153
4	0x3db36fdf	0.08761572
5	0x3f8945a6	1.072438
6	0x3f11015e	0.5664271
7	0x3f14aca7	0.58075947
8	0x3f0d0da9	0.5509897
9	0x3dd10bd1	0.10207332
10	0x3e235d67	0.15953599
11	0x3f2c2a36	0.6725191
12	0x3ef054c4	0.4693967
13	0x3f115e68	0.5678468
14	0x3f04a8c1	0.5182
15	0x3f09b0fa	0.5378567
16	0x3f82777c	1.0192714
17	0x3f6ed526	0.9329399
18	0x3e818676	0.25297898
19	0x3d671c97	0.05642375
20	0x3f4a656f	0.79061025
21	0x3f80cb83	1.0062107
22	0x3f119378	0.56865644
23	0x3e341e2c	0.17589635
24	0x3f6109df	0.8790569
25	0x3f11a5b0	0.56893444
26	0x3dc0d1c6	0.09415011
27	0x3ec98ce6	0.3936531
28	0x3f65888f	0.89661497
29	0x3f393c67	0.7235779
30	0x3f4f252e	0.80916107
31	0x3eb1c658	0.34721637
32	0x3e8e2190	0.2775998
33	0x3ea13d2f	0.31491992
34	0x3e1f87bb	0.15579121
35	0x3f216fdc	0.6306131
36	0x3e329b18	0.17441976
37	0x3e594745	0.21218593
38	0x3ec35c6e	0.38156456
39	0x3e81ec38	0.25375533
40	0x3de7e934	0.11323777
41	0x3cb81be7	0.022474242
42	0x3f55a394	0.83452725
43	0x3f17aba1	0.5924626
44	0x3e57500e	0.21026632
45	0x3ec27a0b	0.37983736
46	0x3f55c904	0.8350985
47	0x3f08ea6b	0.53482693
48	0x3f6c9bc8	0.92425203
49	0x3d86de53	0.06585374
50	0x3f443c8c	0.7665489
51	0x3ec392e9	0.3819802
52	0x3eb6c408	0.35696435
53	0x3f767d90	0.96285343
54	0x3e12e3bb	0.14344685
55	0x3e752ccb	0.23942868
56	0x3f7e1db0	0.9926405
57	0x3f6204da	0.8828865
58	0x3de18922	0.11012484
59	0x3f88b2a6	1.0679519
60	0x3f44cecf	0.76878065
61	0x3f4343d5	0.7627538
62	0x3f08e295	0.53470737
63	0x3e27ea88	0.1639806
