dl/poal_dl/modelpara/20230828_130657__epochsbackbone200_epochsmqnet100_lrbackbone0.1_lrmqnet0.001_mqnet.params (torch, 3489 bytes, 3 tensors)

W1 f4 [2, 64]
0.61193573 0.644396 0.10788106 0.9211754 0.53823626 0.7786597 0.20579989 0.2969166
0.69620085 0.18159287 0.73000485 0.43794194 0.88219553 0.3579544 0.2375964 0.87132925
0.30302224 0.7659047 0.006849247 0.7137815 0.27305353 0.51162326 0.9948183 -0.00010283654
0.82442695 0.85347986 0.5253576 0.30029124 0.5617406 -2.8416816e-06 0.06676129 0.0037777957
0.76293683 -0.00014483831 0.8655524 0.3944926 0.5917106 0.3247499 0.77827 0.42634887
0.82710844 0.26238236 0.28817573 0.7814955 0.23979874 0.3558474 0.30513555 0.76265335
0.79986405 0.80075353 0.6972171 0.19483882 0.77705234 0.14041157 0.022033531 0.25073752
0.49725828 0.20018765 0.23569894 0.66442186 0.90670955 0.5416766 0.20388456 0.51473904
0.58483315 -1.8560178e-05 0.110010654 0.28819206 0.71749157 0.9394487 0.8556526 0.66480964
0.40829617 0.66305673 0.6269287 0.052741297 0.8420731 0.14607875 0.6644736 0.010409319
0.36111996 0.30875963 0.8854912 0.06530747 0.60022485 0.45317572 0.9887468 0.19473632
0.9733457 0.12202955 0.95945823 0.6598934 0.21019699 0.71791315 0.48329142 0.048407547
0.47457242 0.07916375 0.97237974 0.30480522 0.14568968 0.18244132 0.7959798 0.4463469
0.52807164 0.6656596 0.63553125 0.55404854 0.110338196 0.27759638 0.10477808 0.6060925
0.46172175 0.060879227 0.540644 0.5783064 0.23044229 0.87008613 0.20779842 0.23087451
0.8545843 0.36633652 0.8421645 0.52356184 0.0013793684 0.93786025 0.59727216 0.4101985
00000000: d2a7 1c3f 23f7 243f bff0 dc3d 27d2 6b3f
00000010: dac9 093f 3e56 473f 35bd 523e 7405 983e
00000020: 383a 323f 7bf3 393e 99e1 3a3f ed39 e03e
00000030: 91d7 613f cd45 b73e 784c 733e 6f0f 5f3f
00000040: bb25 9b3e 5512 443f a66f e03b 62ba 363f
00000050: accd 8b3e bef9 023f 69ac 7e3f f2a9 d7b8
00000060: a50d 533f a87d 5a3f d67d 063f c6bf 993e
00000070: 3bce 0f3f b8b3 3eb6 25ba 883d e594 773b
00000080: d44f 433f bddf 17b9 d894 5d3f effa c93e
00000090: 597a 173f 9e45 a63e b43c 473f 664a da3e
000000a0: 61bd 533f fb56 863e c58b 933e 1710 483f
000000b0: cd8d 753e a131 b63e ba3a 9c3e 403d 433f
000000c0: e4c3 4c3f 2ffe 4c3f d27c 323f d483 473e
000000d0: e7ec 463f 0dc8 0f3e aa7f b43c ab60 803e
000000e0: a398 fe3e fefd 4c3e 105b 713e 8d17 2a3f
000000f0: 1e1e 683f 51ab 0a3f 1dc7 503e f0c5 033f
00000100: a0b7 153f aeb1 9bb7 444d e13d e98d 933e
00000110: 87ad 373f b67f 703f 0c0c 5b3f f730 2a3f
00000120: 320c d13e 16be 293f 667e 203f 4207 583d
00000130: 1a92 573f ab95 153e f11a 2a3f d98b 2a3c
00000140: b7e4 b83e be15 9e3e 8daf 623f ecbf 853d
00000150: 56a8 193f a606 e83e 831e 7d3f f568 473e
00000160: 2f2d 793f a1ea f93d 0e9f 753f c6ee 283f
00000170: e13d 573e 28c9 373f f971 f73e fe46 463d
00000180: 28fb f23e 9b20 a23d e1ed 783f 6e0f 9c3e
00000190: ad2f 153e e6d1 3a3e 55c5 4b3f 9587 e43e
000001a0: b42f 073f ab68 2a3f 2db2 223f 20d6 0d3f
000001b0: fef8 e13d 1d21 8e3e e495 d63d e128 1b3f
000001c0: cb66 ec3e 7f5c 793d a567 0a3f e30b 143f
000001d0: 10f9 6b3e f7bd 5e3f 1cc9 543e 5e6a 6c3e
000001e0: 09c6 5a3f 7690 bb3e 1898 573f 2608 063f
000001f0: eccb b43a 9c17 703f d4e6 183f 8a05 d23e

W2 f4 [64, 1]
0.7935716 0.38491586 0.024860775 0.2026531 0.9363651 -2.824699e-07 0.09051783 0.443888
0.8842035 -1.5246186e-05 0.70951784 0.08908319 0.41558275 0.08048584 0.30375037 -7.896046e-05
0.86008376 0.4476578 0.44976714 0.016206764 0.62747204 0.28751144 0.864462 0.2755933
-3.3816046e-05 0.23825875 0.8700088 0.8322831 0.9229184 0.28748155 -9.046036e-06 0.5349159
0.60950524 0.8284903 0.04467939 0.65764225 0.29539493 0.7066253 0.57807094 0.3816455
0.5300741 0.055879276 -1.5650548e-06 0.09342772 0.2970075 0.40773705 0.41978908 -9.063607e-05
0.95349455 0.570435 0.62432647 0.07282076 0.8788716 0.31605107 0.1457608 0.49699813
0.91515726 0.8216151 0.8190545 0.8510617 0.55712986 0.7772648 0.3261253 0.19590151
00000000: 8227 4b3f b113 c53e d3a8 cb3c 4b84 4f3e
00000010: a0b5 6f3f 5ea6 97b4 6961 b93d 4a45 e33e
00000020: 295b 623f dfc9 7fb7 f6a2 353f 3f71 b63d
00000030: 43c7 d43e c3d5 a43d 2b85 9b3e 9397 a5b8
00000040: 732e 5c3f 6733 e53e e147 e63e 0cc4 843c
00000050: 02a2 203f b334 933e 624d 5d3f 911a 8d3e
00000060: b4d5 0db8 1afa 733e e6b8 5e3f 8110 553f
00000070: 6144 6c3f c830 933e 6ec4 17b7 40f0 083f
00000080: 8908 1c3f f117 543f bc01 373d 3e5b 283f
00000090: 013e 973e 65e5 343f 75fc 133f 0a67 c33e
000000a0: f0b2 073f abe1 643d e00e d2b5 0857 bf3d
000000b0: 5e11 983e e9c2 d03e 98ee d63e df13 beb8
000000c0: 3818 743f 0708 123f dcd3 1f3f 0d23 953d
000000d0: bbfd 603f 72d1 a13e 5242 153e 8a76 fe3e
000000e0: bf47 6a3f 5e55 523f 8ead 513f 2edf 593f
000000f0: 10a0 0e3f d3fa 463f e5f9 a63e 689a 483e

b1 f4 [64]
0.7507256 0.16210422 0.7494738 0.9553578 0.05477214 0.28968352 0.33913037 0.06779176
0.39724132 0.39262462 0.43321845 0.637999 0.79416907 0.24952655 0.70655763 0.8913743
0.3819678 0.58687896 0.49775898 0.7832234 0.67877215 0.34207535 0.9187959 0.086119704
0.4157973 0.22669148 0.18453628 0.30681077 0.9054339 0.80590236 0.037178494 0.972918
0.94415605 0.22798675 0.4185144 0.16221175 0.9341264 0.57406044 0.3754806 0.2502708
0.90532386 0.09276539 0.055567935 0.14717236 0.8302442 0.4132717 0.20589072 0.2500158
1.0025247 0.06852349 0.96845084 0.63273096 0.24317849 0.286519 0.066544324 0.9200363
0.4728198 0.6546989 0.761287 0.2302737 0.75308865 0.9814362 0.6391111 0.27079582
00000000: 8e2f 403f a6fe 253e 84dd 3f3f 5492 743f
00000010: c058 603d 6651 943e 7fa2 ad3e 68d6 8a3d
00000020: 3763 cb3e 1806 c93e cfce dd3e e753 233f
00000030: aa4e 4b3f e383 7f3e f6e0 343f 1b31 643f
00000040: 4991 c33e b33d 163f 44da fe3e 5481 483f
00000050: 03c4 2d3f 8024 af3e 3536 6b3f 875f b03d
00000060: 62e3 d43e d021 683e 14f7 3c3e 4d16 9d3e
00000070: 84ca 673f 9e4f 4e3f 7a48 183d 2711 793f
00000080: 36b4 713f 5c75 693e 8547 d63e d61a 263e
00000090: e822 6f3f a0f5 123f fe3e c03e 7f23 803e
000000a0: 4ec3 673f c8fb bd3d 349b 633d 5ab4 163e
000000b0: e28a 543f 5998 d33e 04d5 523e 1202 803e
000000c0: bb52 803f 0b56 8c3d 65ec 773f a8fa 213f
000000d0: c803 793e 9eb2 923e 6448 883d 8087 6b3f
000000e0: 7015 f23e 599a 273f b4e3 423f decc 6b3e
000000f0: 6bca 403f 673f 7b3f c99c 233f c0a5 8a3e
