dl/poal_dl/modelpara/20230826_102153__epochsbackbone100_epochsmqnet100_lrbackbone0.1_lrmqnet0.001_mqnet.params (torch, 3489 bytes, 3 tensors)

W1 f4 [2, 64]
0.7249532 0.21705745 0.6741798 0.42911926 0.5978206 0.5732011 -3.3984743e-05 0.508615
-7.6172226e-05 0.21703203 0.42966464 0.1428999 0.40156814 0.05731361 0.71380866 0.1181688
0.20944628 0.6124484 0.24989425 0.63729465 0.24765582 0.89324164 0.6905494 1.069537
0.37188596 0.66784585 0.95091605 0.8219563 0.11860949 0.28944963 0.10287663 0.5340459
-7.14251e-05 0.29293102 0.19003552 0.4273236 0.4676295 0.47286496 0.77749264 1.0224528
-0.00010682729 0.471649 -5.9763668e-05 0.8576984 0.65027153 0.31497777 1.0399383 -0.00033525922
0.30555886 0.42309707 0.17555076 0.83043134 0.32311603 0.60366493 0.2707418 0.46917486
0.87251043 0.022092458 0.51500154 0.5269813 1.0496581 0.4112994 0.7293718 0.9323323
0.97889775 0.8956524 0.6636391 0.0711445 0.27509594 0.0962868 0.63429815 0.02676553
-7.5765325e-05 0.24807994 0.95920265 0.9102031 0.19467178 0.6249625 0.26083443 0.1719439
0.62620056 0.4399593 0.5300647 0.56575626 0.018184956 0.04146604 0.601447 0.75228304
0.32222712 0.97327554 0.366928 0.12079869 0.33496016 1.0442767 0.44816238 0.30512828
0.76589644 0.74469614 0.9986161 0.9483421 0.47262153 0.5955816 0.4477533 0.3480964
0.022497378 0.37600625 0.8383744 0.16023506 0.119738236 0.8370853 0.74345315 0.0785918
0.99036235 0.018692166 -2.1235182e-06 0.23519978 0.030784536 0.5487889 0.3033297 0.18688168
0.5575983 0.6711516 0.22020866 0.83063316 0.6336852 0.78147006 0.7160464 0.24604692
00000000: 8896 393f 4f44 5e3e 0c97 2c3f 85b5 db3e
00000010: c50a 193f 4fbd 123f d78a 0eb8 9834 023f
00000020: a7be 9fb8 a53d 5e3e 01fd db3e 5a54 123e
00000030: 579a cd3e adc1 6a3d 2abc 363f 7c02 f23d
00000040: 1679 563e 6bc9 1c3f 47e4 7f3e be25 233f
00000050: 7d99 7d3e 7cab 643f d8c7 303f 97e6 883f
00000060: d667 be3e f2f7 2a3f 3c6f 733f ba6b 523f
00000070: 88e9 f23d be32 943e fcb0 d23d 3bb7 083f
00000080: 0fca 95b8 0efb 953e ac98 423e 29ca da3e
00000090: 226d ef3e 5b1b f23e c209 473f bcdf 823f
000000a0: 7708 e0b8 fa7b f13e c0aa 7ab8 1f92 5b3f
000000b0: 3278 263f c444 a13e b31c 853f bbc5 afb9
000000c0: 3672 9c3e 2ea0 d83e 94c3 333e 2697 543f
000000d0: 776f a53e c989 1a3f ab9e 8a3e b037 f03e
000000e0: d85c 5f3f 3efb b43c 24d7 033f 3fe8 063f
000000f0: 325b 863f d695 d23e 1cb8 3a3f 54ad 6e3f
00000100: 0b99 7a3f 7a49 653f 41e4 293f 35b4 913d
00000110: 60d9 8c3e 0432 c53d 5d61 223f 6343 db3c
00000120: 33e4 9eb8 ab08 7e3e 4e8e 753f 1203 693f
00000130: 0a58 473e 8bfd 1f3f 178c 853e 1012 303e
00000140: ae4e 203f 5842 e13e 52b2 073f 67d5 103f
00000150: 9ef8 943c 4bd8 293d 6ef8 193f 9f95 403f
00000160: f4fa a43e 9628 793f fddd bb3e 4e65 f73d
00000170: e67f ab3e dcaa 853f 8a75 e53e c639 9c3e
00000180: ca11 443f 68a4 3e3f 4ea5 7f3f 8cc6 723f
00000190: 73fb f13e 0978 183f ec3f e53e b139 b23e
000001a0: 6c4c b83c e483 c03e b49f 563f a914 243e
000001b0: 5239 f53d 394b 563f f252 3e3f bdf4 a03d
000001c0: 6388 7d3f 5020 993c c481 0eb6 36d8 703e
000001d0: da2f fc3c 6e7d 0c3f 084e 9b3e e95d 3f3e
000001e0: c3be 0e3f 97d0 2b3f 617e 613e 60a4 543f
000001f0: 3139 223f 6c0e 483f d14e 373f b9f3 7b3e

W2 f4 [64, 1]
-1.0523672e-05 0.43878025 -4.4599697e-09 0.71042717 -6.128929e-05 0.2941613 0.3873866 0.08858326
0.9088818 -1.5562042e-05 0.4903425 -1.2455115e-05 -1.0825384e-05 0.107325755 0.42622724 -2.7921404e-05
0.5882199 0.5848268 -7.579723e-05 0.6708009 0.32231915 0.54425406 -3.50178e-05 0.5671404
0.078738965 0.49613637 -6.268791e-05 0.40016517 0.14672932 0.6272015 -2.0676796e-05 0.48583657
0.3409438 0.67401725 -5.3014293e-05 0.22310185 -9.953186e-06 -5.946789e-06 0.050745632 0.49198046
0.39669153 -7.006689e-05 0.78520334 0.09967472 -3.746458e-05 0.07235326 0.4224989 0.76698
0.43077284 0.61315274 0.2721821 0.44012707 -6.625289e-05 -1.609717e-05 0.06559607 -2.3216912e-06
0.7639926 0.4954109 0.5712228 0.5425423 0.3251189 -8.703448e-06 0.051273603 -4.739319e-05
00000000: d48e 30b7 cea7 e03e 4f3e 99b1 8ede 353f
00000010: 7088 80b8 4f9c 963e 8957 c63e 246b b53d
00000020: 7aac 683f 3b8b 82b7 2c0e fb3e 50f6 50b7
00000030: ac9e 35b7 9bcd db3d 753a da3e c238 eab7
00000040: 9495 163f 36b7 153f 54f5 9eb8 9cb9 2b3f
00000050: 0407 a53e 3c54 0b3f 14e0 12b8 1d30 113f
00000060: e541 a13d 9605 fe3e 5177 83b8 73e2 cc3e
00000070: 3640 163e 4790 203f 1573 adb7 92bf f83e
00000080: 3090 ae3e 658c 2c3f aa5b 5eb8 d074 643e
00000090: 9cfc 26b7 878a c7b6 a7da 4f3d dde4 fb3e
000000a0: 271b cb3e e0f0 92b8 1603 493f 4222 cc3d
000000b0: 4923 1db8 f22d 943d c751 d83e cd58 443f
000000c0: 428e dc3e 94f7 1c3f 745b 8b3e 5658 e13e
000000d0: 40f1 8ab8 6908 87b7 3b57 863d 5ace 1bb6
000000e0: 0595 433f 7fa6 fd3e a83b 123f 0de4 0a3f
000000f0: fc75 a63e 0605 12b7 4504 523d 0dc8 46b8

b1 f4 [64]
0.36152896 0.67498547 0.98224545 0.83623976 0.41463846 1.0614171 1.025871 0.78598267
0.63839656 0.6256152 1.069076 0.03910581 0.5867289 0.80456614 0.6014295 0.06038268
0.60505605 0.7127098 0.2715617 0.8776053 0.8104045 1.0071895 0.8178385 0.43058136
0.3634792 0.89917994 0.23838115 0.40752092 0.06968317 0.5322256 0.64086187 0.9509693
0.9663652 1.0150309 0.6969477 0.47586337 0.5877313 0.754256 0.4533723 0.7701223
0.8404688 0.037980225 0.91625357 0.9810638 0.46913368 0.49985638 0.30812532 0.21420941
0.69360155 0.7065078 0.544392 0.48401153 0.1441451 0.61220974 0.8682991 0.121673435
0.9527615 0.24280766 0.7420131 0.84745395 0.2086654 0.6630196 0.94403976 0.40605637
00000000: 531a b93e d9cb 2c3f 7074 7b3f cf13 563f
00000010: 7e4b d43e 84dc 873f be4f 833f 2936 493f
00000020: f56d 233f 5128 203f 7bd7 883f 6a2d 203d
00000030: dd33 163f 0cf8 4d3f 49f7 193f d453 773d
00000040: f4e4 1a3f 2674 363f 230a 8b3e beaa 603f
00000050: ab76 4f3f 96eb 803f dd5d 513f 2975 dc3e
00000060: f219 ba3e a830 663f 301a 743e 95a6 d03e
00000070: 0db6 8e3d f03f 083f 860f 243f b972 733f
00000080: b663 773f 88ec 813f 2a6b 323f 5da4 f33e
00000090: 8f75 163f ec16 413f 6a20 e83e bc26 453f
000000a0: f728 573f 2791 1b3d 988f 6a3f ff26 7b3f
000000b0: 4a32 f03e 2ded ff3e 9ac2 9d3e b659 5b3e
000000c0: df8f 313f b2dd 343f 465d 0b3f 5cd0 f73e
000000d0: c69a 133e c7b9 1c3f da48 5e3f ec2f f93d
000000e0: 2de8 733f 92a2 783e 92f4 3d3f bef2 583f
000000f0: 62ac 553e a7bb 293f 97ac 713f 9fe6 cf3e
